logs/rsl_rl/anymal_c_flat_direct/2025-04-24_12-25-01/model_0.pt (torch, 982986 bytes, 48 tensors)

std f4 [12]
0.99359596 0.9905483 0.98939973 0.9924119 0.9940334 0.994466 0.99331814 0.9930359
0.9887957 0.9885917 0.98941004 0.99306875
00000000: 4e5c 7e3f 9394 7d3f 4d49 7d3f b50e 7e3f
00000010: f978 7e3f 5395 7e3f 194a 7e3f 9a37 7e3f
00000020: b721 7d3f 5814 7d3f fa49 7d3f c139 7e3f

actor.0.weight f4 [128, 48]
0.022189025 0.05955618 0.10821858 -0.13210592 -0.12405145 -0.10785671 -0.07474981 -0.032844342
0.0038321875 -0.015547734 0.14053416 0.13751629 0.055712715 0.040801376 -0.011549536 -0.11652218
-0.0019995808 -0.011763733 -0.07592709 -0.14272457 -0.10098919 0.1375122 0.13480219 0.10339013
0.11950194 0.08460787 0.13979937 0.0538742 0.037932828 0.080664374 -0.03519932 0.0781353
0.06649753 0.109570645 -0.055151764 -0.038194783 0.05599268 -0.13318467 0.07099707 -0.121743724
-0.12766694 -0.113774404 -0.024642939 -0.10497023 -0.038746074 -0.08973214 0.12386383 0.05566664
-0.13170041 -0.10496085 0.035791576 -0.12085432 -0.1161119 0.13417073 0.06878637 0.10815207
0.07491313 -0.12940925 0.012192522 0.055965375 0.025752334 -0.029932817 0.070955046 -0.012701565
0.08725736 -0.029629454 -0.100566335 0.088354684 -0.08750359 0.11123076 0.092415296 0.12281205
0.0672301 0.049892113 -0.07910687 0.01613799 -0.021365428 -0.07773077 -0.01722481 0.025114477
-0.019782562 -0.06991942 -0.10243231 -0.0143238185 0.07105867 0.11122746 0.046885774 -0.022986496
0.119126685 -0.14082302 -0.07189435 -0.008070878 -0.06862662 -0.08981867 -0.12670062 -0.13020548
0.043572642 0.13836598 0.08755782 0.13896278 0.13360801 -0.12622707 -0.03427048 -0.13880813
0.11871335 0.049145397 0.10918073 0.037150566 0.13784023 -0.062362906 0.100524984 0.041405212
-0.025974339 -0.06874 0.075859725 0.08098255 0.0046412502 -0.11859101 0.0040009846 0.03267765
-0.13678046 -0.0071424637 -0.0012938834 -0.04759346 -0.091129564 -0.11955489 -0.018778823 -0.03990706
-0.016859544 -0.007367678 0.096390255 0.06267474 0.12823504 0.07240776 0.000992948 -0.08119221
0.04466894 -0.11972956 -0.081475295 -0.028849065 -0.095596425 -0.11544699 -0.13280194 -0.13588332
-0.09027831 0.09489435 0.04228193 0.09217057 -0.13067323 0.10963811 0.095444135 0.025668973
-0.0854746 -0.0058657224 0.050484966 -0.041203443 -0.020346519 0.1402762 -0.06265511 -0.04297318
-0.08855263 -0.07314859 -0.051567532 -0.13213813 0.0748592 -0.11003247 0.082178116 -0.019049745
0.13445182 -0.019535528 0.12305003 -0.11417738 0.008203325 -0.022714477 0.09499392 0.057446618
0.07168447 -0.041884445 0.09763589 0.12929733 0.09814577 -0.07812531 -0.017215004 -0.119291686
0.025541592 0.045259718 0.12996417 -0.1300413 0.045830183 0.037159324 -0.07959105 0.011784747
-0.09327013 0.025316989 -0.11477156 -0.118682995 -0.060450513 -0.09298634 0.09558575 -0.021311326
0.09453586 0.0362601 -0.11956101 0.02684418 -0.059992082 -0.023067478 0.11520277 -0.14319868
-0.093592115 -0.12669547 -0.10785586 -0.10800417 0.12885895 -0.09726301 0.045097437 0.019331338
0.07727375 -0.1361898 -0.0046787867 -0.13326503 0.049898095 0.0821684 -0.10942191 0.11517333
0.14482133 -0.049404535 0.040983357 -0.13018416 -0.027258165 0.016332302 -0.06778516 0.039961614
-0.0871745 -0.06606555 0.006636562 0.08975179 -0.010475032 0.06995357 -0.036565337 0.07987189
-0.047160663 0.09317176 -0.02161393 0.14028022 0.021730283 0.017754076 0.106919646 -0.02984477
0.11751384 -0.06674802 -0.00956578 -0.09579248 0.05875445 0.11697887 0.011357963 -0.01607484
00000000: c2c5 b53c 2ef1 733d b4a1 dd3d c646 07be
00000010: b00e febd fbe3 dcbd 6e16 99bd ca87 06bd
00000020: 7025 7b3b ecbb 7ebc 30e8 0f3e 12d1 0c3e
00000030: 0433 643d 581f 273d 443a 3dbc 2ea3 eebd
00000040: 660b 03bb acbc 40bc aa7f 9bbd 6426 12be
00000050: 6cd3 cebd 00d0 0c3e 9609 0a3e 34be d33d
00000060: 6fbd f43d e446 ad3d 9127 0f3e 31ab 5c3d
00000070: 745f 1b3d 5d33 a53d 2a2d 10bd 6605 a03d
00000080: db2f 883d 9366 e03d d1e6 61bd 2272 1cbd
00000090: 9558 653d 9061 08be e966 913d c654 f9bd
000000a0: 1fbb 02be 8e02 e9bd fddf c9bc a2fa d6bd
000000b0: 34b4 1ebd 7cc5 b7bd 52ac fd3d b402 643d
000000c0: 79dc 06be b7f5 d6bd 309a 123d 7882 f7bd
000000d0: 13cc edbd 0d64 093e dedf 8c3d d57e dd3d
000000e0: 0e6c 993d dc83 04be 25c3 473c f33b 653d
000000f0: 8ff6 d23c ab35 f5bc e150 913d 3a1a 50bc
00000100: fdb3 b23d 78b9 f2bc b9f5 cdbd 4df3 b43d
00000110: 1535 b3bd f4cc e33d 3b44 bd3d e284 fb3d
00000120: efaf 893d ac5b 4c3d c802 a2bd d133 843c
00000130: 8d06 afbc 4f31 9fbd 0b1b 8dbc e0bc cd3c
00000140: 0a0f a2bc ea31 8fbd 08c8 d1bd 73ae 6abc
00000150: 3587 913d 39cb e33d 4c0b 403d 2d4e bcbc
00000160: b1f8 f33d e933 10be 583d 93bd b73b 04bc
00000170: 1d8c 8cbd daf2 b7bd cfbd 01be 9654 05be
00000180: 3a79 323d d0af 0d3e 8451 b33d 424c 0e3e
00000190: 8ad0 083e ab41 01be 345f 0cbd b823 0ebe
000001a0: fc1f f33d af4c 493d 269a df3d 312b 183d
000001b0: fd25 0d3e 3f70 7fbd 0be0 cd3d 8398 293d
000001c0: 23c8 d4bc 8fc7 8cbd 585c 9b3d 2eda a53d
000001d0: a115 983b d8df f2bd b11a 833b 00d9 053d
000001e0: 2d10 0cbe 540b eabb 8697 a9ba 5cf1 42bd
000001f0: 23a2 babd 32d9 f4bd 0cd6 99bc 9675 23bd
00000200: 071d 8abc 906c f1bb 4168 c53d 9d5b 803d
00000210: 0c50 033e 854a 943d ce25 823a 1a48 a6bd
00000220: c7f6 363d c634 f5bd 85dc a6bd e054 ecbc
00000230: 0fc8 c3bd 796f ecbd 3bfd 07be ff24 0bbe
00000240: d6e3 b8bd f857 c23d d12f 2d3d ecc3 bc3d
00000250: 34cf 05be f289 e03d 3778 c33d bd47 d23c
00000260: 4f0d afbd 3f35 c0bb 53c9 4e3d f1c4 28bd
00000270: bead a6bc 90a4 0f3e 5351 80bd a504 30bd
00000280: 155b b5bd eece 95bd 7a38 53bd 384f 07be
00000290: c84f 993d b458 e1bd 004d a83d 360e 9cbc
000002a0: bdad 093e f908 a0bc a701 fc3d d5d5 e9bd
000002b0: 3d67 063c b613 babc 2c8c c23d 254d 6b3d
000002c0: 4fcf 923d 068f 2bbd 53f5 c73d 8566 043e
000002d0: a600 c93d 2a00 a0bd 7b06 8dbc 334f f4bd
000002e0: 9a3c d13c 4162 393d 5415 053e 8c29 05be
000002f0: 6eb8 3b3d 6034 183d a200 a3bd d014 413c
00000300: 6904 bfbd 9365 cf3c 5a0d ebbd 1210 f3bd
00000310: f59a 77bd 9f6f bebd 76c2 c33d 1795 aebc
00000320: 049c c13d 7885 143d 67dc f4bd 53e8 db3c
00000330: 42ba 75bd 02f8 bcbc 6eef eb3d ada2 12be
00000340: 39ad bfbd 75bc 01be 88e3 dcbd 4a31 ddbd
00000350: 9af3 033e d431 c7bd 17b8 383d c15c 9e3c
00000360: b341 9e3d 5775 0bbe 8250 99bb a176 08be
00000370: f261 4c3d e847 a83d 9818 e0bd ffdf eb3d
00000380: 0b4c 143e 695c 4abd 2ade 273d ff4e 05be
00000390: 844c dfbc 52cb 853c f2d2 8abd caae 233d
000003a0: 8b88 b2bd 604d 87bd 8477 d93b c9cf b73d
000003b0: 789f 2bbc d143 8f3d 89c5 15bd e093 a33d
000003c0: 8a2b 41bd d6d0 be3d b20f b1bc 9ea5 0f3e
000003d0: b503 b23c ff70 913c b0f8 da3d 057d f4bc
000003e0: 19ab f03d 30b3 88bd cab9 1cbc d92e c4bd
000003f0: 82a8 703d 9e92 ef3d c016 3a3c 62af 83bc

actor.0.bias f4 [128]
-0.09648274 -0.019561853 0.12128066 0.1006113 0.13109049 -0.04273351 0.07275247 0.07821676
0.073482536 0.06428663 -0.022309896 0.10908991 0.01278823 -0.033816587 0.034722365 0.04063555
0.111106046 -0.07216381 0.017841522 0.00067457644 0.026837843 0.051162098 -0.09775565 -0.112803005
-0.015533274 -0.05256024 0.055458322 -0.036193207 -0.10256224 -0.037537526 -0.031541422 0.04049557
0.14060369 0.10209244 -0.039368927 0.05821546 0.120130345 -0.04859842 -0.12655936 -0.064044885
0.13143572 -0.068708 0.020740146 0.078343466 -0.09694916 -0.02312729 0.0038235562 0.1111581
-0.07429305 0.12090256 0.03303481 -0.016518174 0.08532578 0.117444165 -0.041144807 0.002181066
0.013088003 -0.14360169 -0.030769337 0.13694938 -0.07202948 0.057676543 -0.107886314 0.13303685
-0.11641276 -0.04609026 -0.09285017 -0.13163069 -0.11112293 0.057555147 -0.063701004 -0.021646611
0.06327976 -0.040029906 -0.014774267 0.11849144 0.03818217 -0.11176583 -0.10647192 0.06650838
-0.1116483 0.077767804 0.03407342 -0.030929472 0.024518516 -0.1188232 0.104602724 -0.061027057
0.08928501 0.10137347 -0.047763377 -0.13089345 -0.054577824 0.056754164 -0.10270094 0.1261106
-0.09585258 -0.024402933 -0.11539587 0.0042795553 -0.07481512 -0.014765551 0.091729924 0.1377183
0.016753549 0.031436566 -0.0050384407 0.13585326 0.05180886 -0.062194254 0.07433225 -0.037294228
0.12447415 -0.07943424 -0.06993101 0.06716348 -0.095041625 -0.13596112 0.022935096 -0.029994601
0.13290723 0.0014106683 -0.0042734947 0.04784861 0.12943976 -0.027407218 -0.062635295 -0.045156438
00000000: be98 c5bd 2e40 a0bc ff61 f83d 4c0d ce3d
00000010: 963c 063e 5509 2fbd 3fff 943d 1c30 a03d
00000020: 037e 963d b5a8 833d 3ec3 b6bc 886a df3d
00000030: b985 513c 4383 0abd 0a39 0e3d 7671 263d
00000040: 918b e33d 9fca 93bd 6228 923c 0fd6 303a
00000050: 09db db3c 598f 513d 1d34 c8bd 4305 e7bd
00000060: 467f 7ebc 6849 57bd 4428 633d 543f 14bd
00000070: 270c d2bd f3c0 19bd 9431 01bd afde 253d
00000080: 6afa 0f3e d715 d13d 5041 21bd 5673 6e3d
00000090: e606 f63d 230f 47bd c798 01be f729 83bd
000000a0: 1697 063e c8b6 8cbd 3de7 a93c 8a72 a03d
000000b0: 488d c6bd 7175 bdbc a194 7a3b dca6 e33d
000000c0: f426 98bd c39b f73d 824f 073d 1f51 87bc
000000d0: 48bf ae3d 9186 f03d 7587 28bd 37f0 0e3b
000000e0: 106f 563c 520c 13be fa0f fcbc 753c 0c3e
000000f0: 3184 93bd 3d3e 6c3d 80f3 dcbd d03a 083e
00000100: d069 eebd 24c9 3cbd 3b28 bebd 32ca 06be
00000110: 6b94 e3bd f2be 6b3d ac75 82bd 3c54 b1bc
00000120: d298 813d 66f6 23bd c40f 72bc a4ab f23d
00000130: e864 1c3d 7ce5 e4bd f30d dabd 8c35 883d
00000140: dda7 e4bd ba44 9f3d 9290 0b3d ce5f fdbc
00000150: 0edb c83c 9459 f3bd f439 d63d 82f7 79bd
00000160: 0fdb b63d e59c cf3d 88a3 43bd ef08 06be
00000170: ff8c 5fbd 0e77 683d df54 d2bd 2323 013e
00000180: 5c4e c4bd a9e8 c7bc ab54 ecbd 833b 8c3b
00000190: ab38 99bd 36eb 71bc e6dc bb3d 0706 0d3e
000001a0: bd3e 893c a1c3 003d 8119 a5bb 1e1d 0b3e
000001b0: 8735 543d 67bf 7ebd 823b 983d d5c1 18bd
000001c0: 4eec fe3d 6bae a2bd fd37 8fbd 028d 893d
000001d0: 2fa5 c2bd 6439 0bbe 62e2 bb3c 3db7 f5bc
000001e0: d518 083e 2ce6 b83a ac08 8cbb e7fc 433d
000001f0: db8b 043e 1a85 e0bc ef46 80bd f5f5 38bd

actor.2.weight f4 [128, 128]
-0.0243365 0.073802896 0.012404967 -0.038228378 -0.0587001 0.026469797 -0.07688082 0.06176882
0.05478839 -0.053803813 0.004655449 0.04167881 -0.042144097 -0.062285952 -0.0070309057 0.075189844
-0.060084004 -0.006784696 0.058544133 0.06003819 -0.027829831 0.06709919 -0.03834824 -0.0067117526
0.0088340985 5.8742513e-05 0.024031501 0.06321043 -0.024710448 -0.0064307703 -0.06835652 0.055993345
-0.058158603 -0.04254917 0.045415424 -0.037936717 0.026771767 0.013392467 -0.029666608 0.027743123
-0.05672841 -0.011507624 0.086324245 0.07839317 0.07355043 -0.07861826 -0.051017676 -0.048178177
0.05772112 -0.0038483653 -0.0019627283 -0.07202719 0.029516032 -0.018922511 -0.03691824 -0.033703428
-0.06568805 0.061356176 -0.001425747 0.004482701 -0.08573954 -0.07187417 0.07305343 -0.035059333
0.039850842 0.07572633 -0.021861194 0.00024502355 0.021349432 0.03355523 -0.010232703 0.08774786
0.070428714 -0.058018003 0.021082418 0.0109867295 0.0155825615 -0.049739324 -0.08185538 0.03733394
-0.052663248 0.04459356 0.033864293 0.066113815 -0.036134943 -0.017013561 -0.0090981955 0.024109075
-0.034438077 -0.03954152 -0.08178998 -0.081227005 0.054506835 0.028474528 0.01301125 0.08940897
0.0326248 -0.033018194 0.06658855 0.004767992 0.033030827 -0.037340205 0.021600893 -0.032447003
-0.014987946 -0.04295712 0.06231846 0.009476837 0.058367744 0.04049259 0.027634926 0.05760889
-0.0022725712 0.05915303 -0.0881489 -0.0041322573 0.07570473 -0.0034511278 -0.033855002 0.04264765
0.07945659 -0.0070871115 0.009876435 -0.05886901 0.013437538 -0.054457996 -0.034090634 -0.0051768944
0.08237688 0.07343239 -0.021558119 0.050538093 0.08387203 0.08702291 0.08313697 0.04464477
-0.07626372 0.02327338 -0.025523553 -0.059810538 0.06141639 0.04357008 -0.05874845 0.008228731
0.065791324 -0.06555047 -0.063921295 0.06398347 -0.06544603 -0.066656806 0.07757438 0.063463405
0.059637703 -0.07855837 0.061502796 -0.03793758 -0.017897818 -0.052790258 0.037343357 -0.02011185
0.035752084 -0.023371167 -0.008982123 -0.07566507 -0.037051044 0.048654813 -0.04110959 0.018301712
0.08200239 -0.06387202 0.07412517 0.029745212 0.023176307 -0.08325935 -0.07231059 0.03632279
-0.06778296 -0.008030293 0.05470787 0.027658548 0.045760673 0.040727742 0.06415295 -0.03193239
0.06340769 0.0257285 -0.034282908 0.07765778 -0.0232353 -0.034306247 0.06386459 0.056404147
0.058015373 -0.056145485 -0.08166577 0.010085668 -0.011423024 0.025537033 0.019849649 0.02934954
0.018290043 0.07485582 -0.038711544 -0.067250215 -0.05484382 0.022812655 0.04359035 -0.05133824
0.08008573 0.01024874 0.037953768 -0.046857376 0.025701623 0.062312093 0.0018143385 0.008988256
0.0137724625 0.002035123 0.059385195 0.07885241 0.06857849 -0.051142283 0.07406454 0.04635541
0.0155525105 -0.004025758 0.07283751 0.059140984 0.016226923 -0.056064475 -0.07250707 0.048071906
-0.0847851 -0.04368987 -0.0460144 -0.006239311 0.011073893 -0.074305505 -0.039788056 0.061935607
0.0024483604 -0.0065298183 0.04254822 0.07700982 -0.0071098963 -0.013622564 0.035387788 0.07749421
-0.023377158 -0.071446866 -0.0043594134 -0.08021614 -0.06843666 -0.006629382 -0.037228595 0.03724043
00000000: 575d c7bc f925 973d 343e 4b3c 5c95 1cbd
00000010: 846f 70bd 30d7 d83c b173 9dbd 4d01 7d3d
00000020: ca69 603d 6361 5cbd bd8c 983b 66b7 2a3d
00000030: 4a9f 2cbd 8e1f 7fbd 8363 e6bb 22fd 993d
00000040: a51a 76bd 2852 debb f9cb 6f3d 9bea 753d
00000050: 63fb e3bc 4d6b 893d 0b13 1dbd 43ee dbbb
00000060: e5bc 103c 4b62 7638 b6dd c43c 7874 813d
00000070: 916d cabc 36b9 d2bb 81fe 8bbd 4759 653d
00000080: b737 6ebd 0a48 2ebd 8605 3a3d 8863 1bbd
00000090: 7750 db3c 146c 5b3c 6307 f3bc 8c45 e33c
000000a0: 0d5c 68bd 798a 3cbc c4ca b03d 998c a03d
000000b0: 9ca1 963d 9c02 a1bd e9f7 50bd 7b56 45bd
000000c0: fb6c 6c3d db34 7cbb 1ea1 00bb fe82 93bd
000000d0: 9bcb f13c 6203 9bbc 9537 17bd 9b0c 0abd
000000e0: 7587 86bd 9d50 7b3d 21e0 baba 9fe3 923b
000000f0: 3698 afbd c432 93bd 099d 953d 609a 0fbd
00000100: a33a 233d 6816 9b3d 3f16 b3bc 8176 8039
00000110: 01e5 ae3c 3571 093d 11a7 27bc 26b5 b33d
00000120: ee3c 903d 49a4 6dbd 09b5 ac3c af01 343c
00000130: 004e 7f3c 76bb 4bbd cba3 a7bd 79eb 183d
00000140: 6bb5 57bd bda7 363d 49b5 0a3d ae66 873d
00000150: 3c02 14bd 0660 8bbc 9910 15bc 6580 c53c
00000160: f10e 0dbd 4af6 21bd 8181 a7bd 585a a6bd
00000170: 8f42 5f3d 6a43 e93c 232d 553c 0d1c b73d
00000180: 95a1 053d 163e 07bd 945f 883d d13c 9c3b
00000190: 554b 073d 0bf2 18bd 5bf4 b03c 26e7 04bd
000001a0: 0090 75bc cef3 2fbd a441 7f3d bc44 1b3c
000001b0: 0413 6f3d 8fdb 253d a462 e23c 4df7 6b3d
000001c0: 6bef 14bb 734a 723d 6987 b4bd e367 87bb
000001d0: 150b 9b3d 512c 62bb 8bab 0abd 4daf 2e3d
000001e0: 23ba a23d 003b e8bb c5d0 213c a220 71bd
000001f0: 1f29 5c3c 590f 5fbd 9fa2 0bbd f0a2 a9bb
00000200: 36b5 a83d b963 963d a79a b0bc 0801 4f3d
00000210: 19c5 ab3d 1139 b23d b743 aa3d 6fdd 363d
00000220: 2730 9cbd d1a7 be3c c516 d1bc e5fb 74bd
00000230: c18f 7b3d 8a76 323d 37a2 70bd cdd1 063c
00000240: 9abd 863d 533f 86bd 2be9 82bd c409 833d
00000250: 9108 86bd 5d83 88bd 51df 9e3d 1af9 813d
00000260: aa46 743d 36e3 a0bd 5bea 7b3d 7064 1bbd
00000270: 729e 92bc 993a 58bd 59f5 183d 9bc1 a4bc
00000280: c770 123d e474 bfbc c129 13bc 4af6 9abd
00000290: d6c2 17bd 454a 473d 8862 28bd 79ed 953c
000002a0: def0 a73d 55cf 82bd f0ce 973d 3bac f33c
000002b0: 3ddc bd3c e183 aabd 9317 94bd 35c7 143d
000002c0: cbd1 8abd 7d91 03bc 5c15 603d 2e94 e23c
000002d0: 8b6f 3b3d 22d2 263d 9f62 833d 8acb 02bd
000002e0: e4db 813d 93c4 d23c 3c6c 0cbd 0b0b 9f3d
000002f0: f557 bebc b584 0cbd 70cb 823d 0908 673d
00000300: 87a1 6d3d cff8 65bd 6240 a7bd 5c3e 253c
00000310: a327 3bbc 0a33 d13c bb9b a23c 726e f03c
00000320: 00d5 953c 024e 993d ff8f 1ebd 7bba 89bd
00000330: eaa3 60bd 9be1 ba3c cb8b 323d 0c48 52bd
00000340: fd03 a43d 55ea 273c 6975 1b3d 85ed 3fbd
00000350: 368c d23c f73a 7f3d 19cf ed3a 7a43 133c
00000360: e5a5 613c b35f 053b e43d 733d 5f7d a13d
00000370: e172 8c3d 927a 51bd 26af 973d 2cdf 3d3d
00000380: f5cf 7e3c 81ea 83bb d52b 953d d13d 723d
00000390: 53ee 843c dda3 65bd 967e 94bd 0ce7 443d
000003a0: cfa3 adbd 26f4 32bd 9879 3cbd 2273 ccbb
000003b0: 466f 353c 7c2d 98bd cdf8 22bd 31b0 7d3d
000003c0: ac74 203b 16f8 d5bb 0b47 2e3d 53b7 9d3d
000003d0: 22fa e8bb 2d31 5fbc c9f2 103d 49b5 9e3d
000003e0: 7481 bfbc bc52 92bd 69d9 8ebb 5c48 a4bd
000003f0: 8528 8cbd 493b d9bb 037d 18bd 6c89 183d

actor.2.bias f4 [128]
-0.08586479 0.040274523 0.025148828 -0.038624357 -0.002859169 -0.019723302 0.064462915 -0.045490246
-0.012262332 0.089171864 -0.020395564 -0.0647626 0.03559875 -0.0036574258 -0.07113956 0.022268724
-0.0627044 0.0537737 0.05586382 -0.03294347 0.017410964 -0.012508011 -0.04379317 -0.0027203232
-0.062028464 -0.087985516 -0.032399233 -0.018456547 0.011219099 -0.0645501 0.04655035 0.056840494
0.077057034 0.059327852 0.035318248 -0.0781297 -0.040414073 0.062970884 0.037668344 -0.012538744
-0.03674273 0.0535655 0.042320695 -0.0819521 -0.016636284 -0.010085599 -0.036314063 -0.084975615
-0.00092185044 0.046765253 0.0015823244 -0.023753475 -0.035003413 -0.07954836 -0.051364426 -0.04622002
0.07521532 -0.037142187 -0.08232172 0.060848184 0.03787966 0.06542168 0.07326415 0.082979605
0.057776775 -0.05101813 0.0277712 -0.028329903 -0.025388295 0.051019944 0.04498031 0.06665054
-0.008027307 0.0026059514 -0.06904499 0.024319712 0.07084181 0.014632927 0.02409482 -0.085552156
-0.076106235 0.043537445 -0.00034929125 0.0087310225 -0.013987516 -0.056795254 -0.023125082 -0.032598913
0.086931445 -0.071953945 0.04567678 0.013809079 0.04274912 0.035403095 -0.08849929 -0.051326495
-0.07329145 -0.06926179 0.08096994 0.05598003 -0.06352139 0.0016429155 0.00040106117 -0.021796424
0.06347124 -0.016381657 -0.0484284 -0.023469232 0.02732222 0.07362119 -0.019459376 0.02881229
-0.07370836 -0.009252292 0.06356909 0.018824749 -0.06190117 0.072471716 -0.061042737 -0.07964335
-0.05919205 -0.00474873 -0.069844596 0.08112619 0.07024341 0.032564323 -0.043808226 0.06816309
00000000: e1d9 afbd e6f6 243d ea04 ce3c 9334 1ebd
00000010: e560 3bbb c392 a1bc 2205 843d fb53 3abd
00000020: f3e7 48bc bd9f b63d 9914 a7bc 41a2 84bd
00000030: ffcf 113d 6cb1 6fbb 9eb1 91bd e66c b63c
00000040: 2a6b 80bd d041 5c3d 76d1 643d bbef 06bd
00000050: 70a1 8e3c 67ee 4cbc 7860 33bd 7347 32bb
00000060: 8f11 7ebd c031 b4bd 0fb5 04bd 2f32 97bc
00000070: 50d0 373c d832 84bd 94ab 3e3d 94d1 683d
00000080: 14d0 9d3d c301 733d dea9 103d 7702 a0bd
00000090: 3a89 25bd e1f6 803d 1f4a 1a3d 4e6f 4dbc
000000a0: 8b7f 16bd 7f67 5b3d 7758 2d3d 81d6 a7bd
000000b0: d148 88bc 113e 25bc 0ebe 14bd b207 aebd
000000c0: 56a8 71ba ec8c 3f3d ff65 cf3a a696 c2bc
000000d0: bd5f 0fbd 40ea a2bd 8163 52bd 3451 3dbd
000000e0: 7d0a 9a3d 6822 18bd 4a98 a8bd f23b 793d
000000f0: b427 1b3d cdfb 853d 840b 963d 36f1 a93d
00000100: 57a7 6c3d 63f8 50bd 6d80 e33c 1d14 e8bc
00000110: 1dfb cfbc 4afa 503d 463d 383d 1480 883d
00000120: f784 03bc 9cc8 2a3b 7667 8dbd 223a c73c
00000130: 8315 913d f2be 6f3c 8062 c53c f835 afbd
00000140: 96dd 9bbd 5254 323d 1421 b7b9 900c 0f3c
00000150: e52b 65bc 24a2 68bd d070 bdbc 7086 05bd
00000160: 1d09 b23d 975c 93bd 9317 3b3d 7a3f 623c
00000170: b419 2f3d d602 113d 1e3f b5bd bb3b 52bd
00000180: d419 96bd 20d9 8dbd 91d3 a53d 514b 653d
00000190: 8117 82bd 1957 d73a 8545 d239 6a8e b2bc
000001a0: 36fd 813d d332 86bc dc5c 46bd 8c42 c0bc
000001b0: d9d2 df3c b5c6 963d 4569 9fbc c007 ec3c
000001c0: 69f4 96bd ed96 17bc 8330 823d 5c36 9a3c
000001d0: 158c 7dbd 0d6c 943d f307 7abd 0d1c a3bd
000001e0: 5d73 72bd 3c9b 9bbb af0a 8fbd 7d25 a63d
000001f0: c7db 8f3d 2b62 053d 4170 33bd 1799 8b3d

actor.4.weight f4 [128, 128]
-0.04877833 -0.032855503 0.07640646 0.08066487 0.06255115 0.07817967 0.08627081 -0.05785725
0.038325895 0.06524279 0.032223664 0.04707183 0.07803701 0.036070216 -0.06912771 0.07642494
-0.06288457 0.0012220048 0.04493708 -0.08175578 0.05348953 -0.08625333 -0.046939064 0.01964092
0.03291309 -0.066931956 0.08592764 0.078109615 0.036841 -0.042379517 0.033879567 -0.07585781
0.058238965 0.044737153 -0.07532947 0.06050319 -0.02207414 -0.01710563 -0.0013731702 0.043853704
0.049007863 -0.061334115 -0.03025914 -0.08515603 -0.044264108 0.0738959 0.023656681 -0.007008116
0.058688696 0.063904785 0.013366396 -0.032320626 -0.05697626 -0.04669533 -0.049587633 -0.0054325354
-0.07161846 0.023500992 -0.025452634 0.042398196 -0.054570477 -0.07325257 -0.00014108473 -0.041903734
0.06748619 0.082037345 -0.07635958 0.012905686 0.075418375 0.035800394 0.073711246 -0.052489527
-0.05048814 -0.047508895 0.013728271 0.04237769 0.025047315 0.07226265 -0.013018305 0.04533719
0.043685164 0.05603199 0.059633926 -0.0021908744 0.052046377 0.0705325 0.06217323 -0.08227021
0.06223782 -0.06773014 -0.039462637 0.033745334 -0.045201246 -0.046849106 -0.003722092 -0.01677267
0.021257909 0.009954901 -0.038784355 -0.031581238 -0.020749616 -0.026877765 0.028876225 0.01679382
0.0040067118 0.04839519 0.078796834 0.006094646 -0.0009744626 -0.038409024 0.026052518 -0.05638526
0.028874967 -0.05613052 0.05886456 -0.018335804 -0.013540507 0.017464649 0.07576969 0.03142504
0.05249931 0.011502608 -0.054009795 0.0781948 0.06978925 -0.058631264 -0.021834511 0.08770358
-0.08655535 -0.00453276 0.051518314 -0.08422736 -0.063141264 -0.05659477 -0.049006157 -0.06693507
0.043298107 0.049596675 -0.075745136 -0.08115564 0.041826494 0.0076036877 -0.049967363 0.031616654
0.060962692 0.07820201 0.070311904 0.04666503 -0.088472895 -0.01625509 -0.051324464 -0.039967697
-0.06068677 0.021857118 -0.04888219 -0.07431255 -0.03529982 0.020647647 0.04861021 0.044313066
-0.028273854 -0.06521308 -0.070734054 0.071810015 0.021273179 0.03661979 0.0070841513 -0.023099616
-0.05199557 -0.036970653 -0.05052938 0.025072465 -0.091511995 -0.009174667 0.06889095 0.03888053
0.014652953 -0.052789252 -0.031231599 0.041585293 0.016540594 0.09001517 -0.042216424 -0.014849589
-0.0514958 0.04756103 -0.023104124 0.017659808 -0.0042287167 -0.057413388 0.040040053 -0.017295275
0.078809366 -0.0058031077 -0.05431673 0.018985195 0.017870197 -0.05547272 -0.05346741 0.08908834
-0.025125071 0.08010485 0.0341016 0.024042765 -0.042767428 -0.03615064 0.03594623 -0.0816468
0.011417265 -0.04793218 0.022819877 -0.04891125 0.0069143223 -0.027956026 -0.010105832 0.06760157
0.028105518 0.008166489 -0.06836237 0.027637178 0.07786033 0.040093698 -0.053863216 0.056070074
-0.01668089 -0.049893618 -0.0481237 0.048615795 0.015949672 0.081324495 -0.05686822 -0.03691306
-0.017865878 0.0442259 0.058616955 0.060379185 0.08326153 -0.019935844 -0.00942603 0.032587845
0.06417204 -0.06531244 0.0031464838 0.08322388 -0.077554755 0.007109419 -0.036916457 -0.011671105
-0.042788334 -0.06664551 0.035627604 -0.069552965 -0.07330375 -0.014680265 0.0060598734 -0.012327138
00000000: c9cb 47bd 7e93 06bd fd7a 9c3d a033 a53d
00000010: d11a 803d aa1c a03d c0ae b03d b9fb 6cbd
00000020: 9dfb 1c3d 039e 853d f6fc 033d 64ce 403d
00000030: ded1 9f3d 5dbe 133d d492 8dbd ae84 9c3d
00000040: a0c9 80bd ad2b a03a f20f 383d 936f a7bd
00000050: d617 5b3d 96a5 b0bd 2d43 40bd ffe5 a03c
00000060: e0cf 063d 9f13 89bd d5fa af3d eff7 9f3d
00000070: 97e6 163d 2596 2dbd 4dc5 0a3d 575b 9bbd
00000080: fb8b 6e3d 4e3e 373d 5646 9abd 31d2 773d
00000090: d4d4 b4bc 1b21 8cbc f2fb b3ba f19f 333d
000000a0: 78bc 483d 7b39 7bbd 04e2 f7bc 4966 aebd
000000b0: 484e 35bd bc56 973d a8cb c13c 57a4 e5bb
000000c0: 8f63 703d 83e0 823d bafe 5a3c a262 04bd
000000d0: f05f 69bd 9a43 3fbd 671c 4bbd 6903 b2bb
000000e0: b3ac 92bd 2785 c03c 0b82 d0bc bba9 2d3d
000000f0: 4b85 5fbd 7205 96bd 25f0 13b9 40a3 2bbd
00000100: 3336 8a3d 3203 a83d 6962 9cbd 5f72 533c
00000110: f374 9a3d 6fa3 123d ecf5 963d 42ff 56bd
00000120: a7cc 4ebd b098 42bd 8bec 603c 3b94 2d3d
00000130: 0730 cd3c 71fe 933d bb4a 55bc 7db3 393d
00000140: 37ef 323d cd81 653d b442 743d c694 0fbb
00000150: 952e 553d 5873 903d 5ba9 7e3d 497d a8bd
00000160: 16ed 7e3d 1ab6 8abd 93a3 21bd 8c38 0a3d
00000170: f124 39bd d9e4 3fbd 57ee 73bb d766 89bc
00000180: 1125 ae3c e219 233c 58dc 1ebd 545b 01bd
00000190: 19fb a9bc c22e dcbc d58d ec3c 3193 893c
000001a0: bc4a 833b 093a 463d 3c60 a13d 99b5 c73b
000001b0: 1473 7fba c852 1dbd 176c d53c 3bf4 66bd
000001c0: 328b ec3c 1ee9 65bd f71b 713d f834 96bc
000001d0: 01d9 5dbc 0612 8f3c 242d 9b3d 8bb7 003d
000001e0: 8409 573d 6f75 3c3c 6039 5dbd 9824 a03d
000001f0: abed 8e3d 5627 70bd 4ade b2bc ef9d b33d
00000200: ee43 b1bd 8c87 94bb de04 533d 657f acbd
00000210: 3550 81bd ebcf 67bd aeba 48bd 4115 89bd
00000220: 5b59 313d e225 4b3d 4420 9bbd ee34 a6bd
00000230: 4252 2b3d 5b28 f93b 94aa 4cbd 7780 013d
00000240: 04b4 793d 6028 a03d b0ff 8f3d d523 3f3d
00000250: 4731 b5bd 6529 85bc 9a39 52bd 2bb5 23bd
00000260: b192 78bd b30d b33c b138 48bd 2e31 98bd
00000270: 8b96 10bd 4125 a93c 801b 473d 9e81 353d
00000280: 929e e7bc 6f8e 85bd 04dd 90bd 2111 933d
00000290: 1745 ae3c a2fe 153d 2b22 e83b 683b bdbc
000002a0: 4ff9 54bd 8a6e 17bd e5f7 4ebd c564 cd3c
000002b0: a46a bbbd 5851 16bc b316 8d3d 3141 1f3d
000002c0: f012 703c 8b39 58bd 69d9 ffbc 5755 2a3d
000002d0: 2480 873c e059 b83d 21eb 2cbd b14b 73bc
000002e0: 43ed 52bd 5bcf 423d dc44 bdbc 4dab 903c
000002f0: 0c91 8abb 4d2a 6bbd 0a01 243d d2ae 8dbc
00000300: ce66 a13d ff27 bebb 387b 5ebd d786 9b3c
00000310: 8564 923c 5d37 63bd a500 5bbd f373 b63d
00000320: 18d3 cdbc 030e a43d 1fae 0b3d 55f5 c43c
00000330: e62c 2fbd b212 14bd 5b3c 133d 7036 a7bd
00000340: 7b0f 3b3c 8954 44bd c0f0 ba3c 2a57 48bd
00000350: 8a91 e23b 0904 e5bc ee92 25bc b172 8a3d
00000360: 8b3d e63c bdcc 053c 9201 8cbd 5d67 e23c
00000370: 3d75 9f3d 4a39 243d ad9f 5cbd bca9 653d
00000380: 5da6 88bc 405d 4cbd 5b1d 45bd 5b21 473d
00000390: e3a8 823c 758d a63d a7ee 68bd 2632 17bd
000003a0: 765b 92bc 3826 353d 5518 703d 2a50 773d
000003b0: 0585 aa3d 7f50 a3bc a36f 1abc d57a 053d
000003c0: a16c 833d 87c2 85bd 3d35 4e3b 4871 aa3d
000003d0: 07d5 9ebd 21f6 e83b b635 17bd 2a38 3fbc
000003e0: d242 2fbd 717d 88bd 40ee 113d c971 8ebd
000003f0: 4720 96bd 7f85 70bc e791 c63b c4f7 49bc

actor.4.bias f4 [128]
-0.018182848 0.071250014 -0.04208864 -0.08451431 0.010565468 -0.07287109 0.037422642 -0.02380128
-0.033716794 -0.083269745 -0.08598645 -0.022903116 -0.009580567 0.0818347 0.08651403 0.07849551
0.011801289 0.07567044 0.07756099 -0.07498697 0.04819417 0.058667045 0.001590917 0.064654045
-0.0036161023 0.019502636 0.06627143 -0.062314343 0.08279605 0.013429507 0.06946373 -0.018723903
-0.044261765 0.07148672 0.003316954 -0.069831684 -0.08490574 -0.083152644 -0.0061022877 -0.0641686
-0.015241505 0.03956598 -0.069763355 -0.053178765 -0.06654917 0.006081029 0.02883191 -0.040019143
0.06131911 -0.05789849 -0.058313914 -0.0027868727 0.025368456 -0.034888167 0.03360495 0.08335484
0.027972028 0.058742635 -0.016968029 -0.055340674 -0.011142842 -0.06321022 -0.045949224 -0.050263867
0.05405351 -0.067475796 -0.031205839 0.024877196 0.013097637 0.083706886 0.05701849 -0.07452782
-0.05882044 0.045430206 -0.05628021 0.00056450046 0.08829307 -0.04681474 0.012124997 -0.032747783
-0.020595403 0.03455347 0.0082322275 0.04776417 -0.041280333 -0.0715979 0.055173155 0.08566792
-0.0029357127 -0.041231096 0.08215983 0.063070275 -0.058275796 -0.06041853 -0.072926685 -0.06866832
0.06385588 0.056714308 0.07924584 0.052690636 -0.07132276 -0.023215486 0.01579635 -0.019182334
0.03607538 0.03579764 -0.058326375 0.07272831 -0.08275049 0.06610995 -0.08511254 -0.050612707
0.07507887 -0.039453745 0.056315113 -0.0734121 -0.05127092 -0.015071908 -0.066203706 -0.013994221
-0.0383638 -0.06273549 0.055144247 0.0058694384 -0.044402253 0.08107794 -0.042483594 -0.049264234
00000000: 32f4 94bc 87eb 913d 2365 2cbd d715 adbd
00000010: c91a 2d3c 703d 95bd 7c48 193d e7fa c2bc
00000020: 9f1a 0abd 5489 aabd aa19 b0bd 519f bbbc
00000030: cff7 1cbc f498 a73d 452e b13d 41c2 a03d
00000040: 325a 413c 1bf9 9a3d 4cd8 9e3d c592 99bd
00000050: 4067 453d db4c 703d 5186 d03a 5769 843d
00000060: 21fc 6cbb fec3 9f3c 51b9 873d 533d 7fbd
00000070: fa90 a93d 6f07 5c3c 0043 8e3d df62 99bc
00000080: d34b 35bd a167 923d 4161 593b ea03 8fbd
00000090: 10e3 adbd ef4b aabd b3f5 c7bb d46a 83bd
000000a0: 81b7 79bc f00f 223d 17e0 8ebd fad1 59bd
000000b0: ee4a 88bd 5e43 c73b e630 ec3c 1deb 23bd
000000c0: bf29 7b3d f826 6dbd 92da 6ebd f7a3 36bb
000000d0: 82d1 cf3c e5e6 0ebd 58a5 093d f1b5 aa3d
000000e0: 9825 e53c 1e9c 703d 8900 8bbc e7ac 62bd
000000f0: 7790 36bc 5c74 81bd 4135 3cbd 7ce1 4dbd
00000100: 3767 5d3d c030 8abd 63a3 ffbc 43cb cb3c
00000110: 7997 563c 846e ab3d 388c 693d 0ba2 98bd
00000120: b4ed 70bd 0615 3a3d 1486 66bd fcfa 133a
00000130: ffd2 b43d d0c0 3fbd eca7 463c 8a22 06bd
00000140: b1b7 a8bc f087 0d3d 77e0 063c 5da4 433d
00000150: 9115 29bd eba1 92bd 3ffd 613d aa72 af3d
00000160: 1665 40bb f0e1 28bd 6a43 a83d fd2a 813d
00000170: 9ab2 6ebd 6c79 77bd 965a 95bd faa1 8cbd
00000180: dfc6 823d 434d 683d a54b a23d 23d2 573d
00000190: ab11 92bd 672e bebc 5967 813c 4524 9dbc
000001a0: c7c3 133d 8ca0 123d a3e7 6ebd 95f2 943d
000001b0: 1779 a9bd a764 873d 7c4f aebd 454f 4fbd
000001c0: f3c2 993d 409a 21bd adaa 663d 1559 96bd
000001d0: 7501 52bd 2af0 76bc cf95 87bd 0448 65bc
000001e0: 5c23 1dbd 777b 80bd efde 613d 6b54 c03b
000001f0: 23df 35bd 310c a63d 4703 2ebd 4bc9 49bd

actor.6.weight f4 [12, 128]
0.07738692 -0.063312195 0.07132821 -0.07950439 -0.022074956 -0.0042243903 0.036276806 0.073865
0.06607588 0.03207878 -0.06782357 0.082583375 -0.059127767 -0.042330217 -0.0040009758 0.01199514
0.07025654 -0.070352145 -0.030816065 -0.0057024285 -0.086128764 0.07889725 0.023658983 -0.04374111
-0.015461703 0.017766288 0.08533068 -0.038477223 0.022306176 0.06620327 0.043606546 -0.08992737
0.028386643 0.00785465 -0.042712085 0.07141087 -0.053682394 -0.08862869 -0.026189828 -0.03946012
-0.05630433 0.07889876 -0.07900253 0.012719924 -0.08666416 -0.031669986 0.012784901 0.060094584
-0.0433606 0.043146603 -0.019798797 -0.05118822 -0.054763284 -0.05431745 0.009530952 0.0022636007
0.049705993 -0.08437451 -0.059578583 -0.036554594 0.06846797 -0.0710657 -0.012934153 -0.08516174
0.015206762 -0.07654039 0.07307004 0.07962264 -0.02636897 0.086340345 -0.06967005 0.056159038
-0.072444715 0.056080714 0.026718685 0.0655604 -0.0388081 0.01553064 0.070280775 -0.06913348
0.060713693 -0.04313353 -0.07471306 -0.08600656 -0.07250165 0.06284686 0.057300605 0.010620458
0.04506312 0.07630418 -0.017061386 0.000978423 0.027459731 -0.03717253 0.07767517 -0.048463568
0.08405016 -0.025263427 0.08104298 -0.07738742 0.051617716 0.058345176 -0.009135497 -0.02754122
0.083299436 0.06628015 0.0007905461 0.05010391 0.057484634 0.013752503 -0.011619186 0.011233136
-0.042292904 -0.02495907 -0.03533844 -0.01926474 0.0685881 0.017679397 0.08500531 0.056272242
-0.02687971 0.013340556 -0.072990134 0.0025477866 -0.04494058 -0.049573958 0.07623795 0.026032673
-0.054337353 0.033911426 0.040208884 0.04022869 0.07265093 0.076636456 -0.04184792 0.034049626
0.04051601 0.026553323 0.04674333 0.06491335 -0.0075037633 0.0022113144 0.014504073 -0.077371344
0.03700335 -0.020708371 -0.06564802 -0.07718533 -0.06179096 -0.084477365 -0.041841555 0.08513377
0.08010852 -0.06257914 0.06728825 -0.024013067 -0.0684807 -0.07533168 -0.05742426 0.04323701
0.04335198 0.032822613 0.0489908 -0.08050529 -0.039896887 0.07669056 -0.057075553 0.053426806
0.060314707 -0.03987305 -0.013496586 0.073923364 0.051945567 0.057121675 -0.043611452 0.015172205
0.061964035 0.07591882 -0.0845072 -0.021828337 0.06488442 0.08319786 0.003992831 -0.0787416
-0.0035114572 -0.090236515 -0.007544112 0.034093138 0.01245635 -0.039828125 0.07627101 0.013300924
-0.026578715 -0.031232944 0.042009786 0.03707456 -0.04697196 -0.019338308 0.034747228 0.079088554
-0.05387758 0.029095482 0.020200593 -0.0042408207 -0.046068896 0.04877218 0.06812109 -0.007879434
0.019895514 0.038723394 -0.07146102 -0.018669456 0.015948126 0.0036095076 -0.010169477 -0.0521981
-0.027202373 -0.0433784 0.040191706 0.049865425 -0.050391994 -0.087159604 0.020673303 0.027751673
-0.031599257 0.08177821 0.070718646 0.05507007 0.07630434 -0.037508525 0.083573006 -0.047828767
0.041858513 0.032749087 -0.032740217 -0.0756015 -0.07942374 -0.035407085 0.01376897 -0.06047116
-0.07848762 0.003941644 -0.03633274 -0.077143185 -0.049382523 0.058415145 0.07163888 -0.049077407
0.033614855 0.048060775 -0.067577414 -0.064957656 0.050477777 -0.065036274 -0.010747444 -0.071779005
00000000: 097d 9e3d d3a9 81bd 8614 923d 33d3 a2bd
00000010: 8ad6 b4bc c16c 8abb fd96 143d 8846 973d
00000020: ca52 873d 0a65 033d 15e7 8abd 7921 a93d
00000030: f52f 72bd 7362 2dbd 9e1a 83bb 4487 443c
00000040: a9e2 8f3d c914 90bd f971 fcbc 70db babb
00000050: 4764 b0bd e294 a13d 7cd0 c13c e129 33bd
00000060: 1553 7dbc 9b8a 913c dac1 ae3d 4b9a 1dbd
00000070: 71bb b63c 9495 873d c79c 323d d72b b8bd
00000080: 1b8b e83c cab0 003c def2 2ebd dd3f 923d
00000090: 12e2 5bbd f582 b5bd 0d8c d6bc efa0 21bd
000000a0: 5e9f 66bd ac95 a13d 14cc a1bd 3a67 503c
000000b0: fb7c b1bd 63b8 01bd c377 513c bd25 763d
000000c0: e29a 31bd 7eba 303d 1631 a2bc bdaa 51bd
000000d0: 774f 60bd f97b 5ebd b627 1c3c eb58 143b
000000e0: 8398 4b3d 8bcc acbd ac08 74bd 45ba 15bd
000000f0: ef38 8c3d e58a 91bd c5e9 53bc 4769 aebd
00000100: c825 793c 35c1 9cbd bfa5 953d 3211 a33d
00000110: bd03 d8bc 35d3 b03d 2caf 8ebd 0507 663d
00000120: e55d 94bd e4b4 653d 25e1 da3c 8844 863d
00000130: 3ef5 1ebd 3a74 7e3c 5eef 8f3d db95 8dbd
00000140: ecae 783d c9ac 30bd 2903 99bd 3524 b0bd
00000150: bf7b 94bd dbb5 803d 0ab4 6a3d 6e01 2e3c
00000160: 1b94 383d 5e45 9c3d 52c4 8bbc 6e3e 803a
00000170: 3bf3 e03c 3942 18bd 2914 9f3d bc81 46bd
00000180: 7e22 ac3d 3ff5 cebc ddf9 a53d 4c7d 9ebd
00000190: 196d 533d 5afb 6e3d 0dad 15bc 209e e1bc
000001a0: e598 aa3d e3bd 873d a73c 4f3a c239 4d3d
000001b0: 0275 6b3d 2e52 613c 665e 3ebc 300b 383c
000001c0: 533b 2dbd f776 ccbc 0abf 10bd 17d1 9dbc
000001d0: eb77 8c3d 62d4 903c 4417 ae3d b97d 663d
000001e0: d632 dcbc 5992 5a3c da7b 95bd c4f8 263b
000001f0: 9d13 38bd 100e 4bbd a422 9c3d 7942 d53c
00000200: d890 5ebd b5e6 0a3d 12b2 243d d7c6 243d
00000210: 03ca 943d 93f3 9c3d b968 2bbd 9f77 0b3d
00000220: 1ef4 253d 5b86 d93c ef75 3f3d 4af1 843d
00000230: 21e2 f5bb b3eb 103b 7ea2 6d3c de74 9ebd
00000240: d390 173d 9aa4 a9bc 7872 86bd 5813 9ebd
00000250: 8518 7dbd 7802 adbd 0d62 2bbd 9d5a ae3d
00000260: f00f a43d 7e29 80bd 6cce 893d 0db7 c4bc
00000270: 9c3f 8cbd 7f47 9abd b335 6bbd 4a19 313d
00000280: d991 313d 0171 063d 94aa 483d f5df a4bd
00000290: eb6a 23bd f10f 9d3d 0ec8 69bd 11d6 5a3d
000002a0: 8e0c 773d ec51 23bd c920 5dbc 2265 973d
000002b0: e0c4 543d 6bf8 693d eca1 32bd d794 783c
000002c0: 00ce 7d3d 547b 9b3d 1c12 adbd 57d1 b2bc
000002d0: 1fe2 843d a463 aa3d 4bd6 823b 4743 a1bd
000002e0: 7a20 66bb eccd b8bd 9934 f7bb 3fa5 0b3d
000002f0: b815 4c3c d122 23bd fa33 9c3d 1eec 593c
00000300: 9bbb d9bc 3bdc ffbc 7412 2c3d 7edb 173d
00000310: ac65 40bd 5f6b 9ebc 1c53 0e3d 2ef9 a13d
00000320: bdae 5cbd a659 ee3c b77b a53c 95f6 8abb
00000330: bdb2 3cbd 56c5 473d 1283 8b3d be18 01bc
00000340: ebfb a23c 6c9c 1e3d 285a 92bd b0f0 98bc
00000350: a5a5 823c 7d8d 6c3b e19d 26bc adcd 55bd
00000360: 83d7 debc 8dad 31bd 0fa0 243d b03f 4c3d
00000370: d667 4ebd bc80 b2bd 0f5b a93c 7a57 e33c
00000380: 396e 01bd 567b a73d f0d4 903d 2791 613d
00000390: 7345 9c3d 8aa2 19bd 5328 ab3d 19e8 43bd
000003a0: d573 2b3d e823 063d 9b1a 06bd f6d4 9abd
000003b0: eaa8 a2bd 0507 11bd 3f97 613c 9bb0 77bd
000003c0: 1ebe a0bd e828 813b a4d1 14bd 3ffd 9dbd
000003d0: 5445 4abd b844 6f3d 68b7 923d 6405 49bd
000003e0: bbaf 093d 60db 443d 0766 8abd 8508 85bd
000003f0: c9c1 4e3d bd31 85bd 0c16 30bc df00 93bd

actor.6.bias f4 [12]
0.060922038 -0.048120327 -0.07635726 -0.078443624 -0.025670944 0.07914519 -0.07150978 0.06808252
0.008286802 0.055654626 0.02538501 -0.065649524
00000000: 6389 793d d219 45bd 3261 9cbd 0da7 a0bd
00000010: df4b d2bc e016 a23d b873 92bd d96e 8b3d
00000020: 5ec5 073c 1bf6 633d 39f4 cf3c 4273 86bd

critic.0.weight f4 [128, 48]
0.123661146 0.04639215 -0.09368219 0.018038629 0.13985254 -0.122612886 -0.09648441 0.046849668
0.003406263 0.04161157 -0.13513616 -0.13503747 -0.057456426 -0.09913765 0.10816936 -0.071710765
-0.08428754 -0.050316483 0.07419103 0.027603189 0.059559222 -0.11439518 -0.10310283 0.021444919
0.14164838 -0.08997102 -0.09451683 0.0003391403 -0.035165157 -0.11101912 0.09027531 0.055521857
-0.068723224 0.037817363 0.13678503 0.0072448617 -0.12767527 -0.06403345 -0.019187545 -0.057262104
-0.10190445 -0.09774348 -0.05840136 0.068287194 0.035831667 -0.114394076 0.123612784 -0.061039086
-0.06129449 0.01404552 -0.060076248 0.008919752 0.13563591 0.042889986 -0.021955896 -0.0046366155
0.06821871 0.05524892 0.039781526 -0.08902188 -0.0067589507 0.13711187 -0.061027076 -0.07768434
0.12620568 -0.09805416 0.12641755 0.12314226 0.11024142 0.02479334 0.120525576 -0.008573805
0.11907913 -0.12645605 -0.07327751 0.043942112 0.09014525 0.051215626 0.06945871 -0.14574066
0.11713333 -0.08461688 0.102881655 -0.11167049 -0.042954497 0.0555982 -0.08392424 0.12222705
-0.107203506 -0.11625592 -0.12901303 0.1291098 0.042549163 -0.022326216 -0.09659194 0.10076118
0.07105053 -0.06767656 0.11041986 -0.13346688 -0.059762202 0.13829884 -0.050407782 0.10312353
0.09364436 -0.048481777 -0.09543149 -0.08221864 0.091792494 -0.030344032 -0.033022963 0.021357989
0.009812679 -0.1013201 0.099459276 0.07307396 -0.019287752 -0.025070038 -0.10647398 -0.08050917
-0.04472146 -0.0181669 0.10123489 -0.06331401 -0.08443819 0.018551484 0.034291968 0.12911876
0.09026829 -0.10265966 -0.13220678 -0.0066730767 0.107131556 0.074751414 0.00696392 0.10748433
0.12431026 0.09729356 0.03056499 -0.1274857 -0.009567414 -0.054730736 -0.10718295 -0.14139223
-0.070317164 0.110187165 -0.0012789491 0.04037399 0.05040984 -0.13939674 -0.031589832 -0.113236554
-0.0635189 -0.019657588 -0.07949704 0.03901159 0.055485528 0.12762819 -0.059820913 -0.098869324
0.09223708 -0.09520491 0.08991451 0.11219387 -0.13894878 0.13332905 -0.0964686 0.007229123
0.11160437 -0.12579986 -0.021548348 0.09994688 0.054443035 -0.0027024522 -0.106487125 0.05017886
0.015094584 0.004486496 0.12168057 -0.065990224 -0.07382708 0.12779942 0.13249211 -0.014473715
-0.055341277 0.0048998646 0.0039124954 -0.018345516 0.1360726 -0.06799159 -0.06635757 -0.020129154
-0.13833612 -0.12671977 0.12170189 -0.12871279 -0.08119612 -0.07948806 -0.031308945 0.13066782
-0.06835566 -0.027113087 0.02539421 0.025844246 -0.11142596 0.052449595 0.05513744 -0.05751272
0.13721426 -0.11887682 -0.018702088 -0.14829054 -0.025587745 -0.095313735 -0.13663025 -0.09926559
-0.11029703 0.06354299 -0.051215064 -0.06818317 0.08127163 0.06649952 -0.14516756 -0.12462747
-0.08024552 0.026011055 -0.027720891 0.09046826 0.02201788 -0.09302135 -0.07801175 0.06664786
0.066602334 0.03889038 -0.089337066 -0.10103122 -0.06463261 0.038967993 -0.111737736 -0.10446821
0.13768236 -0.030185271 0.031073045 -0.038512737 -0.12828587 0.13638504 0.13433483 -0.118727684
0.096567586 0.10804692 0.12716894 -0.043704335 -0.13651545 0.09100709 0.08007002 0.010829625
00000000: 0e42 fd3d b205 3e3d 73dc bfbd bfc5 933c
00000010: 8135 0f3e 771c fbbd 9e99 c5bd 70e5 3f3d
00000020: 9c3b 5f3b e570 2a3d 2261 0abe 4347 0abe
00000030: 6e57 6bbd ae08 cbbd e687 dd3d 18dd 92bd
00000040: f29e acbd a818 4ebd 77f1 973d 1520 e23c
00000050: 5ff4 733d 0548 eabd 9427 d3bd 41ad af3c
00000060: 460c 113e ba42 b8bd 0a92 c1bd a4ce b139
00000070: 5709 10bd fe5d e3bd 43e2 b83d e36a 633d
00000080: c3be 8cbd 61e6 1a3d 6011 0c3e 4e66 ed3b
00000090: 4ebd 02be f823 83bd 332f 9dbc ab8b 6abd
000000a0: 48b3 d0bd bc2d c8bd 4436 6fbd 28da 8b3d
000000b0: 3ac4 123d 7147 eabd b328 fd3d 1f04 7abd
000000c0: ee0f 7bbd 2e1f 663c 8312 76bd 2724 123c
000000d0: 24e4 0a3e 69ad 2f3d dadc b3bc c0ee 97bb
000000e0: 40b6 8b3d b14c 623d f4f1 223d 1a51 b6bd
000000f0: 307a ddbb 0e67 0c3e 87f7 79bd f818 9fbd
00000100: 103c 013e 9fd0 c8bd 9a73 013e 0232 fc3d
00000110: 41c6 e13d 671b cb3c 1dd6 f63d 2579 0cbc
00000120: c2df f33d b27d 01be 8512 96bd a5fc 333d
00000130: 139e b83d 7ac7 513d 5e40 8e3d 0a3d 15be
00000140: 99e3 ef3d 9d4b adbd 9eb3 d23d 7fb3 e4bd
00000150: 0ef1 2fbd f0ba 633d 79e0 abbd 2d52 fa3d
00000160: 838d dbbd 9517 eebd fe1b 04be 5c35 043e
00000170: 0848 2e3d 78e5 b6bc ffd1 c5bd e15b ce3d
00000180: f182 913d 029a 8abd cf23 e23d 8bab 08be
00000190: 36c9 74bd 369e 0d3e 6478 4ebd 6e32 d33d
000001a0: 9dc8 bf3d d494 46bd 9671 c3bd 3f62 a8bd
000001b0: b4fd bb3d 0c94 f8bc 1643 07bd f3f6 ae3c
000001c0: 5cc5 203c ea80 cfbd 4eb1 cb3d cda7 953d
000001d0: 5901 9ebc ae5f cdbc 080f dabd fee1 a4bd
000001e0: da2d 37bd c0d2 94bc 3d54 cf3d c7aa 81bd
000001f0: eeed acbd 48f9 973c bc75 0c3d b537 043e
00000200: 95de b83d 3a3f d2bd 3761 07be d3a9 dabb
00000210: ca67 db3d 4517 993d 9831 e43b bf20 dc3d
00000220: 6196 fe3d d941 c73d 6e63 fa3c 9d8b 02be
00000230: a5c0 1cbc 562d 60bd bc82 dbbd 20c9 10be
00000240: 7202 90bd cfa9 e13d 69a2 a7ba 325f 253d
00000250: 8c7a 4e3d 05be 0ebe 5764 01bd 91e8 e7bd
00000260: 3216 82bd f308 a1bc 58cf a2bd 9eca 1f3d
00000270: cb44 633d f7b0 023e c606 75bd 007c cabd
00000280: cbe6 bc3d cbfa c2bd 1925 b83d e6c5 e53d
00000290: 9748 0ebe 6987 083e 5491 c5bd 47e2 ec3b
000002a0: d590 e43d aed1 00be 2986 b0bc f3b0 cc3d
000002b0: a9ff 5e3d a01b 31bb ec15 dabd 5988 4d3d
000002c0: 464f 773c 7503 933b aa33 f93d e225 87bd
000002d0: a732 97bd dadd 023e 03ac 073e 2923 6dbc
000002e0: 89ad 62bd 0b8f a03b 6434 803b 5649 96bc
000002f0: 9e56 0b3e 2d3f 8bbd 7ae6 87bd e5e5 a4bc
00000300: fca7 0dbe d4c2 01be d73e f93d 49cd 03be
00000310: 274a a6bd a3ca a2bd cf3d 00bd c9cd 053e
00000320: 0dfe 8bbd 441c debc 8507 d03c 50b7 d33c
00000330: 4b33 e4bd 63d5 563d ccd7 613d 7592 6bbd
00000340: e581 0c3e b175 f3bd 1f35 99bc 7ad9 17be
00000350: 649d d1bc d933 c3bd cde8 0bbe c24b cbbd
00000360: 69e3 e1bd d422 823d e3c6 51bd 9ea3 8bbd
00000370: be71 a63d e630 883d cea6 14be b03c ffbd
00000380: c357 a4bd 2315 d53c ec16 e3bc 6c47 b93d
00000390: d75e b43c fa81 bebd a0c4 9fbd ac7e 883d
000003a0: ce66 883d 854b 1f3d 5af6 b6bd 75e9 cebd
000003b0: 1a5e 84bd e79c 1f3d c1d6 e4bd 6ef3 d5bd
000003c0: 9bfc 0c3e 1a47 f7bc e68c fe3c 88bf 1dbd
000003d0: 5f5d 03be 85a8 0b3e 128f 093e 8027 f3bd
000003e0: 3ac5 c53d b447 dd3d 9338 023e 5103 33bd
000003f0: b5ca 0bbe ed61 ba3d c0fb a33d bd6e 313c

critic.0.bias f4 [128]
0.04154886 0.088280104 -0.01771499 -0.123812184 0.07994568 0.072702326 0.04366287 0.10825044
0.14362688 0.063130856 0.06377346 -0.06578502 -0.061050594 0.037134014 -0.041253492 -0.10979011
-0.080740094 0.030519055 -0.10456746 0.012377106 -0.025815489 -0.10010585 -0.032813627 0.004862644
-0.062463023 0.040792014 -0.06823036 0.070230484 0.08249857 0.038498025 0.06252425 0.10600741
0.023067484 -0.052305628 -0.113701165 -0.0713887 -0.12347206 0.06764095 0.10836105 -0.04305542
-0.024374397 -0.08703707 -0.118967116 0.08864681 -0.009793512 -0.12206369 -0.0075572026 0.104826294
-0.13729808 0.08728664 0.012170263 0.005294359 0.11193517 0.005989023 -0.043365177 0.13234311
-0.029239466 -0.1360514 -0.01886549 0.039458882 -0.04602781 0.0536494 0.12489656 -0.008026174
-0.016949544 0.14674976 0.01327867 0.14542201 0.1349907 0.111782804 -0.06652095 -0.055962346
-0.12429562 0.1043606 0.116034865 0.06212207 -0.0095149595 0.13549559 0.056643844 -0.040794045
0.087849945 -0.08209188 0.10941262 -0.03015702 0.08258582 -0.009634106 -0.041184 0.0894118
0.12572503 -0.07725375 -0.062784046 -0.101110786 -0.1378407 0.007942499 -0.14733553 -0.12312885
0.10598001 0.050445314 0.13726878 0.076845475 -0.03219289 0.11693298 0.11446847 -0.048116837
0.12785143 -0.01161409 0.017379832 -0.05565094 0.058209505 0.14920886 0.046372544 -0.06536818
-0.10671891 -0.085226886 -0.0500083 0.033252135 -0.096885175 -0.1101728 -0.10745117 -0.14664827
-0.0056334524 0.11066909 -0.055234157 0.03457292 0.0753023 0.04068342 -0.11570394 0.024008704
00000000: 232f 2a3d 33cc b43d 071f 91bc 3e91 fdbd
00000010: 90ba a33d f5e4 943d d6d7 323d 68b2 dd3d
00000020: ed12 133e c04a 813d a99b 823d 4cba 86bd
00000030: 3010 7abd d619 183d 6cf9 28bd a3d9 e0bd
00000040: 105b a5bd 1903 fa3c 7727 d6bd 58c9 4a3c
00000050: 017b d3bc 4c04 cdbd 9567 06bd d056 9f3b
00000060: 3ad9 7fbd 8715 273d 5cbc 8bbd 00d5 8f3d
00000070: 03f5 a83d 1bb0 1d3d b70c 803d 6a1a d93d
00000080: 05f8 bc3c 6d3e 56bd 28dc e8bd 3d34 92bd
00000090: ebde fcbd 5787 8a3d 66ec dd3d e15a 30bd
000000a0: d1ac c7bc 7e40 b2bd 08a5 f3bd 758c b53d
000000b0: f774 20bc 87fc f9bd 69a2 f7bb 2baf d63d
000000c0: de97 0cbe 57c3 b23d c865 473c 4d7c ad3b
000000d0: 443e e53d 913f c43b af9f 31bd f484 073e
000000e0: 9b87 efbc 0f51 0bbe cd8b 9abc a39f 213d
000000f0: a887 3cbd 79bf 5b3d c5c9 ff3d 3780 03bc
00000100: c5d9 8abc 9245 163e c78e 593c 82e9 143e
00000110: 013b 0a3e 62ee e43d 233c 88bd c638 65bd
00000120: b48e febd 03bb d53d b0a3 ed3d b673 7e3d
00000130: a2e4 1bbc 5bbf 0a3e 6003 683d a817 27bd
00000140: acea b33d ca1f a8bd b913 e03d db0b f7bc
00000150: c122 a93d 5fd8 1dbc 8eb0 28bd 891d b73d
00000160: 10be 003e 3737 9ebd ec94 80bd 2c13 cfbd
00000170: 1d26 0dbe 4121 023c 20df 16be fa2a fcbd
00000180: 0c0c d93d bf9f 4e3d 3090 0c3e 2961 9d3d
00000190: b1dc 03bd 8f7a ef3d 726e ea3d 2916 45bd
000001a0: 7ceb 023e 0649 3ebc 2660 8e3c 3df2 63bd
000001b0: 176d 6e3d 35ca 183e 23f1 3d3d c1df 85bd
000001c0: 728f dabd 6f8b aebd 81d5 4cbd 6433 083d
000001d0: bc6b c6bd 47a2 e1bd 5c0f dcbd f72a 16be
000001e0: d398 b8bb 7aa6 e23d 363d 62bd 569c 0d3d
000001f0: 1838 9a3d a8a3 263d 30f6 ecbd e7ad c43c
