logs/rsl_rl/anymal_c_flat_direct/2025-04-24_12-25-01/model_50.pt (torch, 983250 bytes, 48 tensors)

std f4 [12]
00000000: add1 153f 9a6e 173f ee5e 133f 56e7 193f
00000010: 94f0 253f e4ae 263f 6550 283f 56b4 243f
00000020: bc43 123f a16c 1c3f 4cf9 173f 0aa8 183f
0.58523065 0.5915314 0.57566726 0.60118616 0.6482022 0.6511061 0.6574767 0.6433767
0.57134604 0.61103255 0.5936477 0.5963141

actor.0.weight f4 [128, 48]
00000000: 1579 3f3e 1786 05bd 3252 b7bc 2890 c0bd
00000010: 0240 513e ec49 a4be e8a8 2bbc 3e1c 4c3d
00000020: 76e8 ef3d 32c4 7ebc 566b a43e 712f 5a3e
00000030: 56d5 aabd a883 69be 664d 62be ee5f 07bf
00000040: 3569 82bc 1ed5 5f3e f3f6 85bd ce7e f5bd
00000050: e842 9f3d bb44 9c3e 4ae4 d93e 864a 3abe
00000060: 1e1f 2ebd 6fad 2e3c 6c52 e83c 41f1 4ebc
00000070: c09d 943d 25d2 3c3e 94d1 71bd d7d1 3aba
00000080: 6a25 ce3d eecc 8c3d 1089 e1bd 0621 dc3c
00000090: c162 bc3a 0898 56be 143f 403e 46fc d2bd
000000a0: d411 883b 4a80 dbbd 56f5 db3d 56d1 b8bd
000000b0: 1e81 20be f003 16be ff78 223e 0a52 f93c
000000c0: f3e8 f5be 4f7a aebe cb56 32bd a42e f2bd
000000d0: f325 69be 3ac9 0d3d 6360 083d ad06 613e
000000e0: aa7c 233e 0f60 47be 8ded e23e 3d0b 9cbe
000000f0: 9df4 c73d dec8 55bd d08d ea3d 7ce4 22be
00000100: 557f a1bd e635 11be 4032 c2be 68c7 0abc
00000110: ade5 443d f994 743d 19b1 173d 4898 603e
00000120: 0709 5e3d 67cb 57b9 7bdd bcbc 5eaf 12bd
00000130: 1b67 e9bc ad98 8c3a a6be cebd 601b 7dbd
00000140: 17d2 26bc 1a3f 82bc ba0b f6bc 95ec 66bc
00000150: ad18 9fbc b487 773d 6694 bd3c ed1a bfbc
00000160: ae11 d6bc 9fb1 0fbd 80f2 99bd 4320 ebbd
00000170: 7883 32be 934f 40be 1d59 143d dc20 58be
00000180: 132e 13be b85a 52bc 03a0 933e 2718 c43d
00000190: da08 9e3d f07b 57be f293 91be 0833 33bf
000001a0: 87cb 253e 3d12 933e 8c55 553d 34af a83e
000001b0: 7000 823e 1a63 d83d 6743 273e e9dc 833e
000001c0: ed31 64bb 0d23 28be 94f4 893e 38fd 9b3e
000001d0: b9c3 893e 7079 80bb f432 cdbd 82f4 613d
000001e0: 2e94 aebd dc2c 7a3d 8ebf ca3c a4fe 8f3c
000001f0: 1c7f b0bd 7bf3 b9bd bac2 503d 6fd2 c23d
00000200: 2a2a c8bc e33a 4c3d 8841 343d 8b5a d43c
00000210: 3bc6 5c3e 75ae 093e 223f 0e3e 4ab7 95bd
00000220: a897 d43d cafd 47be caf7 8fbd 6125 e8bd
00000230: 981c 59be b9da 3fbd 4503 15be 0006 dfbd
00000240: aa81 febd f3ce 543e a26b 0f3f 88a8 653e
00000250: 88ec 72be 61b5 be3d d55f debc a302 f03e
00000260: 7d22 d037 4306 6abd b29c fcbd 6834 ba3e
00000270: f7f3 69be 2c83 703e 4407 293d b49c 4b3e
00000280: 952b f63d 9c24 86be 06d9 303e b0ae dbbe
00000290: b317 9b3d ac33 a43d 585f 2f3f 9ac9 3cbe
000002a0: cf6a 1c3e 184c 26bc 7609 383e e1ed ebbd
000002b0: cbdd 0d3d e5f0 b7bc 3b85 073e 2ff0 b93c
000002c0: 34f1 a8bb 3624 c4bc 7dd5 aa3d 8d9e 893d
000002d0: ab1f bb3d ca06 f9bd bcbf 6bbc 5bf8 2fbe
000002e0: b800 45bd 444f 2bbc 6a5c a93e 7e98 51be
000002f0: 4536 bcbd 3fa4 1fbe 09b9 b7be dc57 41bc
00000300: 86e4 753e b89c 803d 621c 87be 0652 4ebe
00000310: d66d 473e 54ce 533e e99d c93e dba3 813e
00000320: 0136 b53d 914a 413e d149 4dbe 6319 6cbd
00000330: 729c 97be f080 efbd 20a7 dabd 5323 d0be
00000340: 3803 20bd d20e 54bd 190c ae3d 2153 143c
00000350: afd2 923e eb1d 56be aec2 8b3d 533e 5abe
00000360: c9a4 d73d 546b 6dbd 5e1a 71bc f90e f8bd
00000370: e1da 053c 62ca b93d 0947 0bbe 92b1 d73c
00000380: 1de8 be3d 61d2 f2bc e1ee 9bbd dd21 a6bd
00000390: 1ae1 223e ab37 423e 4cbe e7bd 73d1 27be
000003a0: b52d 08be 7816 263d a63d 42bd 650d a53d
000003b0: d23c 583c 5b4f b2bd d6ff 113d cad6 9c3e
000003c0: 1229 08be 760c ce3d b9c4 b7be c7c1 4c3e
000003d0: 4228 92bd a008 643e b1c8 cf3c a7f9 683c
000003e0: ee37 9bbc 2bf6 5ebb 9af5 a5be 6bb0 0dbd
000003f0: 0e8e 243e f914 093f c59b 19bd 6fff 253e
0.18698533 -0.03259858 -0.022378061 -0.094024956 0.20434573 -0.32087648 -0.010477282 0.04983162
0.1171426 -0.015549706 0.3211314 0.2130716 -0.08341472 -0.22804129 -0.22099838 -0.5288075
-0.015919307 0.21858642 -0.065412425 -0.11987077 0.07776433 0.30521187 0.42556983 -0.18192491
-0.042510144 0.010661467 0.028359614 -0.012630762 0.07256651 0.18439539 -0.05903776 -0.00071266055
0.1006573 0.06875025 -0.11012471 0.026871216 0.0014372693 -0.20956433 0.18774062 -0.103020236
0.004152516 -0.107178286 0.107401535 -0.09024303 -0.15674254 -0.1464994 0.15866469 0.030434627
-0.4802929 -0.3407769 -0.043539803 -0.11825302 -0.22768383 0.034615733 0.033295047 0.21975203
0.15965524 -0.19470237 0.44321862 -0.30477324 0.09763453 -0.052193515 0.1145283 -0.15907472
-0.07885615 -0.14180717 -0.37928963 -0.008470394 0.0480706 0.059712384 0.037034128 0.2193309
0.054207828 -0.00020579771 -0.023054829 -0.035811774 -0.028491547 0.0010726653 -0.10094957 -0.061793685
-0.010181925 -0.01589923 -0.030034889 -0.0140944915 -0.019420946 0.06043215 0.023142051 -0.023328269
-0.026131477 -0.035081502 -0.07516956 -0.11480763 -0.17432964 -0.18780355 0.036217798 -0.21106285
-0.14373045 -0.012839012 0.28833017 0.09574919 0.07716532 -0.21043372 -0.28433186 -0.6999974
0.16190921 0.28724852 0.052083537 0.3294617 0.2539096 0.10565777 0.16334306 0.2575448
-0.0034819797 -0.16419621 0.2694441 0.30466628 0.26907137 -0.0039207265 -0.10019484 0.05516482
-0.08524357 0.061077937 0.024749544 0.017577477 -0.08617994 -0.09079643 0.050966956 0.09512793
-0.024434168 0.049860846 0.044007808 0.02592208 0.21559994 0.13445456 0.13891271 -0.0731035
0.10380489 -0.19530407 -0.07029684 -0.113352545 -0.21202314 -0.04683945 -0.14552028 -0.10889816
-0.12427075 0.2078207 0.5602361 0.22427571 -0.23723042 0.09311939 -0.027145306 0.46877012
2.4811592e-05 -0.057134878 -0.12334575 0.36368108 -0.22846971 0.23487538 0.041266695 0.19883996
0.12020031 -0.26199806 0.17270288 -0.42906713 0.0757288 0.08017668 0.6850486 -0.1843628
0.15275119 -0.010149978 0.17972359 -0.11519981 0.034635346 -0.022453735 0.13234417 0.022697536
-0.005155707 -0.023943048 0.08341501 0.06719694 0.091368996 -0.12159498 -0.014388975 -0.17184584
-0.04809639 -0.01045591 0.3307832 -0.20468327 -0.091900386 -0.15589999 -0.35883358 -0.011800732
0.24012956 0.06279892 -0.26388842 -0.20148477 0.19475493 0.20684177 0.39378288 0.25320324
0.08848191 0.18876101 -0.2004769 -0.0576414 -0.29611546 -0.11694515 -0.10676408 -0.4065195
-0.03906557 -0.051771946 0.08498401 0.009053023 0.28676364 -0.2090985 0.068242416 -0.21312837
0.10529477 -0.057963684 -0.014715759 -0.12112231 0.008169861 0.090718046 -0.13601317 0.02632979
0.09321616 -0.029641332 -0.07613922 -0.08111928 0.15906182 0.18966548 -0.11315593 -0.16388492
-0.13298686 0.04054877 -0.047422074 0.080591954 0.013198094 -0.08706542 0.035644375 0.3063262
-0.13296917 0.100609705 -0.35892275 0.19995795 -0.07136585 0.22268915 0.025364252 0.014219678
-0.018947568 -0.003402124 -0.32413942 -0.034592073 0.16069815 0.53547627 -0.03750207 0.16210721

actor.0.bias f4 [128]
00000000: f555 4fbe 3def c1bd 0230 8f3d ff03 733c
00000010: 1d30 1a3e c4cf 7d3d 49f3 3bbd 6ffe 513d
00000020: ca45 093c 7034 b03c 376c 3dbd 5e66 c03c
00000030: 234a 67bd 7c54 83bd 7cc9 92bb 8b78 52bd
00000040: 32d1 7c3d a24f e9bd f889 cabc 7eef 72bc
00000050: 99a0 9ebc 7d44 193d 253e 7abd 1048 77be
00000060: 7cda b2bd 3d59 e8bc f248 2c3d 81af b53c
00000070: b212 e4bd 0dc0 10bb fcd9 01bd 1a77 24bc
00000080: 7193 1c3e cbbb cd3d 3c14 e9bc ad54 b63c
00000090: f6f4 3d3d fd71 6dbd 7b88 f7bd cd2b c5bd
000000a0: a262 603d 9179 06bd 321f 293d e693 813d
000000b0: 9dc2 76bd bc0f 883c e713 89bd 95d7 a03d
000000c0: d8e1 2cbe aca3 693d 056f 8dbc 022f 27bd
000000d0: 8f0d a43d cf72 833d 3dd1 fdbd 3af4 b3bc
000000e0: b052 d73c 0122 34be d825 c23b 0947 8f3c
000000f0: 784d 78bd 7d76 5f3d c998 65be 7f17 e73d
00000100: 86bb 5abe b697 09be e9dd e9bd 2ce4 5dbe
00000110: 42db 00be 3bae 99bc 49b0 94bd 683c 78bd
00000120: 4a96 8cbc ad2a e6bc f761 793b 3e00 1a3d
00000130: 5f6d c63d c3da dfbd accf 09be c120 11bd
00000140: d1ed 21bd c9f6 25bb fe24 8c3d 38fa 60bd
00000150: c4de 07be e768 1ebe a5de 3f3d 6c23 4ebd
00000160: aefd 513c 60b2 fd3d 08d1 7abd 141c 8dbd
00000170: 9d46 d7bd 60b4 f0bc c05d 2ebd 9100 603d
00000180: 46d3 45be 675b b5bd 3a2a 17be 5896 4abd
00000190: 849c 01bd a7b8 fdbc 5dae 8abd eaed 1e3e
000001a0: bc19 923d 98eb 4cbd b9fa 9cbd 0ae4 a83d
000001b0: 4a11 063e 7630 f6bd e210 4e3d c446 d5bd
000001c0: 6094 0c3e 344e dcbd f33e 0bbe 571f 63bc
000001d0: 281f dfbd 07b2 26be 3ad8 9c3a 5853 96bd
000001e0: ded4 0e3e 1816 d53c bbdc 7bbd 89e5 82bc
000001f0: 1bd2 323c f0dc bdbd c8c2 c6bc b51c 59bb
-0.20247634 -0.09469459 0.06991579 0.014832496 0.15057416 0.06196572 -0.04588631 0.051268037
0.008378455 0.02150938 -0.04624578 0.023486312 -0.056467187 -0.064125985 -0.004479585 -0.05138449
0.06172294 -0.11392142 -0.024723992 -0.014827607 -0.019363688 0.03741883 -0.061094422 -0.24148583
-0.08733079 -0.028362865 0.042061754 0.022178413 -0.11136378 -0.0022087127 -0.031702027 -0.010038162
0.1529062 0.10045584 -0.028452031 0.022257173 0.04637619 -0.057970036 -0.120865785 -0.09627495
0.054781564 -0.03283078 0.041289516 0.063270375 -0.06024419 0.016609065 -0.06693249 0.07853619
-0.16883028 0.057040855 -0.017264852 -0.040816315 0.080103986 0.064183824 -0.12393425 -0.021967042
0.026284546 -0.17591096 0.0059249215 0.017489927 -0.060620755 0.05455636 -0.22421564 0.112837784
-0.21360597 -0.1343678 -0.11419279 -0.21669072 -0.1258364 -0.018759837 -0.07260186 -0.060604483
-0.017161507 -0.028096521 0.0038052776 0.037597887 0.0968883 -0.10930397 -0.13458127 -0.035431627
-0.03953344 -0.0025324097 0.06842993 -0.054926127 -0.13268572 -0.15469705 0.04684319 -0.05032675
0.01281683 0.12387538 -0.061234504 -0.06890121 -0.10511515 -0.029382885 -0.042569876 0.05468804
-0.19318876 -0.08855324 -0.14762202 -0.049459785 -0.031643406 -0.030971838 -0.067715384 0.15520445
0.07133815 -0.050029367 -0.07665009 0.0824662 0.13092533 -0.12020962 0.05030907 -0.10413888
0.13728476 -0.107571036 -0.13598232 -0.0138624525 -0.108946145 -0.1627885 0.0011966296 -0.07340115
0.1394839 0.026011512 -0.0614898 -0.015978592 0.010914351 -0.09270656 -0.0242628 -0.0033128683

actor.2.weight f4 [128, 128]
00000000: 6ced 083d 7a94 b13d 8c23 6f3d 335e c8bd
00000010: de54 05bc 679d 09bb 5ce4 d3bd cb5d 753d
00000020: b58f 043d 19e4 1abe 542d 253e b8f5 da3d
00000030: 6ea0 e2bd 7358 88bd b587 c33d f293 cc3c
00000040: 29f9 bdbd a1d7 a63d 7047 ef3a bcd5 86bd
00000050: fd14 9fbd 5734 943d e9e5 12be 2859 183e
00000060: b1eb 82bc 5294 683d f6a6 aa3c ecc2 2f3d
00000070: 7a54 aabd 2534 42bd 62bf 82bd 2a87 be3d
00000080: 7f1d b1bd 746b eebc 033c ed3c c5f0 75ba
00000090: 93c8 0f3c e5e1 9d3d 6772 bdbc 19d7 c93c
000000a0: 6aa4 1fbd b996 22bd 331c e63d 6a62 5c3d
000000b0: 0925 c13d 403f 19be db23 f3bd 05c8 b9bd
000000c0: 7e65 f6bb fa68 84bd 5678 aabc 4ba8 d63b
000000d0: 0256 a83a 1f39 6cbd fe48 23bd 9b1f 17bd
000000e0: 7b6f d1bd 2025 b83d 8777 07bd 7bdf 363d
000000f0: 8e1d 37be a8bd c2bd 6358 c33d 2aff b9bd
00000100: e878 d93c c8ca e63d 6ec7 4abd f2db 173d
00000110: 2c9e f63b 97b0 f93c e9e0 2fbd 2f68 78bc
00000120: 6b0e 953d fa6d b4bd 74ac 8e3d 3099 ac3d
00000130: 0f07 e43c 4725 19bd baa0 08be c567 ed3c
00000140: aab9 49be 2288 be3d ae6c 6abc 6ff3 f73d
00000150: 6e17 93bc fd2b d0bd cd61 ed3c 9eeb f93c
00000160: 1523 fdbb a1e1 70bd 9b4f 91bd 79b6 b0bd
00000170: 6f21 6d3d c1fc 423b bb74 0b3d 193d 263e
00000180: 2f72 2dbc 9de5 1cbd 5ca3 533d dcc0 783b
00000190: 81fc 9d3c cc28 92bb 8f79 c5bc 5c39 70bc
000001a0: cfb0 9a3c f3fd 90bd 24d4 533d 2516 283d
000001b0: 7b24 083b 9389 a03d aadf 893d 1585 c53d
000001c0: f153 d13c c767 df3c 752e 29be 31a8 47bd
000001d0: a1b6 383e f0db 89bd 35c0 a8bc c77e ab3d
000001e0: 569b 453c ed64 69bd 3259 e13d 6038 66be
000001f0: 47ad ae3d a488 80bd a24f 38bd f2c6 a13c
00000200: 49ec 0e3e 083f 43bb 4cb3 b2bc 892e 9bbc
00000210: fe74 fa3d b756 643d e0f4 9b3c ed67 6d3d
00000220: f48d 24be e38b 0b3c 29cf bfbd 2c39 2dbe
00000230: 819e 313d c7b7 5bbc 71c6 cbbd 045e 663c
00000240: 1db0 5b3d 2e1e edbd 82ba c2bd 816c b33d
00000250: a2eb 0b3b 445f 28be 3bef 933d b730 0ebd
00000260: fabb 9c3d 5ae8 cebd 9bc4 ee3c b9bc ddbd
00000270: 2d84 93bc 8279 f9bd a5bd edbb 84f2 3b3c
00000280: d00b b73d d946 923c 15ad 4dbd aad7 5bbe
00000290: bf4f 6b3d 1bcb 133c c28f b6bd c496 193b
000002a0: 3bf6 b33c 63c0 c3bd a4c2 ca3d 0177 2a3d
000002b0: d5b9 2b3d c274 23be 06fe debd bf87 3a3c
000002c0: 8ed1 f4bd 9322 18bd bacd a33d 499f 24bc
000002d0: 6356 9abd 36cf 43bd 49c6 b53d 8205 6cbd
000002e0: c7ed bb3d aae0 77bc 525a febd 63c3 663d
000002f0: d7d2 c9b9 d807 3c3d c5bc 743c 4813 163d
00000300: 0ea6 203d b89e 9fbd 01bf a6bd 7e97 9dbd
00000310: d516 053d 9d2c 7fbc 6084 bc3c 3829 db3b
00000320: 392e bebd 674e a33d 2592 e0bd e58a a4bd
00000330: 9eb7 aabd b655 193d 6c58 863d 99d5 e5bd
00000340: c76f 5f3d b410 72bc 7ad4 d83d 844a 94bd
00000350: dc81 babd a541 ba3c ad2a 82bc 7fc6 813d
00000360: f78c 8abc 5fe0 bd3d 6533 993d e8ae c03d
00000370: 3bfa fa3c a4dc f2bd 9dc2 31bd 0572 693d
00000380: 4b22 a4bc 5359 a2bd 8aa1 053e 5a52 053c
00000390: 536e b03c 516f 9abd a54f febd e91e 283d
000003a0: 1b3e a6bd 45f5 ecbc bd87 0abe 0404 d8bd
000003b0: 9271 89bd 4528 99bd ca96 e6bc cb90 ad3d
000003c0: bd54 c63c ef8b a33c 395e 703c 6747 e63c
000003d0: fb65 f4bd ea3c 90bc 3591 da3c e5b9 ab3d
000003e0: 8265 80bc 1d37 adbd 0eff cfbc 99b6 e9bd
000003f0: 1ca3 c2bd c159 80bd 21e9 93bd a4fc 1cbc
0.03342955 0.08670898 0.05838351 -0.09783592 -0.00813791 -0.002099836 -0.103462905 0.0599039
0.032363612 -0.15126075 0.16130573 0.106913984 -0.11065756 -0.06657495 0.095473684 0.02497289
-0.09276039 0.08146597 0.0018255543 -0.06583735 -0.07767675 0.072365455 -0.14345516 0.1487776
-0.015981527 0.056782074 0.020831566 0.0429105 -0.08316894 -0.04741301 -0.063841596 0.09303124
-0.08648204 -0.029103972 0.02895928 -0.0009381886 0.008775848 0.077091016 -0.02312584 0.0246387
-0.038975157 -0.03969452 0.11235847 0.053804792 0.09430892 -0.14965534 -0.11872073 -0.09071354
-0.007519423 -0.06465335 -0.020809334 0.006550824 0.0012843015 -0.057671662 -0.039864533 -0.036895376
-0.10226341 0.08991456 -0.033072975 0.04464672 -0.17882368 -0.0950883 0.09538343 -0.09081872
0.02654691 0.11269146 -0.049506597 0.03707499 0.00752618 0.030479712 -0.0429391 -0.015161558
0.07278141 -0.08810039 0.069664866 0.08427656 0.027835397 -0.037389066 -0.13342562 0.028980145
-0.19699731 0.09303309 -0.014308138 0.12106978 -0.017955508 -0.1016464 0.0289773 0.030507859
-0.0077251294 -0.058808926 -0.07095262 -0.08628554 0.057893213 0.0029752704 0.03404687 0.16234244
-0.0105863055 -0.038304914 0.051669464 0.003795675 0.019285442 -0.00446043 -0.024105815 -0.014662113
0.018883137 -0.07079687 0.051715985 0.041036744 0.0020773697 0.0783874 0.06732114 0.09644524
0.025552722 0.027271165 -0.16521628 -0.048744384 0.18038417 -0.06731403 -0.020599464 0.0837379
0.012060961 -0.056981016 0.11003341 -0.22482443 0.08529144 -0.06276062 -0.04499782 0.019748185
0.13957323 -0.0029792208 -0.021814011 -0.018943088 0.12229346 0.05574676 0.019037664 0.05796044
-0.16069776 0.008517238 -0.093656845 -0.1691634 0.04336405 -0.013410515 -0.09949959 0.014060501
0.05363475 -0.11578022 -0.0950823 0.0876093 0.0021350165 -0.16442591 0.07223364 -0.034714427
0.07653041 -0.10102911 0.029146483 -0.108270116 -0.018007362 -0.12181379 -0.0072552734 0.011471394
0.089378 0.017856048 -0.050213892 -0.21468988 0.0574491 0.009020592 -0.089141384 0.002343581
0.021967998 -0.09558179 0.09900406 0.041617397 0.04192527 -0.15962508 -0.10888295 0.011384903
-0.11954032 -0.037142348 0.079982236 -0.010047742 -0.07536008 -0.047805034 0.088757105 -0.05762244
0.09176212 -0.015129248 -0.12419571 0.05633868 -0.00038494795 0.045905918 0.014937584 0.03663948
0.039220862 -0.07793945 -0.081419 -0.076949105 0.032492477 -0.0155746015 0.02301234 0.0066882633
-0.0928616 0.079739384 -0.10965375 -0.080343045 -0.083358034 0.037435256 0.06559834 -0.11222381
0.05454996 -0.01477449 0.10587402 -0.07240775 -0.091068 0.02273638 -0.01588949 0.06336688
-0.01691292 0.09271311 0.07480506 0.09408361 0.030636897 -0.1185849 -0.04339849 0.056993503
-0.020035883 -0.079271935 0.13049904 0.00813731 0.021536982 -0.07540763 -0.12417535 0.041045103
-0.081173144 -0.028925547 -0.13528343 -0.10547641 -0.06711115 -0.07478384 -0.028148074 0.08474883
0.024210328 0.019964186 0.014670902 0.02811022 -0.11933514 -0.017607171 0.026680568 0.08385066
-0.015673403 -0.08457778 -0.025390174 -0.11411781 -0.09503767 -0.06267119 -0.072222 -0.009581719

actor.2.bias f4 [128]
00000000: 8578 fdbd 41c2 fb3b fc46 f3bd 93b4 83bd
00000010: dcee 4b3c 4b08 cfbd f0dd e63c a943 7ebd
00000020: ae63 b6bb b175 8e3d 0c9f fbbd 9904 82bd
00000030: ba4e 50bd 9c59 35bd 60d7 63bd 7bc8 c1bd
00000040: 5361 d7bd 0929 073c a09f d139 8b79 92bd
00000050: e9f6 36bd a3cc 573c 1dc4 8cbc 58b7 44bd
00000060: 6adf b0bd 09a5 17be 7bf8 9cbd 3191 97bd
00000070: 6c18 88bc 17f6 2dbe 71f1 70bc 82f5 7abc
00000080: 04bc 8dbb 2d68 a0bd 0eb9 8c3b f9ab fdbd
00000090: 4baf 70bd b333 10bc ac54 7b3d be6e 79bd
000000a0: cff1 05be a2b1 d53a 8a66 5a3c a2de c7bd
000000b0: ceb4 b6bd cffd 02bb 7547 50bd c67d 30be
000000c0: 3a32 26bd 5c2d 2cbd 50c9 bfbd d3dc febd
000000d0: 7c21 b6bd ccb9 7ebd 1a4e cabc 95e0 24be
000000e0: 0dc9 96bc d04d 05be 0419 a1bd 1520 88bc
000000f0: fa55 8e3d c9d3 19bd 3025 853d 1ae6 883d
00000100: 5eb6 253b 79c5 37be f6c7 3ebd ac19 e1bd
00000110: be36 0fbe 70dc 0c3d f36d c1bc ea97 a53d
00000120: 28c3 7abd 9445 acbc 19c7 9ebd ebd0 efbb
00000130: aaff da3d 04be 87bd 6634 3e3c 2f67 05be
00000140: da9c 97bd 1d12 9b3c 3354 04bd 281f b4bd
00000150: 2e4d d03a 500b 97bd 79ae 7dbd 5c2d f1bc
00000160: 527c 19bc 7c96 88bd 0e0c 1b3d 359f 673d
00000170: f978 60bb 230e a9ba be15 97bd bc61 a5bd
00000180: 5476 aebd c47d 5bbd 05e4 533d db51 d03c
00000190: ba32 23be f705 60bd 55dd b8ba 8f4c 1a3d
000001a0: 55c1 b5bd abd2 adbd 1650 12be c2d5 9fbc
000001b0: 0cff f5bc 3b38 903c 82d8 bfbd f030 a3bd
000001c0: aa8d 56bd 50e5 a43c d25f 553c be59 92bb
000001d0: 0edb 6fbd 7950 69bc 0b0c d9bc 8505 38be
000001e0: 2393 f1bd d369 efbb 2a46 e4bd dee1 b0bd
000001f0: f33c 4f3d 37c0 a03d 0df8 f6bd a72e abbc
-0.12376503 0.007683069 -0.118787736 -0.06430926 0.012447085 -0.10109004 0.028182 -0.062076245
-0.005566082 0.069560416 -0.12286195 -0.06348533 -0.05085633 -0.04427491 -0.05562532 -0.09462067
-0.1051661 0.00824953 0.00039982516 -0.07152089 -0.044669066 0.013171348 -0.017183358 -0.048026413
-0.08636363 -0.1480905 -0.076645814 -0.0740074 -0.016613208 -0.16988407 -0.014706002 -0.015317323
-0.0043253917 -0.0783237 0.004294521 -0.12386317 -0.058760922 -0.008801389 0.061360046 -0.060896628
-0.13080524 0.0016303549 0.013330111 -0.09759261 -0.089212045 -0.0019987707 -0.050849397 -0.17235479
-0.040575244 -0.042035446 -0.09364569 -0.124444626 -0.088931054 -0.06218891 -0.024695445 -0.16101296
-0.018406415 -0.13017964 -0.078660995 -0.01661686 0.069499925 -0.03755549 0.065012336 0.066845134
0.0025285701 -0.17946424 -0.046577416 -0.10991225 -0.13985726 0.034389913 -0.023611998 0.08085616
-0.06122127 -0.021029271 -0.077528186 -0.007318606 0.10693295 -0.066280395 0.011609172 -0.13027643
-0.07402964 0.018929536 -0.03230686 -0.08795005 0.0015892142 -0.073752046 -0.06193397 -0.029440574
-0.009368019 -0.066693276 0.037853293 0.056548316 -0.0034251793 -0.001289789 -0.07377194 -0.08075282
-0.08518663 -0.053586736 0.05173113 0.025429657 -0.1593732 -0.05469319 -0.0014104048 0.03767067
-0.08874766 -0.08487447 -0.14288363 -0.019511107 -0.030028842 0.017604938 -0.093674675 -0.079683185
-0.052381195 0.020128876 0.013023334 -0.0044662645 -0.058558516 -0.014240378 -0.026495 -0.17970856
-0.11795642 -0.0073063164 -0.11146195 -0.08636831 0.050595235 0.07849162 -0.12059031 -0.020896269

actor.4.weight f4 [128, 128]
00000000: aa4d 20bc a390 5dbd e5f9 183d 0eff f23d
00000010: 51ef 90bc e1a1 323e dece 103d 56dc 3fbe
00000020: 63ac c3bb 4c61 dfba afd7 ca3d 7e99 283d
00000030: b064 e43d 5e77 29bd a4d4 93bd da07 873d
00000040: c5dc 3bbd ecdf 7abc be33 a53c 2a7c afbd
00000050: 5921 013e 5d46 86be b97b 75bd daa0 043d
00000060: d0e6 473c 838e 29be 773e c83d bf0e f73b
00000070: 0356 5b3c 163b d6bc 8547 b43d 394a d2bd
00000080: 5cf5 7a3d 6e68 eb3d cc90 debd 07e3 763c
00000090: 2df8 863d fd5c 64bd 8186 51bd dbf6 223d
000000a0: 288e 813d a204 03be 2088 1dbe 4277 a8bd
000000b0: 9951 02be af13 8b3d d083 65bd 3aa0 9b3c
000000c0: 1c49 fd3c 3627 85bc b8a3 44bd d4e5 bebd
000000d0: 8ccc dfbd 90ef 0bbd 406f 22bd a2f7 8a3b
000000e0: df7f c1bd 318d 4f3d 877a 43bd 7fc4 9a3c
000000f0: 3c18 a4bd 5092 19be 978f 653d 8b42 7bbd
00000100: 2a5d 1a3d 71be 203d 464a b6bd 2e3e 6dbd
00000110: 5bbc 663e 7586 013e 86c1 963d 34b9 d6bc
00000120: 075d cebd ba22 9abd cee3 123c cc4f c23d
00000130: 1f9a 393d 8eb8 133d e08b 40bd 9c7d a93c
00000140: a2d8 0b3e d0a4 1abc 004f d93d 8046 9c3d
00000150: a563 743d c3e6 c83d 01c4 163e 1e2c 8cbd
00000160: 2c43 043e 108c 3dbd 39e6 45bc ed05 5fbc
00000170: 60eb 52bd c3b4 05be f3a1 e0bb 6377 01bb
00000180: 5a4b 663d cc60 3c3d ed74 9ebd 5d5e 813c
00000190: 81eb d03d 174d dcbd f424 24bd e062 5fbd
000001a0: 65d6 873d f8d8 753d de22 433d 39c5 6cbc
000001b0: fb26 68bd 14bc 05bd 1a49 26bd 9a49 a2bd
000001c0: 1d2b 31bd e8a4 a8bd 6f95 443b 3514 ce3c
000001d0: ae4c 00be 98fb 823c f44a c73d 7ed2 d23d
000001e0: 2d14 dd3d 069f bfbb 7e2a 4abd 509a 1a3e
000001f0: 7881 aa3b 1d83 0ebe 5a22 923d dff1 343e
00000200: 85d1 74bd bbd3 433c f927 143d f223 d7bd
00000210: 39ba f1bc e8e8 53be b3ba cabd adf2 21bd
00000220: 4424 903c 00c6 dc3d 1d6b febc 1e45 bf3b
00000230: 0037 b03d e0a3 063d 67f3 2cbd bb7b 9f3d
00000240: e03b ac3d b249 a83c 2784 a03d 484f 12bd
00000250: 8434 00bd 0b27 48bd 1b78 d2bc d2c6 4dbd
00000260: 46a5 87bd 9619 da3d bf1a 45be 0168 3dbd
00000270: e433 60bd 5cc7 293d 78dd b23c c311 673d
00000280: 2fe9 26bd 161a ddbd 2629 c2bd 9878 183e
00000290: 503d 51bd f547 74bc 0e61 88bc 999f a4bd
000002a0: 283c 86bc ce44 f1bc acbc edbb fe0a 233d
000002b0: 6ed3 bdbd 2f04 2cbc 2761 b13d ce30 9b3d
000002c0: 347d 9e3d 44f5 33bc 3bf5 ae3d d2b8 9f3d
000002d0: b9cc c4bc d03b fe3d 1961 84bd 8bd0 713c
000002e0: ad09 9bbc 4afc c93d 1733 21bd 4635 0d3d
000002f0: 12eb d7bc 690d debd a961 333e ca1c 273d
00000300: 446f 9a3d e296 72bd 4839 50bd 8011 d23d
00000310: 315f 653d 614c aebd 808c 81bc a657 e23d
00000320: 193b 2f3d c5ac bebc 70fe 23bc edd5 1dbd
00000330: cb76 8dbd f7e4 f8bc a95b 763c 0738 773d
00000340: 9828 7ebd 8fda fbbd 2489 cb3c 4ac0 0f3d
00000350: 72b0 77bd b9dd 7abd ae93 183c 725d a53c
00000360: 39de 4d3d 8615 763d 0ef8 e1bd 7d80 2139
00000370: c58f 953d e830 113e db87 84bd 42c8 3a3d
00000380: 8ea7 d53d 6f53 06bd 9124 15bd 16bd 2d3c
00000390: bd16 34bd ed62 92bd 938c 22be d0a4 a6bd
000003a0: aee7 4d3b 9c23 a23d 8522 c93d 4f54 513d
000003b0: 7fa8 01bd 4fa1 2cbd 6947 3fbd 3604 ba3b
000003c0: b05e c93d c06c d5bd c028 9bbd 76e6 0b3e
000003d0: d7e0 28be dc2b b5bd e66f a5bd 55af 393d
000003e0: 5afe 8ebc 493c 17bd 27de 1c3d deaf d6bc
000003f0: a591 39be d362 53bb d862 9c3c 86bc 8a3d
-0.009784142 -0.054093014 0.037347693 0.11865054 -0.01769224 0.17444564 0.035353534 -0.18736395
-0.005971478 -0.0017042547 0.0990442 0.041162007 0.11152017 -0.041373603 -0.07218292 0.065932944
-0.04586484 -0.015312176 0.020166274 -0.08568604 0.12610377 -0.26225558 -0.059932444 0.032379963
0.012201026 -0.1655827 0.09777539 0.0075395997 0.013387206 -0.026151221 0.08802704 -0.10268063
0.06126915 0.11494528 -0.108674616 0.015068776 0.065903045 -0.055752743 -0.051153664 0.0397862
0.06325942 -0.12794736 -0.15383959 -0.082258716 -0.1272644 0.06790864 -0.05603391 0.0189973
0.03091865 -0.016254049 -0.048007697 -0.0932118 -0.10927686 -0.03416401 -0.039656878 0.004240946
-0.094482176 0.05067176 -0.047724273 0.018892525 -0.08012435 -0.1499722 0.05604514 -0.061342757
0.037686504 0.03924412 -0.08900885 -0.057920627 0.2253279 0.12648948 0.073611304 -0.026211359
-0.10076337 -0.07526155 0.008965446 0.09487876 0.045312997 0.036064677 -0.047008395 0.020689778
0.13656858 -0.009438708 0.10610771 0.07630634 0.05966534 0.09809639 0.14723207 -0.06844352
0.12916249 -0.046276152 -0.012078815 -0.013612253 -0.051494002 -0.13057236 -0.0068552434 -0.0019754998
0.056224205 0.04599075 -0.077371456 0.015792066 0.10201169 -0.10756891 -0.040074304 -0.054537654
0.066326894 0.06002137 0.047640674 -0.014451318 -0.0566778 -0.03265007 -0.04059706 -0.07924195
-0.043254007 -0.08234578 0.0029996296 0.02515612 -0.12529251 0.01598911 0.09731093 0.102940544
0.10794864 -0.0058478145 -0.04935693 0.15097928 0.005203422 -0.13917203 0.07135458 0.17670391
-0.059770126 0.011952336 0.036170933 -0.10504903 -0.029507743 -0.20694315 -0.09898891 -0.039538074
0.017595418 0.10779953 -0.031056935 0.005837097 0.086042404 0.032871127 -0.042224314 0.077872716
0.08409858 0.020542953 0.07837706 -0.03572014 -0.031300083 -0.04886536 -0.025692036 -0.050238438
-0.0662332 0.106494114 -0.19248484 -0.046241764 -0.054736987 0.04144989 0.02183412 0.056413423
-0.040749725 -0.10795991 -0.09480505 0.14889753 -0.051083863 -0.014909734 -0.016647842 -0.08038253
-0.016386107 -0.029451754 -0.0072551575 0.039805405 -0.09268843 -0.010499044 0.086611085 0.07577668
0.07738724 -0.010983769 0.08542868 0.077989236 -0.0240234 0.12413752 -0.064638324 0.014759193
-0.018925512 0.098625734 -0.039355364 0.034474634 -0.026357207 -0.108424015 0.17517723 0.04079894
0.075407535 -0.059225924 -0.050835878 0.10257244 0.055998985 -0.08510662 -0.015814066 0.11051874
0.04278097 -0.023275742 -0.010009393 -0.038534094 -0.069074236 -0.030382616 0.015036502 0.060356166
-0.062050432 -0.12297546 0.024845667 0.03509549 -0.060471006 -0.061246607 0.009312553 0.02018616
0.050260756 0.06007912 -0.11033641 0.00015402022 0.073028125 0.14178813 -0.06471225 0.045601137
0.10432349 -0.032794412 -0.036411826 0.010604164 -0.043966997 -0.07147775 -0.15873937 -0.08136904
0.003141861 0.07916948 0.09821037 0.051105794 -0.03165483 -0.042146023 -0.04669896 0.0056767715
0.09832513 -0.10421133 -0.07576132 0.13662133 -0.1649202 -0.08846256 -0.080779836 0.045333225
-0.017455269 -0.036922727 0.0382978 -0.026206907 -0.18121965 -0.0032254949 0.019090101 0.06774239

actor.4.bias f4 [128]
00000000: 9a30 cdbd d596 1e3d 2a71 1bbe 50f1 1cbe
00000010: 1f06 e43b c1a7 e2bd 359d 743d 27d8 b5bd
00000020: 5b47 a6bc bc56 58be 7960 67be 9f37 1cbe
00000030: 64ca 99bc f38f 013e d9a8 633d 5997 223e
00000040: f42b 1bbd 65d2 e63d 0031 1d3e 9f41 37be
00000050: b90f 613d 3c55 42bc 1ddf 4bbc 51a5 ac3d
00000060: 47d0 90bd 4dfb bc3a 3aae 5ebd 3719 e0bd
00000070: 166f 163e 5eeb 15bc 2a6a c23d bb95 5dbd
00000080: e4c2 e9bd 5fb3 573d 00a3 d63c ff81 abbd
00000090: 7da9 16be f22b 34be dc8e 703c 26fa 00be
000000a0: 54f8 003d 7216 133d 666d 47be 9ca0 e2bd
000000b0: e659 35be fad4 80bd 628a 213d 3a6a 09bd
000000c0: aec6 c93d 2f58 44be ce4e 10bd 9586 41bb
000000d0: 56db bf3d 57a1 66bd 79ba 5a3c a407 013e
000000e0: b04b c13c 71fa d93d b734 363b e43b c2bd
000000f0: e263 02be 16f1 31bd 0ccc 4abd 4337 70bd
00000100: 1f6e 413d 8bee 81bd 12e1 61bd 8498 903b
00000110: 6160 0b3c 7e41 523d 6a47 e43c f5c1 37be
00000120: 9eb5 cdbd f03f 8d3d 7af8 72bd 81f0 7fbd
00000130: c01a c33d ec22 d13b 312d dabd 9140 d2bc
00000140: e08f abbd a7ce 323d 4d49 243d 9ea5 cabb
00000150: a698 3dbd 3a43 17be 0410 05bc 4127 8a3d
00000160: 2eeb fb3c 3bc3 63bd cc41 013e c19b ae39
00000170: 35ad 1abe b256 4ebd 4d12 50be f0df efbd
00000180: 72f8 f13d 03ba 103d 70b7 15bc 9c1a 983d
00000190: 9eec 36be a3af a8bd c6ef dfbd 30c7 99bd
000001a0: ea71 54bc b3f5 6cbd e39e 92bd c142 e83c
000001b0: 5d0d 92bd e2ba 4f3d 8f15 30be bc3a a2bd
000001c0: 7459 1e3e d3f8 1bbe 62e5 e03d 4c13 01be
000001d0: 93dc 31be f5fb 08be 8dfc 41be 7091 09be
000001e0: 025b 08be 2220 53be b9a3 113e 5ae9 9e3b
000001f0: 4fb6 aabc e01a 353e 11aa 23be f26e 8fbd
-0.10019036 0.038718063 -0.15179887 -0.15326428 0.0069587375 -0.11067153 0.059720237 -0.088791184
-0.020297697 -0.21126837 -0.22595395 -0.15255593 -0.018773265 0.12652569 0.055580948 0.15878047
-0.037883714 0.11270598 0.15350723 -0.17896126 0.054946635 -0.011861142 -0.012443331 0.08429969
-0.07070976 0.0014418155 -0.054365374 -0.10942309 0.14690813 -0.009150354 0.094929054 -0.054097872
-0.114141256 0.052661296 0.026200771 -0.08374404 -0.14713092 -0.17594889 0.014682498 -0.12595424
0.031486824 0.035910077 -0.19475326 -0.1106579 -0.17710075 -0.06290622 0.039438613 -0.03354857
0.09852348 -0.19174264 -0.035231404 -0.002952968 0.09368007 -0.05630621 0.013350123 0.12600571
0.02359566 0.10643471 0.0027802417 -0.094840795 -0.12733415 -0.043442808 -0.049511 -0.05864645
0.04722416 -0.063443266 -0.055146284 0.0044127125 0.008506865 0.05133199 0.027866084 -0.17945082
-0.10044406 0.06896961 -0.059318997 -0.06248522 0.095265865 0.006382337 -0.10653151 -0.025665553
-0.08377051 0.04365411 0.040108968 -0.006184294 -0.046288155 -0.14771739 -0.008121494 0.06745768
0.03075179 -0.05560611 0.12622756 0.00033303912 -0.15105136 -0.050375648 -0.20319481 -0.117126346
0.11814965 0.035333645 -0.009137973 0.0742695 -0.178637 -0.08236625 -0.10934405 -0.07508695
-0.012966612 -0.057851505 -0.071592115 0.028352143 -0.07131455 0.050715335 -0.17195724 -0.07921359
0.15463811 -0.15231638 0.10981251 -0.12605017 -0.17369299 -0.13377364 -0.18943997 -0.13434386
-0.13315967 -0.20617726 0.14222611 0.004849595 -0.020838885 0.17686033 -0.15982844 -0.07003583

actor.6.weight f4 [12, 128]
00000000: c714 923d 934e 33bd ac67 813d a887 38bd
00000010: a4b8 85bc a782 b03c 5b1f 2dbc 84aa 763c
00000020: 07e4 d4bb 4578 dc3d 7603 3b3c c1f0 893d
00000030: f279 7c3c e144 c1bd af92 04bd 39da a43b
00000040: 950f 56bc 42e5 15bd 6de8 1abc 2586 c5bc
00000050: 687b c7bc 8842 1b3d 0228 b43b 8ff9 74bb
00000060: bcbe 61bd 0a09 aa3b 90fd 893b c6b2 6c3d
00000070: 4f83 a73c 1d54 a23c 9e23 1abd 797b cfba
00000080: a403 853c e4e5 b9bb d227 a1bc fa86 be3b
00000090: ceb8 09bd 3985 183c d47d 94bd 5ddb bc3a
000000a0: 62b4 f5bc 38c7 b43c f9e2 4ebe 5884 883c
000000b0: 8465 87bd ba7d 81bb b96b b1bc d51f 1a3c
000000c0: 717c efbc b531 ef3d e63e 0e3b 4714 a73a
000000d0: 41d5 4ebc 8015 943a e545 173c da1f 3cbd
000000e0: 8037 19bb 9815 b8bd c427 c7bb 1221 37bd
000000f0: 890c b23c abe3 5c3c 668d d33b 20ad 4abd
00000100: cf8d ad3b 7dd9 c1bc e574 d53c 8a27 273c
00000110: 8421 013d 04f3 f43c ab50 81bc ee07 bd3d
00000120: 58c8 01bc a4a2 a7bc c448 753b 492c 613c
00000130: e0d1 81bc 719e c73c e17b 8a3d d916 a5bc
00000140: f802 2a3d b78c 17bc 34af 7d3b 6d12 69bd
00000150: 3afd 393c 786b 903d 3a7c 743c 1311 99bc
00000160: af5e 233c f83e 29ba aa92 12bd 83ae 06bb
00000170: 41f5 363c 4113 6fbb 263a b73d 9cd9 0a3c
00000180: 2079 47bc 3160 1bbd 124e 3f3d 4ce0 94bd
00000190: 52e8 053d 104e 01bd 1d12 d63b 39ab 31bd
000001a0: 02a1 323c 3e87 d13c 683e 923b 2481 89bc
000001b0: 4d25 e93d 262a ad3b d6c6 9f3b c33c 3e3c
000001c0: acda 1bbd a047 0cbd 3564 17bd d4b1 8fbd
000001d0: 450f ba3d a3ca d53c cc56 863d 075a 023c
000001e0: 57e5 b9bc ef55 493d 1d92 6cbd 06ff 9cbc
000001f0: 8495 ebbc cbe2 09bd 2372 373d b1bc 5e3d
00000200: 81f4 e43c 3f31 2e3c 5a5e be3c bc33 2b3d
00000210: f578 1e3d c29f 0c3d b050 d13b 7c6e 713d
00000220: ac6d 0b3d a383 513d 8acc b13d 949d d03c
00000230: ffab 7e3c c2bb 47bd 3635 af3b f780 c0bd
00000240: 8a3f a33b 0def 06bc 8642 75bd 9305 d6bd
00000250: f58b adbc 5c41 10bd 95a2 dcbb 6b08 3b3c
00000260: 8c2e 243d 93e7 b139 a5a5 003d a1aa 063c
00000270: 4a82 9dbd e404 0bbc a2b5 0dbb f194 013c
00000280: c67b 893a f402 cabb fd98 373d 8b4c c8bc
00000290: e25d 2fbb 9f26 903d 8512 afbd cbf3 e43c
000002a0: 474e 523d 65e2 53bc 723e b23d 5ed5 9b3c
000002b0: 3a81 6c3d cf2f bb3c cbab b3bc 4fac 163c
000002c0: 28db d63c e82b a43d dfb7 59bd 8fb8 04bc
000002d0: cd1b 6a3d f1c8 db3c ff4c 623b 87ef 1fbd
000002e0: 3a45 b1ba 67ee 98bd cc11 463c a2f0 7d3d
000002f0: d20a ac3b 5708 56bc 5c57 9cba de7e b93c
00000300: febd 4fbd e7af c5bc f0d6 7cba 036d 053d
00000310: a5c0 8fbd cb72 74bc 3bc1 13bc 52d2 c33d
00000320: 9c70 a5bc 4732 843c 1a6c 023d 6a54 7d3c
00000330: cba7 3b3c 8554 373d 87c9 20bc a05c 2b3d
00000340: 42cd 8b3c 2d7b 4b3c 0d77 20bd 31c4 743a
00000350: 3f71 603c 924f aa3c 91ab 96bc d048 afbb
00000360: c554 15bc 9918 53bc a8f8 403c 48df b8bb
00000370: 1558 ba3c 27c4 c0bd 8e49 a73c f4b4 313c
00000380: 14c6 6fbc a7e4 693c bc71 4a3d e7aa 17bb
00000390: 36e6 3c3d 087f 953c 26b3 b23c 67b0 323d
000003a0: c3f5 17bc a98b 3dbd 2601 d03c 4de9 e4bc
000003b0: 342a 00bd 983e 92bc 1f29 83bb 4c85 2d3b
000003c0: e012 78bd 0630 1b3c f188 3bbd 62fe 23be
000003d0: babd 86bc aa18 833d ca3b e63d bee7 82bd
000003e0: 785d e33d 70d0 343d 223e 19bd 1827 b73c
000003f0: f58e 653d 19ca 40bd 7d77 003d 066a fabc
0.07132869 -0.043776106 0.06318602 -0.045051247 -0.016323395 0.021546675 -0.010566558 0.0150553025
-0.0064969095 0.10765127 0.011414399 0.06735373 0.015409933 -0.09436966 -0.03236645 0.005030897
-0.0130652385 -0.03659559 -0.009454829 -0.024111817 -0.024350837 0.037905246 0.0054979334 -0.0037380194
-0.05511354 0.005189066 0.004211135 0.05778768 0.020448355 0.019815499 -0.037631623 -0.0015829644
0.016237088 -0.005673157 -0.019672308 0.0058144303 -0.03362351 0.0093091065 -0.07250562 0.0014408637
-0.02999324 0.022067651 -0.2020377 0.016664669 -0.066111594 -0.0039517554 -0.021657811 0.009407003
-0.029234143 0.11679403 0.002170497 0.0012747132 -0.012624086 0.0011297911 0.009232973 -0.045928814
-0.0023379028 -0.08988494 -0.0060777385 -0.044709273 0.021734493 0.013482015 0.006456065 -0.04948151
0.005296446 -0.023663277 0.026056716 0.010202298 0.031526104 0.029901035 -0.015785536 0.09230028
-0.007921301 -0.020463295 0.0037427405 0.013743469 -0.015847147 0.024367543 0.06761909 -0.020152496
0.041506737 -0.009249858 0.0038709166 -0.056902338 0.011351878 0.07051748 0.014922196 -0.0186849
0.009971305 -0.00064562215 -0.0357844 -0.0020550794 0.0111668715 -0.0036479982 0.08946638 0.008474734
-0.012174875 -0.037933532 0.046705313 -0.07269344 0.03269226 -0.031568587 0.006532921 -0.04337618
0.010902645 0.025577184 0.004463006 -0.016785212 0.11384068 0.0052845655 0.004875998 0.011611166
-0.03805034 -0.034247994 -0.0369608 -0.0701634 0.09084944 0.026097601 0.06559524 0.0079560345
-0.022692366 0.04915422 -0.057756532 -0.019164573 -0.028757818 -0.033663552 0.044786584 0.05437917
0.02794862 0.010631858 0.02323835 0.041797385 0.038689572 0.034332044 0.0063877925 0.058943257
0.034040138 0.05115093 0.08681591 0.025465764 0.015543937 -0.048763044 0.0053469194 -0.09399598
0.0049819397 -0.008235705 -0.059877895 -0.10450282 -0.0211849 -0.03521858 -0.0067332485 0.011415581
0.040083453 0.00033932607 0.03140797 0.008219392 -0.07690866 -0.008485053 -0.0021623154 0.007909046
0.0010489158 -0.006164903 0.044823635 -0.024450561 -0.002675884 0.070386164 -0.08548454 0.02794828
0.051344182 -0.012932395 0.08703317 0.01902264 0.057740428 0.022849945 -0.021932503 0.009196355
0.026227549 0.08016187 -0.05315387 -0.008100643 0.05715542 0.026829215 0.0034530757 -0.03904679
-0.001352466 -0.07467347 0.012089204 0.061997063 0.0052503133 -0.013063512 -0.0011927891 0.022643503
-0.0507183 -0.024131728 -0.00096450653 0.032574665 -0.07019166 -0.014919947 -0.009018238 0.095616
-0.020195298 0.016137255 0.031841375 0.01546202 0.011453579 0.04475834 -0.009813673 0.04183638
0.017065648 0.012419504 -0.039176036 0.0009337096 0.013698875 0.020789895 -0.018392356 -0.005349256
-0.009114449 -0.0128842825 0.011778034 -0.0056418516 0.022747079 -0.09412413 0.020420816 0.010846365
-0.014634628 0.014275706 0.04942487 -0.0023142637 0.046117984 0.01824905 0.02181394 0.04362526
-0.009274903 -0.04627577 0.025391173 -0.027943278 -0.031290248 -0.017852113 -0.0040027048 0.0026477156
-0.060564876 0.009471899 -0.045784894 -0.16015008 -0.01644789 0.06401189 0.112418726 -0.063918576
0.11101812 0.044144094 -0.03741277 0.022357509 0.056044538 -0.047067735 0.031363953 -0.030568134

actor.6.bias f4 [12]
00000000: 5fbc 9ebd f30d 72be 20e5 293d 963d ad3c
00000010: e07c 993d 2b44 7bbd c7e6 aa3c e189 4a3b
00000020: 3f35 3b3d 888a 3bbd 1f68 9f3d 62f0 07be
-0.07750773 -0.23638134 0.041478276 0.02114753 0.07494521 -0.061344307 0.020861996 0.0030904936
0.045705076 -0.04578641 0.077835314 -0.13275293

critic.0.weight f4 [128, 48]
00000000: 6d5f a83e 548f 73bd ee6c edbd c9c5 f6bb
00000010: 5df3 353d a860 8abe e90b 4c3e a1c6 4abe
00000020: 37b8 843d 2d85 fdbe 6acb 40bf 77d9 e3be
00000030: ba5e 003e ede8 193b 1d5f 283e 3ac5 3bbd
00000040: 1983 04be 3ad4 afbd 823e 063e 7600 223d
00000050: 55b7 973d a801 01be 13be 7fbd 0cbe 2a3d
00000060: d3f0 c53d 2bed cabc 555f 68bd 2a30 39bc
00000070: cc2a e9bb 4769 6fbc b125 8a3d 7fee 0d3d
00000080: 9337 ccbc 9377 e13c a179 4d3d 1061 5d3c
00000090: cffc ddbc c8c9 80bc cf98 7dbc 9c7c 44bd
000000a0: a51a 49bd 9c08 e5bc ec3b 483c 8843 523d
000000b0: 4029 a13c 29bc 77bd 55c7 1c3d 2953 103c
000000c0: f0c5 ecbd a921 50be 45f5 0dbe 0ac4 aa3d
000000d0: cdc2 423d 7eb2 893c 0a1b 793f cd37 61bf
000000e0: 3233 353d aac5 bf3e 79eb ba3d 574b 0cbe
000000f0: ab53 bc3d c98e 743e 9bff 223c 0fd7 4dbc
00000100: 8b77 123e 6b55 be3a 0000 963e 56c6 e33d
00000110: 280f 0b3e 59b6 273e 95ab e43e 46e6 15bd
00000120: 24a3 8f3d ce1f 95bd 5762 37bd 33e4 8a3d
00000130: ab97 cb3d 07e8 903c 15b0 333d 72a1 a2bd
00000140: 5bec ea3c 3b47 d4bc 4c0a 533d c553 d9bc
00000150: dc6e d7bb cbf9 ad3c ea2e 293c fd11 143e
00000160: bd6b 89bd 65ad aabd bd09 71bd 4319 853d
00000170: dbd0 1abc dfaa 5b3d fd3c 8ebd dafa 803d
00000180: 1f71 efbc a337 8d3e e79e 513d 2cdd e1bd
00000190: 85d8 16be d2c2 4d3e b629 0abf 4f60 a03f
000001a0: 66ca 233e bbec 633e b01b a6bc e9af 7bbe
000001b0: 20b5 a4bd 99f1 6bbe e25e 01be 8b07 76be
000001c0: 2e3b 173e a822 84be 7948 da3d 2b24 513d
000001d0: 7ad9 2c3e af20 35be 8e5a 59be 504e 2c3d
000001e0: e3ca e9bc d550 29bd e8bd 283d 15b0 b8bc
000001f0: b327 4cbc 8bba 71bc e05c c2bb 3466 15b9
00000200: 20f4 a53c 9d2b b6bc 24e4 31bd e877 873c
00000210: 094b 4a3d 1146 053c 0b3f 043d 6e5e a33d
00000220: a20a c13d 7749 133d 1aa5 d1bb a809 83bd
00000230: 4018 033d 1b50 f0bc e057 61bb ec03 b3bd
00000240: aabb d6be e50f a5be 91c7 693c 811a 0cbc
00000250: 0da4 513d 53d0 9ebd 0310 bcbf 322a bebe
00000260: 5432 70bd 7e99 c5bc 6e04 f93e 25ae c73e
00000270: 9641 073e bad4 3d3c d172 92bd 9aa9 45bd
00000280: 4885 cc3a 66d3 68be 04f1 c03d c17d 993d
00000290: d158 9bbe 9be2 b73c 0442 49be c3f2 d3bd
000002a0: 605e 9d3d 5a40 a8bd 2f40 8dbd df02 273d
000002b0: ab34 713c d5f8 11bd 7bf1 9fbc 4773 4c3d
000002c0: d541 f1ba 90a0 f9bc a468 fe3c e78e 013c
000002d0: c26f b6bd 12dd 653d 9575 a03d ceaa e83c
000002e0: 04b7 5abd 66c3 40bd c4db 803d fb73 db3a
000002f0: 05af d33d 9894 d8bd 06f1 fdbd 78c7 273d
00000300: 03bc 54be 3477 e7be 58cb 083e 61af 18be
00000310: 6e40 9bbc c490 423b 174b 003f 9982 16bf
00000320: 0c9c 25bd c2a0 4b3d 692d a3be ca3d c3be
00000330: b734 91bc 91c3 263e 9ddb ac3d ec64 8a3d
00000340: 4bd0 f33d 39cd 87bd cb8c abbc a4ba 5ebe
00000350: 1ac8 1cbd 2a24 51bd 5972 64bd 4361 3fbe
00000360: 324a 95bd d0af 8f3d fcab 76bd 657c 05bd
00000370: e25d 293d 5210 473d d4ad acbd 1bdf 54bd
00000380: 6ea3 31bd 0c06 233c 2d7f 01bd 37ff 163d
00000390: b643 f33d 8dd5 1ebd 9390 9bbd 96fb fb3c
000003a0: ff05 a13a 371a e73c cd46 98bd 9366 81bd
000003b0: 119e 27bc 5977 073d 03ab 17be 4f17 d3bd
000003c0: 5d5a 8dbe 147a 24be b976 4fbc ac61 bd3c
000003d0: da92 07bd 7d4b c33d 793b c6be daad e6be
000003e0: 0451 ba3d c048 8b3e 18d8 48bd b7e8 ba3d
000003f0: b34f 05be 708a 443d 8b81 043d 3e71 ed3d
0.32885304 -0.05946286 -0.11593042 -0.007530902 0.044421542 -0.27026868 0.19926418 -0.19802333
0.06480449 -0.49515668 -0.75310385 -0.4450185 0.12536135 0.0023484782 0.16442533 -0.045842387
-0.12940635 -0.08585401 0.13109782 0.03955122 0.07408015 -0.12598288 -0.06243713 0.04168515
0.09665074 -0.024771294 -0.05673154 -0.011302987 -0.0071156975 -0.014612502 0.0674547 0.034651276
-0.024928844 0.027522838 0.050164822 0.013511911 -0.027098088 -0.015721217 -0.015478327 -0.0479704
-0.049097676 -0.027958207 0.012221318 0.051333934 0.01967299 -0.060482178 0.038276035 0.008808889
-0.11561191 -0.2032534 -0.13863094 0.08338173 0.047549058 0.016808745 0.97306883 -0.8797577
0.044238277 0.37455493 0.09126944 -0.13700615 0.09195646 0.23882593 0.009948636 -0.012563481
0.14303415 0.0014521306 0.29296875 0.11121814 0.1358 0.16378154 0.44662157 -0.03659656
0.070135385 -0.07281457 -0.04477152 0.06781807 0.09941038 0.017688764 0.043869097 -0.079409495
0.028677156 -0.025912872 0.05152349 -0.026529202 -0.0065744948 0.021237275 0.010326127 0.14459987
-0.067100026 -0.08333854 -0.058847178 0.06498959 -0.009449209 0.053629752 -0.06945226 0.06297846
-0.029228745 0.2758151 0.05117693 -0.11028513 -0.14731033 0.2009385 -0.53969896 1.2529391
0.15995178 0.22258274 -0.020276874 -0.24578823 -0.08042359 -0.23041381 -0.12633851 -0.24026315
0.14768669 -0.2580769 0.10658354 0.051059883 0.16879836 -0.17688249 -0.2122595 0.042066872
-0.028539127 -0.041336853 0.041196734 -0.0225449 -0.012460637 -0.014753948 -0.0059314817 -0.00014247821
0.02025801 -0.022237593 -0.043430462 0.016536668 0.049387965 0.008134381 0.032286685 0.079769954
0.09425856 0.035958733 -0.0063978555 -0.06398326 0.03200555 -0.029335072 -0.0034384653 -0.087409824
-0.4194005 -0.3223869 0.014268772 -0.008551241 0.05118184 -0.077545784 -1.4692386 -0.37141567
-0.058641747 -0.024121042 0.48636192 0.3900005 0.13208613 0.0115863625 -0.07150806 -0.048257448
0.0015603686 -0.22736892 0.0942097 0.07494689 -0.303412 0.022446921 -0.19654089 -0.103490375
0.07684016 -0.08215399 -0.06897008 0.040774222 0.01472203 -0.035637695 -0.019524327 0.049914625
-0.001840646 -0.03047207 0.031055756 0.007907606 -0.08908035 0.056119032 0.07834927 0.028401759
-0.053397194 -0.047061346 0.06291917 0.0016742939 0.10336117 -0.10575217 -0.12399487 0.040961713
-0.20774846 -0.45208132 0.1335882 -0.14910652 -0.01895162 0.0029688338 0.5011458 -0.58793026
-0.04043202 0.049713857 -0.31870583 -0.3813308 -0.017725332 0.1628554 0.084403254 0.067575306
0.11904963 -0.0663094 -0.020941159 -0.21750885 -0.03827677 -0.05105988 -0.055773113 -0.18689446
-0.07289542 0.070159554 -0.06022261 -0.032589335 0.0413493 0.04859955 -0.084315926 -0.051970582
-0.04336875 0.009950172 -0.031615425 0.036864486 0.11878149 -0.038777877 -0.07595935 0.030759614
0.0012285112 0.028210742 -0.07435379 -0.063183926 -0.010230557 0.033072803 -0.1481133 -0.1030718
-0.27608004 -0.16062194 -0.012662583 0.023117863 -0.033099033 0.095358826 -0.3871725 -0.45054513
0.09097484 0.2720394 -0.049034208 0.09126418 -0.13018684 0.047983587 0.032350104 0.11593865

critic.0.bias f4 [128]
00000000: 178b 97bc 9727 303e 19d0 21bd a98c 00be
00000010: 5e65 4b3d 0449 8c3d a38f 6abc 8a50 093e
00000020: 8759 1d3e 8907 50bc 0885 953d efcd 99be
00000030: a9f4 02be eb4f 18be dc81 7fbd 54d5 1abe
00000040: 5ee7 03be 5ffb 663d cb4f 04be 59de 01bd
00000050: bd64 d4bd 2fd3 01be c80f 7ebd 9c0d 20bd
00000060: 6536 e1bd 141a 5b3d 349f 15be 36c3 9cbd
00000070: 13ca 173e 7d7e 18bc 9ce7 0e3d de98 be3d
00000080: 8bbd 77bb 0873 0ebe 561b 37be 8fc1 e6bd
00000090: 4824 32be f68a 963c 5a06 203e 197b bd3b
000000a0: af75 0ebe c388 54bd 7b44 58be 0834 613b
000000b0: 0d65 88be 4485 21be 9e7a eebc c071 193d
000000c0: 3187 32be 4350 113c 5187 beba 49ed f9bb
000000d0: 8926 7b3d 4af6 1dbb e6b5 c7bd ec7a 2d3e
000000e0: c96a f4bc 1cf8 36be 3409 e0bd ff88 033d
000000f0: 8441 5abd feeb 32bd b393 943d 9676 83bd
00000100: 6d9d dd3d c2cb 4b3e aeb4 293d 6ce7 1e3e
00000110: 1324 633d 5cf5 e13d 2ec0 8cbd 6767 f0bd
00000120: 3b25 0bbe 9c73 6dbc 9fb2 b73b 4432 4fbd
00000130: c28c 2dbb 4d7f 433e 9e4f 403d af96 04be
00000140: 882f 053e 15da 06be bc6c e53c ba10 d5bc
00000150: 1314 2f3e 9efd 703b 982a e1bd 8c62 0c3e
00000160: 52e8 4b3d be07 c9bd 9cc7 deba 4bc3 f1bd
00000170: 5d93 2fbe eb09 4ebd 37cb 0ebe c734 cdbd
00000180: 3016 e03d fcbe 2d3d 8c08 083e 77c6 003d
00000190: 453d 8dbd 744e 713d cf7b 073e 2e11 c2bd
000001a0: 1675 9b3d 3453 1dbd 4b07 243d 86cb 3bbd
000001b0: 105a 863d 5ef8 423e 2d66 383d 6009 e5bd
000001c0: 321d 07be 6ae3 82bd 6f24 75bd 3095 393d
000001d0: 2619 ebbd 81b9 04be 480b d7bd a253 6cbe
000001e0: 6b98 b4ba 175f 343e 1f26 92bc 8a8c 113d
000001f0: 5022 993d 1622 f73c be39 28be 8f97 c23c
-0.01849894 0.17202602 -0.039505098 -0.12553658 0.04965722 0.06849864 -0.014316472 0.1340963
0.15366183 -0.012697109 0.07300764 -0.30039927 -0.12788643 -0.14874236 -0.062379703 -0.1512044
-0.12881228 0.05639207 -0.12921064 -0.031706188 -0.10370777 -0.12678216 -0.06202677 -0.03907548
-0.10996703 0.053491667 -0.14611512 -0.07654421 0.14823179 -0.009307501 0.03488885 0.09306501
-0.0037802185 -0.13911068 -0.17881522 -0.11267387 -0.17396653 0.018376809 0.15627423 0.0057824966
-0.1391208 -0.05188824 -0.21119873 0.0034363288 -0.26639596 -0.15773493 -0.029111203 0.037461996
-0.17434384 0.008869234 -0.0014536177 -0.0076271635 0.061316047 -0.0024103099 -0.09751491 0.16941422
-0.029836075 -0.17868084 -0.10939255 0.03211307 -0.053285137 -0.04368209 0.07254734 -0.06419103
0.10821042 0.19901946 0.041432075 0.15517968 0.055454325 0.11033127 -0.06872593 -0.117384724
-0.13588421 -0.014492895 0.00560601 -0.050585046 -0.0026481603 0.1909153 0.04695093 -0.12948106
0.13006413 -0.13169129 0.02800595 -0.026008952 0.17097501 0.0036772261 -0.10994452 0.13709468
0.049782105 -0.0981593 -0.0016996744 -0.11804827 -0.17146058 -0.050302427 -0.13944708 -0.10019832
0.10941732 0.042418465 0.1328451 0.03143927 -0.06896452 0.05891271 0.13230823 -0.09475933
0.07590692 -0.038409427 0.040046018 -0.045848392 0.06560147 0.19040057 0.045019317 -0.11183429
-0.13194731 -0.06391032 -0.0598492 0.045308292 -0.11479406 -0.12961389 -0.105001986 -0.23078778
-0.0013778334 0.17614399 -0.017840443 0.03553442 0.07477248 0.03016762 -0.16428277 0.02375391
