logs/rsl_rl/anymal_c_flat_direct/2025-04-24_12-25-01/model_200.pt (torch, 983322 bytes, 48 tensors)

std f4 [12]
0.16392858 0.16192923 0.16026069 0.15582944 0.20312083 0.20025726 0.20667267 0.19980624
0.13784361 0.15784864 0.1283703 0.14303067
00000000: e5dc 273e c7d0 253e 611b 243e c191 1f3e
00000010: e8fe 4f3e 3d10 4d3e 00a2 533e 029a 4c3e
00000020: e026 0d3e 13a3 213e 8173 033e a276 123e

actor.0.weight f4 [128, 48]
0.21454832 -0.014137559 -0.14073268 -0.12318864 0.32069752 -0.3597964 0.1901998 0.07451683
0.11018411 -0.04424036 0.39497033 0.25023794 0.0067465417 -0.27457565 -0.29150617 -0.5399691
-0.083965085 0.22035232 -0.010297013 -0.16317433 0.033704795 0.31123132 0.43524912 -0.07646784
-0.06039937 0.03181098 0.024852378 -0.05357391 0.06411499 0.16952497 -0.05513825 -0.004639397
0.059257094 0.06110261 -0.07488702 -0.0101948455 0.026254764 -0.21923153 0.20857395 -0.12175306
0.004915406 -0.15497343 0.1445997 -0.083895415 -0.1682975 -0.17743155 0.13841449 0.09730335
-0.51026994 -0.43059954 0.10145583 -0.12960881 -0.22097382 0.06520794 -0.10035555 0.35926172
0.16057245 -0.14433406 0.49706054 -0.29584363 0.047418807 -0.022054104 0.08261559 -0.13593347
-0.0859293 -0.09789779 -0.32198468 0.06900408 0.039294757 0.087638475 0.027942691 0.24476318
0.045784123 0.009862404 -0.027467383 -0.04395371 -0.027511341 -0.021411266 -0.07444915 -0.086466566
-0.017823618 -0.017320149 -0.0064718495 0.015048916 -0.03699164 0.09256436 -0.001367667 -0.03793506
-0.004006404 -0.006791023 -0.007962928 -0.13428329 -0.1914853 -0.16895825 0.039388847 -0.1709316
-0.13014743 -0.056554373 0.26133227 0.08437194 0.13278584 -0.25575042 -0.3648691 -0.9176264
0.15623033 0.37097937 0.0056678834 0.34137315 0.31567487 0.078834824 0.0984031 0.31680596
-0.06603158 -0.30429447 0.21806692 0.37894377 0.25042585 -0.0067545287 -0.054799825 0.05961888
-0.07411248 0.06338429 0.0064048674 0.0049085976 -0.08140923 -0.08099038 0.005158968 0.06689945
-0.001670482 0.04526564 0.03164444 -0.0003655314 0.17112684 0.14900944 0.14655095 -0.08905014
0.08040703 -0.17886886 -0.05147574 -0.13540329 -0.20419878 -0.034556024 -0.12716052 -0.15921049
-0.19134076 0.2882561 0.46687025 0.2261837 -0.1627751 0.099871404 0.12580587 0.46938616
0.0064657503 -0.12805441 -0.11835027 0.3842672 -0.2800868 0.32944277 0.18162109 0.11874244
0.12249398 -0.23470527 0.1920928 -0.5582146 0.09336551 0.058053672 0.6931788 -0.23995715
0.13406831 -0.025033943 0.13681479 -0.10668525 0.03378196 -0.057124574 0.09223676 0.039528947
-0.029900867 -0.025247028 0.09879245 0.03103379 0.14494255 -0.12087596 -0.024964971 -0.20113261
-0.063483186 -0.015494344 0.29406863 -0.17520152 -0.05797286 -0.15284535 -0.36618006 -0.02836216
0.2861821 -0.03414384 -0.20171678 -0.22045165 0.16705886 0.22130057 0.5192647 0.4859961
0.081781484 0.20182903 -0.3005884 0.005040918 -0.21255347 -0.117249005 -0.18321413 -0.39963558
-0.17191331 -0.1482524 0.265083 -0.010217607 0.28453213 -0.2898362 0.016711172 -0.15188336
0.061801054 -0.09135333 0.042687606 -0.16414377 0.051471308 0.049638726 -0.09579452 0.052997645
0.070880175 -0.032531556 -0.05955548 0.004847181 0.13352615 0.2141587 -0.093245186 -0.17118008
-0.10334128 0.056012943 0.028044175 0.07957556 -0.073677965 -0.19710542 0.051074028 0.3996936
-0.17423522 0.09455607 -0.38397953 0.20255712 -0.0616605 0.27976334 -0.016030276 -0.063752756
-0.02863876 0.031484198 -0.38476017 0.016268468 0.19364466 0.5747921 -0.06229022 0.08715741
00000000: 8eb2 5b3e 38a1 67bc 3a1c 10be 534a fcbd
00000010: 7732 a43e 3c37 b8be bdc3 423e 489c 983d
00000020: 35a8 e13d 6135 35bd 8d39 ca3e 301f 803e
00000030: 1812 dd3b 2e95 8cbe 4c40 95be 6a3b 0abf
00000040: e3f5 abbd 0aa4 613e ceb4 28bc 2c17 27be
00000050: 0a0e 0a3d b659 9f3e f9d8 de3e 2c9b 9cbd
00000060: 5465 77bd 3b4c 023d 3797 cb3c 5170 5bbd
00000070: b84e 833d f497 2d3e a5d8 61bd 1506 98bb
00000080: 91b7 723d bb46 7a3d 5e5e 99bd 4808 27bc
00000090: 3b14 d73c 3b7e 60be 6994 553e ab59 f9bd
000000a0: 6a11 a13b 5bb1 1ebe f211 143e 5cd1 abbd
000000b0: 2e56 2cbe 9eb0 35be 87bc 0d3e fb46 c73d
000000c0: 0da1 02bf 8b77 dcbe 13c8 cf3d 2cb8 04be
000000d0: f646 62be be8b 853d 3687 cdbd 27f1 b73e
000000e0: 1b6d 243e 4fcc 13be b87e fe3e d178 97be
000000f0: 393a 423d cfaa b4bc 5d32 a93d 2532 0bbe
00000100: b3fb afbd a37e c8bd 2ddb a4be 0352 8d3d
00000110: 8af3 203d cd7b b33d 12e8 e43c 33a3 7a3e
00000120: 2288 3b3d ec95 213c 4703 e1bc ce08 34bd
00000130: 775f e1bc ae66 afbc cc78 98bd 6215 b1bd
00000140: d602 92bc fce2 8dbc cf11 d4bb bb8f 763c
00000150: 8c84 17bd 6292 bd3d 4a43 b3ba cb61 1bbd
00000160: 2748 83bb 3b87 debb f176 02bc 8f81 09be
00000170: b914 44be 6403 2dbe 3356 213d b108 2fbe
00000180: 5e45 05be 8fa5 67bd 58cd 853e 32cb ac3d
00000190: 03f9 073e b8f1 82be 1fd0 babe 90e9 6abf
000001a0: d8fa 1f3e 02f1 bd3e a7b9 b93b 76c8 ae3e
000001b0: 23a0 a13e 2774 a13d 9187 c93d 6434 a23e
000001c0: 913b 87bd 7ccc 9bbe ef4c 5f3e eb04 c23e
000001d0: d137 803e 1855 ddbb c875 60bd ed32 743d
000001e0: 49c8 97bd 9fcf 813d ecdf d13b 4dd8 a03b
000001f0: e2b9 a6bd 49de a5bd 8f0c a93b 9402 893d
00000200: 13f4 daba 7768 393d 9a9d 013d cba4 bfb9
00000210: e03b 2f3e ee95 183e 7411 163e eb5f b6bd
00000220: 71ac a43d 6629 37be 3ad8 52bd 29a7 0abe
00000230: 7c19 51be 9e8a 0dbd 5e36 02be 1308 23be
00000240: d5ee 43be 4e96 933e 9e09 ef3e b39c 673e
00000250: 84ae 26be 6189 cc3d 41d3 003e 6253 f03e
00000260: a5de d33b b220 03be a061 f2bd acbe c43e
00000270: 8967 8fbe b9ac a83e e1fa 393e 3d2f f33d
00000280: 20de fa3d 9456 70be fab3 443e 27e7 0ebf
00000290: 6b36 bf3d b0c9 6d3d 2a74 313f 54b7 75be
000002a0: 3449 093e fc13 cdbc 2d19 0c3e cc7d dabd
000002b0: f45e 0a3d 75fb 69bd a0e6 bc3d 1be9 213d
000002c0: aaf2 f4bc dbd2 cebc b253 ca3d 933a fe3c
000002d0: d26b 143e d18d f7bd 5783 ccbc b5f5 4dbe
000002e0: 7903 82bd fddb 7dbc 2a90 963e 0768 33be
000002f0: f374 6dbd 7e83 1cbe f47b bbbe c357 e8bc
00000300: 7686 923e 69da 0bbd d88e 4ebe 14be 61be
00000310: 7a11 2b3e 9e9c 623e 88ee 043f 7bd4 f83e
00000320: 0d7d a73d 45ac 4e3e b9e6 99be 492e a53b
00000330: 9ea7 59be 3f20 f0bd 7c9c 3bbe 099d ccbe
00000340: 0b0a 30be 7acf 17be f5b8 873e c067 27bc
00000350: 32ae 913e 6965 94be dee5 883c 5087 1bbe
00000360: 1a23 7d3d 7417 bbbd 33d9 2e3d 4e15 28be
00000370: 94d3 523d fa51 4b3d eb2f c4bd 0f14 593d
00000380: a029 913d cf3f 05bd 72f0 73bd 1ad5 9e3b
00000390: 14bb 083e 6b4c 5b3e 55f7 bebd d549 2fbe
000003a0: 98a4 d3bd d46d 653d e6bc e53c 83f8 a23d
000003b0: 79e4 96bd 01d6 49be 0033 513d a4a4 cc3e
000003c0: b86a 32be 9da6 c13d f798 c4be 226b 4f3e
000003d0: b88f 7cbd 243d 8f3e ed51 83bc ce90 82bd
000003e0: d59b eabc 93f5 003d 49ff c4be 7345 853c
000003f0: c94a 463e 9325 133f 0824 7fbd 967f b23d

actor.0.bias f4 [128]
-0.19445857 -0.09510801 0.07665542 0.0090133175 0.1598121 0.07244766 -0.06913081 0.049577687
0.012100628 0.029055052 -0.043087713 0.0115003325 -0.059984762 -0.07110174 -0.01455431 -0.026204327
0.060903378 -0.10683788 -0.021009637 -0.026468871 -0.022041192 0.0384343 -0.07167085 -0.24554431
-0.086753316 -0.046927176 0.057815704 0.025611667 -0.12674673 0.006948133 -0.000883442 -0.002480118
0.18324918 0.11443496 -0.019635325 0.03822495 0.061199106 -0.07257062 -0.11145531 -0.08973537
0.04309349 -0.032486413 0.04508271 0.07405281 -0.03517341 0.043146323 -0.061424408 0.081441514
-0.17472918 0.08103889 0.0023646639 -0.060298584 0.0876845 0.06017709 -0.1191286 -0.022975737
0.028804006 -0.18753245 0.027688945 -0.010891768 -0.050191537 0.06679047 -0.2294513 0.10918663
-0.22543165 -0.14138252 -0.090815045 -0.22726291 -0.111643955 -0.0054782573 -0.042482216 -0.059201393
-0.0040843133 -0.027670255 -0.0038103436 0.01985092 0.116471834 -0.10401561 -0.110959545 -0.049016003
-0.03716471 -0.010041932 0.0824841 -0.06354266 -0.14607595 -0.15145017 0.05877015 -0.037258074
0.0287767 0.13569959 -0.057315145 -0.06869289 -0.07325308 -0.006279877 -0.03451985 0.064226806
-0.18175682 -0.10922599 -0.1538582 -0.053273827 -0.0023766418 -0.023202714 -0.06890747 0.17591919
0.05563483 -0.06061746 -0.08425272 0.07623521 0.12272596 -0.11961036 0.05240082 -0.08135795
0.14039288 -0.12915786 -0.13659465 -0.007632617 -0.11316783 -0.16745673 0.0030461529 -0.057997975
0.16857992 0.016909769 -0.055215 -0.00796459 0.0050622127 -0.08003996 -0.0010127743 0.026086405
00000000: 2620 47be fdc7 c2bd 84fd 9c3d 98ac 133c
00000010: c8a5 233e 705f 943d 7494 8dbd f911 4b3d
00000020: b641 463c dc04 ee3c be7c 30bd e46b 3c3c
00000030: 95b2 75bd ca9d 91bd 3375 6ebc 75aa d6bc
00000040: d275 793d d2cd dabd 671c acbc 3fd5 d8bc
00000050: bb8f b4bc 496d 1d3d 2bc8 92bd f86f 7bbe
00000060: b9ab b1bd b636 40bd 29d0 6c3d 8fcf d13c
00000070: e5c9 01be 2aad e33b ca96 67ba 7a89 22bb
00000080: aca5 3b3e e05c ea3d 43da a0bc c491 1c3d
00000090: eaab 7a3d e89f 94bd ae42 e4bd 2dc7 b7bd
000000a0: cd82 303d 7910 05bd a6a8 383d 00a9 973d
000000b0: fe11 10bd 33ba 303d 2998 7bbd cfca a63d
000000c0: 35ec 32be b8f7 a53d 7af8 1a3b a6fb 76bd
000000d0: ee93 b33d 417c 763d b2f9 f3bd 9d37 bcbc
000000e0: 61f6 eb3c 8208 40be edd3 e23c 6373 32bc
000000f0: a495 4dbd 71c9 883d 48f5 6abe 3d9d df3d
00000100: 8ed7 66be 94c6 10be 3dfd b9bd 9cb7 68be
00000110: 96a5 e4bd f482 b3bb d501 2ebd 297d 72bd
00000120: b4d5 85bb bbac e2bc f5b6 79bb 669e a23c
00000130: c988 ee3d 2306 d5bd c23e e3bd 01c5 48bd
00000140: 063a 18bd ea86 24bc 6ced a83d a722 82bd
00000150: ef94 15be c115 1bbe f8b8 703d ec9b 18bd
00000160: 1dbd eb3c d5f4 0a3e 49c3 6abd dcae 8cbd
00000170: b605 96bd 6dc7 cdbb b064 0dbd 5889 833d
00000180: 761e 3abe e0b1 dfbd 018d 1dbe a835 5abd
00000190: 6fc1 1bbb 9e13 bebc 5c1f 8dbd 2924 343e
000001a0: 59e1 633d 044a 78bd b18c acbd 3521 9c3d
000001b0: c057 fb3d 47f6 f4bd 3ea2 563d ff9e a6bd
000001c0: 27c3 0f3e f541 04be 78df 0bbe 081b fabb
000001d0: 89c4 e7bd c779 2bbe f7a1 473b 498f 6dbd
000001e0: 37a0 2c3e 5b86 8a3c 2029 62bd e97d 02bc
000001f0: ebe0 a53b feeb a3bd 11bf 84ba 28b3 d53c

actor.2.weight f4 [128, 128]
0.10567096 0.095615424 0.06497165 -0.08109092 0.07492183 -0.017841576 -0.017703192 0.06303676
0.06869737 -0.16187054 0.21949767 0.0841532 -0.10001237 -0.036256023 0.102565646 0.0769156
-0.034323547 0.06987525 -0.011994571 -0.02727936 -0.08259832 0.05897196 -0.13327353 0.18327212
0.021815743 0.06835554 0.050286677 0.039296024 -0.087940685 0.00026774372 -0.043814063 0.088447705
-0.1005138 0.011330602 0.029212298 -0.07670997 0.032148503 0.0783591 -1.4501691e-05 0.05064245
0.001383919 -0.025389278 0.123594075 0.07424863 0.08032856 -0.1677017 -0.12100839 -0.0605257
-0.010248065 0.002428511 0.015100668 0.017448427 0.0015810237 -0.08847547 -0.0031908893 -0.08799589
-0.100860015 0.08340209 0.0034432022 0.05139142 -0.17670286 -0.10230056 0.123288736 -0.077352844
0.09516377 0.1577145 -0.08835937 0.050858073 0.07379606 0.06928106 -0.039100938 -0.051845554
0.04101073 -0.1277504 0.06595986 0.08078455 -0.002096782 -0.07404599 -0.119705334 0.060438357
-0.1543112 0.10337138 -0.052130673 0.1511257 0.022947835 -0.101558916 0.03879621 0.086972274
0.07394485 0.03125646 -0.04670521 -0.07034085 0.071083575 -0.0049892715 0.038578793 0.17665325
-0.034463286 -0.04569406 0.1158404 -0.054862015 0.038759593 0.07302402 -0.07743638 0.0071749715
0.011951607 -0.039573267 0.04808171 0.054132383 -0.021181038 0.17963812 0.07315183 0.122724004
0.0007826129 0.036246024 -0.20195483 -0.04259663 0.19897464 -0.046924323 -0.005399059 0.1675368
0.042866435 -0.09624113 0.14676756 -0.26044592 0.14282592 -0.06365718 -0.02582614 0.025269834
0.15212293 0.017974798 -0.02041317 0.007533059 0.116837844 0.084152736 0.01653585 0.10349402
-0.14223231 0.059282783 -0.07110521 -0.16157767 0.04453287 -0.076002315 -0.103589036 0.028062155
0.064749084 -0.1084868 -0.06252445 0.10978602 -0.07988747 -0.22472125 0.11877477 -0.08373958
0.04116987 -0.100768656 0.0577298 -0.106465265 -0.009766835 -0.14761908 -0.020478701 -0.0108822165
0.19787762 0.01751695 -0.11045594 -0.2548397 0.02606117 0.068445325 -0.07720151 -0.0053738444
0.024416491 -0.11304674 0.101262085 0.08071643 0.04042558 -0.17306705 -0.09280359 0.037308346
-0.122965746 -0.028878776 0.07916764 0.011131954 -0.09415156 0.0045638564 0.098952614 -0.0420447
0.08729121 -0.05606641 -0.1459594 0.02892206 0.0019189165 0.05324434 -0.008891992 0.05486869
0.07991775 -0.08161352 -0.059518658 -0.08049953 -0.023247264 -0.036606267 0.037728988 -0.014935713
-0.08086416 0.11668835 -0.10274614 -0.09392994 -0.10747036 0.057116367 0.10192976 -0.0851039
0.0029292214 -0.030205095 0.12921402 -0.13671862 -0.091862746 0.049125366 -0.027738865 0.10130801
-0.09029306 0.121271536 0.08505733 0.14098954 0.048438314 -0.11988999 -0.01719022 0.04991703
-0.01757377 -0.1353529 0.123161525 -0.02128227 0.092634894 -0.075439505 -0.06628501 0.097988665
-0.09726314 -0.0585913 -0.12771118 -0.10816442 -0.007653163 -0.10707885 0.016368821 0.1252684
0.06828988 -0.045809913 -0.028920015 0.040151976 -0.12479782 -0.0009774109 -0.00039133523 0.0111827655
0.029557673 -0.12123241 -0.033030525 -0.14551291 -0.091365546 -0.10923489 -0.097038366 0.032469552
00000000: 046a d83d 05d2 c33d db0f 853d ff12 a6bd
00000010: 9e70 993d 7f28 92bc 4906 91bc 6b19 813d
00000020: 35b1 8c3d 64c1 25be ffc3 603e 8358 ac3d
00000030: 49d3 ccbd 3281 14bd f00d d23d ed85 9d3d
00000040: d996 0cbd c11a 8f3d e184 44bc f778 dfbc
00000050: 4f29 a9bd 958c 713d db78 08be b0ab 3b3e
00000060: eeb6 b23c fdfd 8b3d 67f9 4d3d def4 203d
00000070: 3f1a b4bd f45f 8c39 6076 33bd 1224 b53d
00000080: 2eda cdbd fda3 393c a14e ef3c 1e1a 9dbd
00000090: 26ae 033d bc7a a03d 4a4c 73b7 756e 4f3d
000000a0: 9e64 b53a 2dfd cfbc e41e fd3d aa0f 983d
000000b0: 4d83 a43d ffb9 2bbe 3fd3 f7bd cce9 77bd
000000c0: 80e7 27bc a727 1f3b cb68 773c 01f0 8e3c
000000d0: 5a3a cf3a a132 b5bd 3d1e 51bb 3037 b4bd
000000e0: b28f cebd b7ce aa3d 59a7 613b cf7f 523d
000000f0: 98f1 34be f582 d1bd ce7e fc3d 2b6b 9ebd
00000100: 39e5 c23d e97f 213e c2f5 b4bd 8e50 503d
00000110: 6422 973d 3ae3 8d3d 4e28 20bd 015c 54bd
00000120: defa 273d 00d1 02be f715 873d 5f72 a53d
00000130: 2a6a 09bb 6da5 97bd 1228 f5bd 368e 773d
00000140: c103 1ebe 60b4 d33d f986 55bd b2c0 1a3e
00000150: 19fd bb3c 1ffe cfbd c6e8 1e3d 851e b23d
00000160: 6670 973d c606 003d f64d 3fbd dd0e 90bd
00000170: 4494 913d 0b7d a3bb cc04 1e3d 97e4 343e
00000180: 6029 0dbd b229 3bbd bb3d ed3d feb6 60bd
00000190: 61c2 1e3d 9e8d 953d f796 9ebd 061c eb3b
000001a0: acd0 433c 9417 22bd 54f1 443d ebb9 5d3d
000001b0: db83 adbc 0ef3 373e a0d0 953d b956 fb3d
000001c0: 4328 4d3a b676 143d 3fcd 4ebe ce79 2ebd
000001d0: 02c0 4b3e b833 40bd 97ea b0bb c48e 2b3e
000001e0: b794 2f3d 121a c5bd 3c4a 163e 2b59 85be
000001f0: f540 123e b25e 82bd 5791 d3bc af02 cf3c
00000200: 1dc6 1b3e e23f 933c 8539 a7bc e1d7 f63b
00000210: ae48 ef3d 4558 ac3d 3176 873c acf4 d33d
00000220: 59a5 11be 81d2 723d 9c9f 91bd 9e74 25be
00000230: 1968 363d 1aa7 9bbd 7d26 d4bd 9be2 e53c
00000240: 2b9b 843d 542e debd d20c 80bd 7ed7 e03d
00000250: 0b9c a3bd 541d 66be 3040 f33d a87f abbd
00000260: bda1 283d cc5f cebd 1576 6c3d 760a dabd
00000270: 1305 20bc 7529 17be f3c2 a7bc 534b 32bc
00000280: 6ea0 4a3e b57f 8f3c b936 e2bd 597a 82be
00000290: 3c7e d53c 102d 8c3d d31b 9ebd 1317 b0bb
000002a0: 1805 c83c 0d85 e7bd 7f62 cf3d a84e a53d
000002b0: 4b95 253d 7d38 31be cf0f bebd a3d0 183d
000002c0: 77d5 fbbd 2f93 ecbc a522 a23d cd62 363c
000002d0: 88d2 c0bd 678c 953b aba7 ca3d 1037 2cbd
000002e0: bcc5 b23d e4a5 65bd 6276 15be f5ed ec3c
000002f0: 2784 fb3a bd16 5a3d b8af 11bc febd 603d
00000300: ebab a33d fd24 a7bd d6c9 73bd f0dc a4bd
00000310: 0c71 bebc 74f0 15bd b689 1a3d ecb4 74bc
00000320: 1c9c a5bd 4dfa ee3d 916c d2bd 575e c0bd
00000330: 6c19 dcbd daf2 693d 8dc0 d03d f44a aebd
00000340: 2ef8 3f3b ad70 f7bc ae50 043e f7ff 0bbe
00000350: 8922 bcbd ae37 493d 9e3c e3bc 937a cf3d
00000360: 91eb b8bd 365d f83d 8a32 ae3d 905f 103e
00000370: 4167 463d e288 f5bd 81d2 8cbc cd75 4c3d
00000380: def6 8fbc f399 0abe 1c3c fc3d 2858 aebc
00000390: 5db7 bd3d 0780 9abd 6fc0 87bd 48ae c83d
000003a0: e631 c7bd 6efd 6fbd b8c6 02be 4f85 ddbd
000003b0: 62c7 fabb 284c dbbd e817 863c 5c46 003e
000003c0: 91db 8b3d 2da3 3bbd abe9 ecbc 6676 243d
000003d0: 0096 ffbd 781c 80ba 202c cdb9 eb37 373c
000003e0: ef22 f23c b348 f8bd 044b 07bd 5601 15be
000003f0: dc1d bbbd 8bb6 dfbd 0dbc c6bd cbfe 043d

actor.2.bias f4 [128]
-0.15588833 0.01125516 -0.14804722 -0.10736637 0.0238448 -0.0865709 0.019043533 -0.09737805
-0.020040689 0.040151007 -0.15253708 -0.092752725 -0.051795293 -0.03324974 -0.068794854 -0.10753923
-0.11274107 -0.024079587 -0.024316533 -0.088591516 -0.020634193 -0.03158178 -0.028915133 -0.10366069
-0.105252646 -0.16458613 -0.07811945 -0.080498114 -0.024427418 -0.19875209 -0.024614906 -0.011119995
0.0029571888 -0.105002046 0.005538632 -0.14738363 -0.059297968 -0.032410547 0.058287617 -0.058910005
-0.1596539 -0.005109171 -0.011812394 -0.088614136 -0.10705542 -0.02853278 -0.03411896 -0.2020498
-0.04404606 -0.06160488 -0.10451791 -0.15659542 -0.11737802 -0.046136305 -0.046405412 -0.19253398
-0.01977113 -0.13405892 -0.08089942 -0.03320707 0.05406982 -0.056249894 0.06608445 0.049455803
-0.0038812147 -0.18179882 -0.020562293 -0.11347253 -0.1370238 0.05906669 -0.016530348 0.08292561
-0.060824003 -0.024455523 -0.06233879 -0.039495584 0.11891436 -0.07203667 -0.023722045 -0.14739653
-0.041219085 0.03909251 -0.065327585 -0.107411236 0.018850354 -0.055827867 -0.081165716 -0.01674059
-0.01587865 -0.06649079 0.029509474 0.08362393 -0.00030678077 0.0016009641 -0.06352555 -0.07669647
-0.084988646 -0.07801675 0.07389831 0.032755535 -0.16070819 -0.044088397 -0.0450281 0.02404614
-0.09455312 -0.07451685 -0.15254568 -0.016301353 -0.06569344 0.020348635 -0.14536247 -0.08099416
-0.057449102 0.0023151985 -0.012063713 -0.019690512 -0.056963995 -0.0064355237 -0.015598002 -0.20968424
-0.120073706 -0.004766704 -0.12660249 -0.114161216 0.0630098 0.08497389 -0.16153023 -0.02484525
00000000: 31a1 1fbe 9067 383c b199 17be e6e2 dbbd
00000010: 2c56 c33c 164c b1bd 2f01 9c3c 256e c7bd
00000020: 5f2c a4bc 6275 243d ae32 1cbe 24f5 bdbd
00000030: 4d27 54bd e130 08bd 51e4 8cbd 873d dcbd
00000040: cae4 e6bd 8e42 c5bc 7733 c7bc 786f b5bd
00000050: 0a09 a9bc e65b 01bd 6edf ecbc 0e4c d4bd
00000060: b38e d7bd 4489 28be 17fd 9fbd 32dc a4bd
00000070: 021c c8bc ab85 4bbe 33a5 c9bc a430 36bc
00000080: 65cd 413b 500b d7bd 6a7d b53b bceb 16be
00000090: 6de2 72bd ecc0 04bd ffbe 6e3d 9e4b 71bd
000000a0: 507c 23be d56a a7bb c588 41bc 547b b5bd
000000b0: df3f dbbd 94bd e9bc 53c0 0bbd 25e6 4ebe
000000c0: a469 34bd 6655 7cbd 7c0d d6bd 8d5a 20be
000000d0: e363 f0bd 6cf9 3cbd 9a13 3ebd a127 45be
000000e0: 11f7 a1bc be46 09be 98ae a5bd 2304 08bd
000000f0: 5178 5d3d 4a66 66bd 4957 873d 2b92 4a3d
00000100: fa5b 7ebb 7829 3abe 4172 a8bc 4964 e8bd
00000110: f84f 0cbe eaef 713d a76a 87bc e7d4 a93d
00000120: 9722 79bd f356 c8bc f656 7fbd 1fc6 21bd
00000130: 5f89 f33d f687 93bd bc54 c2bc 1eef 16be
00000140: 58d5 28bd 781f 203d 78ca 85bd 6cfa dbbd
00000150: 0f6c 9a3c c3ab 64bd 363a a6bd 9023 89bc
00000160: f113 82bc 532c 88bd dabd f13c 0643 ab3d
00000170: 6bd7 a0b9 71d7 d13a af19 82bd 0a13 9dbd
00000180: 870e aebd 3fc7 9fbd ff57 973d ab2a 063d
00000190: b090 24be 0996 34bd 636f 38bd 69fc c43c
000001a0: 11a5 c1bd 4a9c 98bd ef34 1cbe 6a8a 85bc
000001b0: 488a 86bd 2eb2 a63c e6d9 14be 44e0 a5bd
000001c0: c04f 6bbd 96ba 173b e1a6 45bc ff4d a1bc
000001d0: 1453 69bd 16e1 d2bb c38e 7fbc 77b7 56be
000001e0: 34e9 f5bd 0332 9cbb 15a4 01be 5bcd e9bd
000001f0: 480b 813d ca06 ae3d 2e68 25be 4488 cbbc

actor.4.weight f4 [128, 128]
-0.009344404 -0.036223635 -0.0019232372 0.036846228 0.032523286 0.2590514 0.025758887 -0.19305648
-0.041569296 0.097730264 0.031277034 0.086262204 0.08875341 -0.105103254 -0.06728378 0.031553358
-0.035201825 0.042268056 0.079442814 -0.12702912 0.18099554 -0.2969533 -0.06043993 0.027211199
-0.010841993 -0.18899067 0.09227306 -0.029958071 -0.0066895667 -0.036471326 0.07635965 -0.10558334
0.10682964 0.12692302 -0.17856184 0.051270936 0.173976 -0.10224072 -0.021843815 0.055163056
0.07451972 -0.2997407 -0.17154919 -0.17416345 -0.22901168 0.079882436 -0.07286633 -0.013587445
0.060808152 -0.046196725 0.0060914303 -0.11735003 -0.20983186 -0.050338347 -0.06778273 -0.068755135
-0.09421983 0.06138475 -0.096605524 -0.011815535 -0.0455712 -0.13198912 0.067628026 -0.042450923
0.08141022 -0.010904225 -0.008900539 0.017868325 0.267904 0.14712738 0.13346829 -0.014535096
-0.14246531 -0.12469255 0.0036209414 0.10504044 0.022294585 0.025227355 -0.027996618 0.0033000885
0.122430675 0.017664118 0.108118065 0.020307682 0.10443044 0.17603463 0.1601324 -0.030832635
0.1129709 -0.10790466 -0.03727579 -0.048932273 -0.035722274 -0.21225001 0.030497972 -0.03993272
0.03731993 0.030723827 -0.12358784 0.005567448 0.1571885 -0.16765946 -0.08002387 -0.023634404
0.02221815 0.046423163 0.036363322 0.02794042 -0.08440459 -0.065894715 -0.07760552 -0.073122926
-0.108980455 -0.077024296 -0.008860422 0.004092134 -0.1514809 0.0060168444 0.13284025 0.08067839
0.08883297 -0.018284285 -0.095536 0.11796236 -0.11093321 -0.23559651 0.061378375 0.2024367
-0.032502808 -0.022977272 0.015337037 -0.07820004 -0.05282875 -0.30689242 -0.12297358 -0.034377158
0.010718651 0.07793254 -0.0063504423 0.023273056 0.08822555 0.061192714 -0.011509667 0.06920736
0.078697346 0.0055596326 0.052794345 -0.12300735 -0.054479495 -0.051294506 -0.040092476 -0.035135742
-0.02843078 0.08075112 -0.28431502 -0.055884246 -0.12667249 0.060024254 0.013636011 0.06754938
-0.027419738 -0.10854063 -0.073533334 0.20218602 -0.15753715 -0.066742696 -0.013568618 -0.06186812
0.024500605 -0.044332884 0.039967205 -0.0061045014 -0.10189834 0.01944457 0.07478986 0.11512946
0.077293694 -0.015634246 0.02605968 0.07702933 -0.030447507 0.15635829 -0.09798424 -0.0024429807
-0.045996834 0.10500762 -0.030412072 0.053434465 -0.10327188 -0.12047682 0.16615142 0.088856846
0.094893225 -0.013090477 -0.07486491 0.180784 0.08909004 -0.15196723 0.017211214 0.11116733
0.081838086 -0.05491576 -0.06452611 -0.027194561 -0.10276697 -0.04231329 0.031205941 0.07138794
-0.107241 -0.16511758 0.10117744 0.041936323 -0.058889475 -0.103580765 -0.011512392 -0.036112234
0.07573498 0.14592855 -0.09019422 0.006414557 0.036423013 0.11657377 -0.06076986 0.05940508
0.09713335 -0.02461237 -0.05739173 -0.025681393 -0.052318897 -0.10082082 -0.16629077 -0.093002245
-0.04528731 0.06489794 0.108397454 0.021536859 -0.11615394 -0.024188772 -0.06287933 -0.0069962437
0.061297316 -0.14391485 -0.113422394 0.12791026 -0.23148315 -0.07525083 -0.112856284 0.02244901
-0.097440735 -0.01467471 0.073969424 -0.032566264 -0.25629154 0.000251948 0.10401908 0.083914906
00000000: 4519 19bc 3c5f 14bd 2215 fcba 12ec 163d
00000010: 2337 053d 63a2 843e 4d04 d33c 99b0 45be
00000020: 9144 2abd ce26 c83d 591c 003d 3daa b03d
00000030: 59c4 b53d 6040 d7bd 14cc 89bd 183e 013d
00000040: ca2f 10bd 4521 2d3d eab2 a23d ec13 02be
00000050: e556 393e 430a 98be dc8f 77bd 05ea de3c
00000060: 9da2 31bc c586 41be a8f9 bc3d a16a f5bc
00000070: 2734 dbbb f562 15bd 7362 9c3d 143c d8bd
00000080: 80c9 da3d 1cf8 013e ead8 36be 7901 523d
00000090: c426 323e 9563 d1bd cdf1 b2bc a8f2 613d
000000a0: cc9d 983d 9d77 99be 97aa 2fbe e757 32be
000000b0: 0a82 6abe 6799 a33d f13a 95bd e09d 5ebc
000000c0: f811 793d c738 3dbd 9f9a c73b 3655 f0bd
000000d0: 2ade 56be 952f 4ebd acd1 8abd 7ecf 8cbd
000000e0: 54f6 c0bd 936e 7b3d 1ed9 c5bd f295 41bc
000000f0: dea8 3abd 2828 07be 9080 8a3d 05e1 2dbd
00000100: 67ba a63d a2a7 32bc 91d3 11bc 9860 923c
00000110: b72a 893e 8fa8 163e e9ab 083e 9c24 6ebc
00000120: 6de2 11be cf5e ffbd 514d 6d3b 711f d73d
00000130: 22a3 b63c 99a9 ce3c 2a59 e5bc 4c46 583b
00000140: efbc fa3d 57b4 903c 016d dd3d 4c5c a63c
00000150: a0df d53d 6c42 343e bff9 233e b994 fcbc
00000160: 4a5d e73d 1efd dcbd 80ae 18bd 356d 48bd
00000170: 8551 12bd 1158 59be e2d6 f93c 7e90 23bd
00000180: c8dc 183d 89b0 fb3c 9f1b fdbd 246f b63b
00000190: 06f6 203e ecae 2bbe 8ee3 a3bd f09c c1bc
000001a0: d602 b63c 3726 3e3d b5f1 143d 4fe3 e43c
000001b0: 50dc acbd cff3 86bd a5ef 9ebd 79c1 95bd
000001c0: 2531 dfbd eabe 9dbd 4e2b 11bc 4f17 863b
000001d0: cf1d 1bbe f328 c53b 4607 083e b63a a53d
000001e0: 0fee b53d edc8 95bc 61a8 c3bd 4096 f13d
000001f0: f330 e3bd 3640 71be e467 7b3d 914b 4f3e
00000200: aa21 05bd d53a bcbc 3248 7b3c 5827 a0bd
00000210: f662 58bd 0121 9dbe 93d9 fbbd 10cf 0cbd
00000220: 489d 2f3c 189b 9f3d 5f17 d0bb 23a7 be3c
00000230: 99af b43d 36a5 7a3d 0b93 3cbc 97bc 8d3d
00000240: 132c a13d 942d b63b e23e 583d 47eb fbbd
00000250: e425 5fbd 301a 52bd 0238 24bd 7fea 0fbd
00000260: abe7 e8bc d860 a53d bd91 91be e1e6 64bd
00000270: 6fb6 01be fedb 753d 9369 5f3c 5457 8a3d
00000280: 5c9f e0bc 8d4a debd a598 96bd da09 4f3e
00000290: 6b51 21be 65b0 88bd e94e 5ebc 6d69 7dbd
000002a0: 7eb5 c83c 6696 35bd a7b4 233d 4508 c8bb
000002b0: 14b0 d0bd 384a 9f3c 6d2b 993d ffc8 eb3d
000002c0: 284c 9e3d 6413 80bc 1c7b d53c 8ec1 9d3d
000002d0: 0d6d f9bc 631c 203e f6ab c8bd 6a1a 20bb
000002e0: 2d67 3cbd 3c0e d73d bd22 f9bc 19de 5a3d
000002f0: 3580 d3bd 8dbc f6bd 9923 2a3e 94fa b53d
00000300: 6157 c23d 7179 56bc c652 99bd 711f 393e
00000310: d774 b63d 4c9d 1bbe 88fe 8c3c b2ab e33d
00000320: ba9a a73d 59ef 60bd 4426 84bd 21c7 debc
00000330: 7d77 d2bd b350 2dbd 9aa3 ff3c d733 923d
00000340: 2ba1 dbbd 9514 29be 1e36 cf3d 6cc5 2b3d
00000350: 1736 71bd 2722 d4bd 799e 3cbc 6cea 13bd
00000360: f11a 9b3d 4b6e 153e bfb7 b8bd 3431 d23b
00000370: 4c30 153d 3bbe ee3d d1e9 78bd be52 733d
00000380: daed c63d e29f c9bc 9713 6bbd c961 d2bc
00000390: 574c 56bd 257b cebd 2148 2abe f677 bebd
000003a0: 307f 39bd 36e9 843d 7cff dd3d 116e b03c
000003b0: 1ee2 edbd 8827 c6bc e1c6 80bd bf40 e5bb
000003c0: e512 7b3d 6a5e 13be 004a e8bd e8fa 023e
000003d0: eb09 6dbe 1b1d 9abd 3221 e7bd fce6 b73c
000003e0: 028f c7bd 326e 70bc 487d 973d 3464 05bd
000003f0: a538 83be e317 8439 f507 d53d 94db ab3d

actor.4.bias f4 [128]
-0.0891577 0.023306757 -0.14664623 -0.15919948 -0.04516368 -0.15243377 0.049422644 -0.11158328
-0.018947706 -0.20009306 -0.26157096 -0.18117282 -0.018000929 0.13459039 0.0398736 0.15249218
-0.036116786 0.121849954 0.1533608 -0.18172048 0.046102233 -0.026781615 -0.03975095 0.07109654
-0.07840661 -0.0073317327 -0.069831565 -0.13087212 0.14427486 -0.0061494927 0.08597324 -0.053314105
-0.10369375 0.035882853 0.017078498 -0.08664486 -0.17064191 -0.22071649 0.013052046 -0.11962954
0.054131683 0.041864395 -0.19398643 -0.09272225 -0.17591497 -0.06930144 0.03463848 -0.035643816
0.092328645 -0.20554787 -0.044404052 0.0083541935 0.0587231 -0.07460396 0.005402993 0.12902156
0.025333563 0.11115715 -0.00539606 -0.10373502 -0.17421521 -0.045698125 -0.066115245 -0.052137382
0.027234854 -0.078994475 -0.0487844 -0.016722174 -0.015614206 0.05447737 0.01814756 -0.18190172
-0.10574612 0.053441714 -0.07491419 -0.09689006 0.085294195 -0.019570759 -0.09639988 -0.028838817
-0.08132518 0.039349694 0.023805782 -0.0005131714 -0.05069977 -0.14649351 -0.026629038 0.07283383
0.045246586 -0.04187052 0.11335272 -0.00023993681 -0.16391908 -0.062393423 -0.23485765 -0.13715965
0.099039495 0.030164806 -0.03246928 0.09049799 -0.18547904 -0.06968064 -0.10332037 -0.09270244
-0.022604965 -0.074675485 -0.084853604 0.005628861 -0.10996127 0.02510404 -0.18216729 -0.064731725
0.16566628 -0.17945886 0.10940573 -0.10946399 -0.22007082 -0.13043317 -0.19942585 -0.14476539
-0.15490279 -0.21228401 0.11712571 0.0073203733 -0.017976739 0.17592227 -0.2103604 -0.10101226
00000000: 5098 b6bd d0ed be3c 6e2a 16be 3005 23be
00000010: 8dfd 38bd 9917 1cbe 666f 4a3d c685 e4bd
00000020: 3838 9bbc 32e5 4cbe a1ec 85be 5e85 39be
00000030: af76 93bc 10d2 093e 8052 233d e926 1c3e
00000040: 32ef 13bd 788c f93d 9d0a 1d3e ef14 3abe
00000050: b2d5 3c3d 1e65 dbbc e4d1 22bd 109b 913d
00000060: a593 a0bd 083f f0bb da03 8fbd 5703 06be
00000070: cabc 133e af81 c9bb bd12 b03d e45f 5abd
00000080: 645d d4bd e6f9 123d 35e8 8b3c dc72 b1bd
00000090: c1bc 2ebe 8103 62be 40d8 553c 5500 f5bd
000000a0: 2fb9 5d3d 007a 2b3d 61a4 46be 2ae5 bdbd
000000b0: 0e23 34be eaed 8dbd 14e1 0d3d 40ff 11bd
000000c0: cd16 bd3d 247b 52be 06e1 35bd 07e0 083c
000000d0: a287 703d f6c9 98bd 970b b13b 3a1e 043e
000000e0: 5588 cf3c 5ca6 e33d 6fd1 b0bb 0773 d4bd
000000f0: 7965 32be f52d 3bbd 6e67 87bd 028e 55bd
00000100: a11b df3c dbc7 a1bd 27d2 47bd f1fc 88bc
00000110: bad2 7fbc aa23 5f3d 31aa 943c 7244 3abe
00000120: 6c91 d8bd b3e5 5a3d 9c6c 99bd 4c6e c6bd
00000130: b9ae ae3d db52 a0bc 4d6d c5bd 623f ecbc
00000140: d18d a6bd 252d 213d 5804 c33c 5a86 06ba
00000150: 90aa 4fbd 6502 16be 2425 dabc e729 953d
00000160: 7c54 393d 6c80 2bbd 7925 e83d 8c97 7bb9
00000170: 67da 27be 3f90 7fbd 867e 70be 9473 0cbe
00000180: 38d5 ca3d 2f1c f73c 82fe 04bd 0357 b93d
00000190: 38ee 3dbe b9b4 8ebd a199 d3bd c7da bdbd
000001a0: 0c2e b9bc 76ef 98bd bac7 adbd 4f72 b83b
000001b0: 6033 e1bd fda6 cd3c 108a 3abe 1192 84bd
000001c0: 6ca4 293e 10c4 37be 1d10 e03d a82e e0bd
000001d0: 3f5a 61be 4690 05be 4a36 4cbe 613d 14be
000001e0: d69e 1ebe fb60 59be 9bdf ef3d bedf ef3b
000001f0: f443 93bc f824 343e b768 57be 84df cebd

actor.6.weight f4 [12, 128]
0.09671677 -0.057366934 0.05386301 -0.07737378 -0.02424073 0.0052209557 -0.03573667 0.012252145
-0.033737294 0.12096638 0.009417304 0.012229364 -0.011041026 -0.10238613 -0.05136042 0.03540318
-0.009323996 -0.039275285 -0.03294096 0.0012983042 -0.03549177 0.032696318 -0.014030058 -0.015800063
-0.028510444 -0.015875539 -0.029931102 0.044132777 0.036345717 0.017846161 -0.0020995943 0.008791892
-0.008125059 -0.0030829133 -0.06089226 0.00022056459 -0.038297933 -0.005827792 -0.07266721 -0.0152535625
0.00173519 0.01193131 -0.22782163 -0.009475442 -0.0432341 -0.014390053 -0.019686727 0.022353614
-0.037045904 0.11143924 -0.0104308445 -0.0016034561 -0.03612905 0.007918427 -0.024193184 -0.014428339
-0.0061834115 -0.07386586 0.02073744 -0.033467956 0.01571399 0.034991674 0.011630603 -0.09666129
0.013707749 -0.027342731 0.036439918 -0.016589021 0.07201305 0.033185136 -0.0112798745 0.076007254
0.022238873 -0.03752405 -0.01590581 0.020419793 -0.01202141 0.047777586 0.087980665 -0.016590498
0.04028201 -0.013057835 -0.006086182 -0.042947356 -0.014472772 0.04451825 0.060231578 -0.029765502
0.0030393463 -0.013799675 -0.031164771 0.0014213088 0.0076851677 0.014560081 0.095623724 0.004660052
-0.037439894 -0.05282589 0.05007775 -0.070458695 -0.016170694 -0.091213115 -0.031442292 -0.043994755
0.003324289 0.05221197 0.0003730329 -0.03828237 0.13879442 0.028117066 -0.03493941 0.0023157462
-0.029089713 -0.029464971 -0.044636317 -0.07465038 0.09956087 0.019386869 0.04325369 -0.009277465
0.0043706973 0.039906144 -0.045327466 -0.056447733 -0.0610289 -0.038401294 0.075565554 0.043787643
-0.012824948 0.01636264 0.009260643 0.033760983 0.07543196 0.030912595 0.033486925 0.089593366
0.028053034 0.057473045 0.10306498 0.035861254 0.0076718708 -0.057427507 0.0023049158 -0.08992938
0.0046983478 0.0022839543 -0.0603154 -0.14938255 -0.038890745 -0.043609597 0.026923712 -0.032677498
0.04826446 -0.00821281 0.0112681845 -0.020927541 -0.06724813 -0.036449924 0.012012096 0.01044342
0.00045286896 -0.0071292445 0.07578204 -0.014381556 0.03394963 0.08262892 -0.09487677 0.03733649
0.0322166 -0.016125657 0.07690774 0.013025794 0.01921216 0.025819326 -0.015411697 -0.016202796
0.01579854 0.10415773 -0.0551243 -0.012312191 0.04635485 0.031408593 -0.0010213653 -0.056199316
-0.0447391 -0.07069444 0.0007420529 0.087920204 -0.028462498 -0.019376231 0.004135894 0.051118974
-0.038665783 -0.016612876 -0.04680578 0.026625708 -0.088711865 -0.013887563 0.012143143 0.091861255
-0.03966098 0.05121452 0.028869731 0.018843686 0.028079448 -0.0068009654 -0.009298541 0.0729426
0.013974176 0.013683791 -0.035356462 -0.0024256527 0.025525363 0.030241543 -0.021846674 0.003457542
0.008957079 -0.005767902 0.0051047476 0.0012590721 0.05672481 -0.107243925 0.022733672 0.030468127
0.00064375385 0.007220354 0.022033244 0.0071021453 0.053386882 0.0052776565 0.017549552 0.06252205
-0.023740847 -0.056306783 0.017800223 -0.009005811 -0.010697306 -0.060731076 -0.0067249057 0.001415597
-0.0512744 -0.028030144 -0.048285503 -0.14046274 -0.03690189 0.06026601 0.12700337 -0.07392295
0.15425162 0.05438076 -0.012099479 0.024742505 0.09549547 -0.028649399 0.047707867 -0.07759606
00000000: 7113 c63d 97f9 6abd 769f 5c3d 2576 9ebd
00000010: 7f94 c6bc 8d14 ab3b 9d60 12bd 39bd 483c
00000020: 1e30 0abd 39bd f73d 094b 1a3c ac5d 483c
00000030: 6be5 34bc d2af d1bd 4e5f 52bd ed02 113d
00000040: acc3 18bc 1fdf 20bd 1aed 06bd dc2b aa3a
00000050: d15f 11bd 93ec 053d 54de 65bc 226f 81bc
00000060: bc8e e9bc 6b0d 82bc 1232 f5bc 92c4 343d
00000070: 3fdf 143d 1d32 923c 5999 09bb de0b 103c
00000080: f81e 05bc b40a 4abb 2a6a 79bd 5b47 6739
00000090: 4bde 1cbd 10f7 bebb 8cd2 94bd 14ea 79bc
000000a0: 516f e33a 8b7b 433c 134a 69be e23e 1bbc
000000b0: 3d16 31bd 42c4 6bbc 0f46 a1bc ed1e b73c
000000c0: 72bd 17bd 423a e43d 22e6 2abc 0f2b d2ba
000000d0: 0efc 13bd 4abc 013c c930 c6bc d764 6cbc
000000e0: 379e cabb fc46 97bd 90e1 a93c b215 09bd
000000f0: a0ba 803c 6e53 0f3d 498e 3e3c 5bf6 c5bd
00000100: 7796 603c ddfd dfbc 0642 153d b3e5 87bc
00000110: 947b 933d 23ed 073d 39cf 38bc b1a9 9b3d
00000120: 4c2e b63c d1b2 19bd e74c 82bc 6947 a73c
00000130: 73f5 44bc 6eb2 433d 352f b43d cce8 87bc
00000140: c0fe 243d 88f0 55bc 986e c7bb 91e9 2fbd
00000150: 351f 6dbc c558 363d 63b5 763d c8d6 f3bc
00000160: c52f 473b 0818 62bc 434d ffbc 364b ba3a
00000170: dcd3 fb3b 688d 6e3c 5fd6 c33d 59b3 983b
00000180: 935a 19bd f65f 58bd 541e 4d3d a64c 90bd
00000190: 6778 84bc f1cd babd a2c9 00bd d833 34bd
000001a0: 51dc 593b 38dc 553d a193 c339 f9cd 1cbd
000001b0: 2020 0e3e c355 e63c a01c 0fbd c6c3 173b
000001c0: 8d4d eebc 8660 f1bc 92d4 36bd 4ce2 98bd
000001d0: 92e6 cb3d 36d1 9e3c c82a 313d 8200 18bc
000001e0: 1138 8f3b a074 233d 4ba9 39bd bd35 67bd
000001f0: 71f9 79bd ad4a 1dbd 1dc2 9a3d ac5a 333d
00000200: bb1f 52bc f10a 863c f4b9 173c f548 0a3d
00000210: 127c 9a3d 693c fd3c 9629 093d ba7c b73d
00000220: 7acf e53c db68 6b3d bb13 d33d 40e3 123d
00000230: 5164 fb3b 1b39 6bbd 120e 173b e52c b8bd
00000240: 99f4 993b 65ae 153b 480d 77bd bdf7 18be
00000250: e74b 1fbd fa9f 32bd 1e8f dc3c d7d8 05bd
00000260: f4b0 453d 068f 06bc 319e 383c 3c70 abbc
00000270: 63b9 89bd 844c 15bd 62ce 443c e11a 2b3c
00000280: 0b6f ed39 709c e9bb 9d33 9b3d 9ea0 6bbc
00000290: c40e 0b3d 5a39 a93d c14e c2bd 26ee 183d
000002a0: 8ef5 033d f419 84bc ce81 9d3d 246a 553c
000002b0: d262 9d3c 0d83 d33c 5881 7cbc babb 84bc
000002c0: f16b 813c a650 d53d 05ca 61bd 12b9 49bc
000002d0: 95de 3d3d 4ca6 003d 55df 85ba 4131 66bd
000002e0: 5940 37bd 3fc8 90bd 5486 423a 820f b43d
000002f0: 2f2a e9bc e7ba 9ebc 6586 873b 2162 513d
00000300: 0360 1ebd ba17 88bc 6bb7 3fbd 281e da3c
00000310: 91ae b5bd a988 63bc 09f4 463c c121 bc3d
00000320: 8d73 22bd 51c6 513d 3780 ec3c 135e 9a3c
00000330: df06 e63c a2da debb e858 18bc ee62 953d
00000340: f1f3 643c fb31 603c f0d1 10bd b3f7 1ebb
00000350: 911a d13c 1dbd f73c ccf7 b2bc ee97 623b
00000360: b6c0 123c ab00 bdbb ba45 a73b 7307 a53a
00000370: 4658 683d b4a2 dbbd f73b ba3c 4b98 f93c
00000380: 97c1 283a b898 ec3b 107f b43c 1db9 e83b
00000390: 34ac 5a3d 31f0 ac3b 14c4 8f3c 900b 803d
000003a0: 2a7c c2bc f1a1 66bd c6d1 913c 1c8d 13bc
000003b0: c143 2fbc 26c1 78bd 995c dcbb 8e8b b93a
000003c0: 1b05 52bd 799f e5bc 05c7 45bd 77d5 0fbe
000003d0: 7026 17bd 7ed9 763d 2c0d 023e ea64 97bd
000003e0: 23f4 1d3e 5cbe 5e3d e53c 46bc cbb0 ca3c
000003f0: 2193 c33d 25b2 eabc 5369 433d afea 9ebd

actor.6.bias f4 [12]
-0.101789735 -0.25166658 0.0625452 0.03242303 0.067355104 -0.05503922 0.021038337 -0.0096283415
0.03675831 -0.03554841 0.0736071 -0.11947932
00000000: 2377 d0bd 71da 80be b317 803d 03ce 043d
00000010: 79f1 893d ce70 61bd 9758 ac3c 31c0 1dbc
00000020: e28f 163d 369b 11bd 52bf 963d 93b1 f4bd

critic.0.weight f4 [128, 48]
0.36413556 -0.0329435 -0.1172131 -0.00050289446 0.010199887 -0.19105946 0.25722462 -0.15543473
0.084665105 -0.47006083 -0.71139646 -0.33285573 0.08987073 -0.014399478 0.12639458 -0.03807335
-0.015445154 -0.06364145 0.1734043 0.049475238 0.07522242 -0.13602264 -0.050700657 0.031337377
0.07225151 -0.02171759 -0.062915 0.001468997 0.04006497 0.0104136355 0.01292174 -0.0015307068
-0.011987816 0.020115906 0.0599289 0.0013576754 -0.057926804 -0.0327252 -0.025265496 -0.041583717
0.057145502 -0.028223291 0.021073865 0.04832931 -0.01187346 -0.07389916 0.018912911 -0.024130851
-0.26973805 -0.15641502 -0.15523507 0.08955253 0.0661701 0.06593025 1.2123681 -0.9996521
-0.004725427 0.3106888 0.08893604 -0.08787518 0.027918976 0.28653532 0.07312204 -0.0034258466
0.24633496 -0.04197533 0.37286356 0.08981511 0.12660691 0.20010404 0.54243135 -0.017792271
0.083503515 -0.102492064 -0.019459402 0.07919698 0.059930712 -0.012279752 0.07799922 -0.08212037
0.031881493 0.0045245998 0.024782391 -0.016717404 -0.004635236 0.021147026 0.007812342 0.14218776
-0.022013677 -0.08684135 -0.031047255 0.03618985 0.010685177 0.055081442 -0.058120836 0.031452
-0.10508084 0.11997266 0.014819356 -0.12327996 -0.15808426 0.25761268 -0.49559522 1.4761539
0.19529772 0.20708191 -0.102346525 -0.2154289 -0.08694241 -0.23916955 -0.1539692 -0.30334243
0.1517268 -0.26996604 0.13507086 0.08126122 0.17233473 -0.16521287 -0.2406014 0.0739583
-0.020428494 -0.051409103 0.02846424 -0.033281952 -0.0070691328 -0.04851043 0.0011487954 0.015045901
0.00699832 -0.0049820906 -0.02847819 0.017855838 0.050339513 0.013924893 0.032697305 0.07438225
0.10068836 0.020770647 -0.0029856486 -0.057250332 0.016514478 -0.0030504586 -0.013513607 -0.07294815
-0.1761905 -0.33695605 -0.031673886 -0.008850025 0.044364434 -0.12697847 -1.8990866 -0.42732632
-0.033853706 0.111620836 0.41445974 0.3028548 0.27511728 0.014278151 -0.039926775 -0.05668874
-0.036796473 -0.14878194 0.051763162 0.20834842 -0.3472449 0.0050068004 -0.2902377 -0.109507866
0.06839403 -0.047905616 -0.02304464 0.025739595 0.021121012 -0.057781186 0.023293147 0.029020265
-0.014048271 -0.035486594 0.006519289 0.00068323564 -0.06765235 0.06891303 0.1188641 0.048336588
-0.034503523 0.012592223 0.123967275 0.07406091 0.1339033 -0.0849861 -0.15228501 -0.027231041
-0.30351925 -0.37249509 0.14370511 -0.15683915 0.02558806 -0.015032159 0.720775 -0.7058575
-0.07121062 0.00926805 -0.29398268 -0.38971624 -0.03090487 0.14497039 0.086793765 0.075761974
0.14740986 -0.05382017 -0.024131315 -0.20787135 -0.04929297 -0.035213046 -0.026912447 -0.18345346
-0.10257296 0.054414455 -0.052287865 0.009609404 0.042454652 0.019835852 -0.11532786 -0.07543731
-0.032454737 0.0071085137 -0.023586163 0.017823694 0.114803575 -0.04424942 -0.08913577 0.034533106
0.0026020086 0.021287022 -0.08215793 -0.07862664 -0.0053320276 0.06349299 -0.14861205 -0.08831497
-0.34949577 -0.1294884 0.06403345 0.04484562 -0.08998925 0.200316 -0.6276292 -0.7885324
0.058827225 0.15951571 0.021979861 0.1535108 -0.15042695 0.04993379 0.08501424 0.18757552
00000000: fa6f ba3e c3ef 06bd 6c0d f0bd add4 03ba
00000010: 6d1d 273c 17a5 43be f2b2 833e 482a 1fbe
00000020: e664 ad3d d0ab f0be 141e 36bf 116c aabe
00000030: 250e b83d caeb 6bbc 956d 013e cdf2 1bbd
00000040: ac0d 7dbc 7356 82bd e690 313e 8ca6 4a3d
00000050: 360e 9a3d 8549 0bbe 7eab 4fbd 9f5b 003d
00000060: 9af8 933d 16e9 b1bc 94d9 80bd 5c8b c03a
00000070: 2a1b 243d f49d 2a3c b5b5 533c ffa1 c8ba
00000080: 8b68 44bc 1dca a43c 0278 753d 07f4 b13a
00000090: a844 6dbd dc0a 06bd 96f9 cebc b053 2abd
000000a0: 6711 6a3d 8834 e7bc 19a3 ac3c f4f4 453d
000000b0: e788 42bc 7158 97bd 40ef 9a3c 10ae c5bc
000000c0: 1b1b 8abe 422b 20be f1f5 1ebe 5167 b73d
000000d0: 3084 873d 7006 873d e12e 9b3f 33e9 7fbf
000000e0: c1d7 9abb 9a12 9f3e 1924 b63d e7f7 b3bd
000000f0: 56b6 e43c c2b4 923e 02c1 953d 2b84 60bb
00000100: 3b3f 7c3e 53ee 2bbd f9e7 be3e fcf0 b73d
00000110: 3ea5 013e 13e8 4c3e c8dc 0a3f 19c1 91bc
00000120: e403 ab3d 5ce7 d1bd 5369 9fbc 0732 a23d
00000130: e879 753d 0331 49bc 0ebe 9f3d b92e a8bd
00000140: 2b96 023d 1843 943b 7104 cb3c f0f2 88bc
00000150: 2ee3 97bb 873c ad3c adfe ff3b ab99 113e
00000160: 0756 b4bc e1d9 b1bd d056 febc cf3b 143d
00000170: e110 2f3c 149d 613d 1d10 6ebd d0d3 003d
00000180: a034 d7bd 3ab4 f53d e2cc 723c 347a fcbd
00000190: d7e0 21be cfe5 833e a8be fdbe 9cf2 bc3f
000001a0: 20fc 473e 480d 543e 0e9b d1bd 6599 5cbe
000001b0: dd0e b2bd dde8 74be 1aaa 1dbe b34f 9bbe
000001c0: 455e 1b3e fd38 8abe 0450 0a3e 486c a63d
000001d0: 8478 303e 902d 29be 3760 76be 7377 973d
000001e0: a859 a7bc 5a92 52bd d62d e93c a852 08bd
000001f0: 2fa4 e7bb dfb2 46bd 2d93 963a 1583 763c
00000200: 2a52 e53b ce40 a3bb 184b e9bc 6846 923c
00000210: ce30 4e3d 3c25 643c 9ced 053d b955 983d
00000220: b335 ce3d 3427 aa3c dfaa 43bb 537f 6abd
00000230: 5f49 873c 34ea 47bb 2d68 5dbc d765 95bd
00000240: 486b 34be 8185 acbe 7abc 01bd b2ff 10bc
00000250: 7bb7 353d a506 02be 4515 f3bf 84ca dabe
00000260: 2faa 0abd 7799 e43d 1134 d43e c90f 9b3e
00000270: 2cdc 8c3e e8ee 693c 428a 23bd 7432 68bd
00000280: e6b7 16bd 4b5a 18be 9c05 543d 4a59 553e
00000290: 15ca b1be 1610 a43b 099a 94be a945 e0bd
000002a0: 2b12 8c3d ae38 44bd 1dc8 bcbc d8db d23c
000002b0: f905 ad3c f7ab 6cbd 45d1 be3c e8bb ed3c
000002c0: b82a 66bc 645a 11bd c39f d53b 2b1b 333a
000002d0: 518d 8abd 4622 8d3d 056f f33d 96fc 453d
000002e0: 9153 0dbd 9c4f 4e3c 8ee2 fd3d 3fad 973d
000002f0: f21d 093e 310d aebd 9af0 1bbe a213 dfbc
00000300: e066 9bbe adb7 bebe 6f27 133e 719a 20be
00000310: 0d9e d13c 7249 76bc b684 383f 14b3 34bf
00000320: e0d6 91bd 05d9 173c e684 96be e388 c7be
00000330: 362c fdbc 1e73 143e eec0 b13d 1829 9b3d
00000340: 9cf2 163e 8a72 5cbd 09af c5bc 3adc 54be
00000350: 6de7 49bd 8e3b 10bd 7e77 dcbc 39db 3bbe
00000360: c611 d2bd b1e1 5e3d cd2b 56bd c370 1d3c
00000370: eee4 2d3d cc7e a23c 0331 ecbd e07e 9abd
00000380: 42ef 04bd 89ee e83b c537 c1bc ff02 923c
00000390: 231e eb3d e13e 35bd d18c b6bd 9672 0d3d
000003a0: 7686 2a3b 1f62 ae3c 6b42 a8bd 0107 a1bd
000003b0: 4ab8 aebb 9d08 823d c22d 18be 7bde b4bd
000003c0: 1cf1 b2be 9b98 04be f823 833d 0ab0 373d
000003d0: 494c b8bd a31f 4d3e 4fac 20bf 42dd 49bf
000003e0: d1f4 703d 1658 233e 1c0f b43c ef31 1d3e
000003f0: 8609 1abe 6087 4c3d f21b ae3d cc13 403e

critic.0.bias f4 [128]
-0.03733976 0.22198361 -0.07343281 -0.14827329 0.08036122 0.09885152 -0.054094955 0.17246735
0.17540719 -0.047151208 0.10637047 -0.33614177 -0.15369314 -0.19052134 -0.006925828 -0.14595883
-0.17047545 0.04207115 -0.16444075 -0.054817677 -0.13870719 -0.14103141 -0.10095337 -0.07874922
-0.13734564 0.08607098 -0.18132442 -0.11222564 0.17179337 0.00044842422 0.03747312 0.09563117
0.008446156 -0.17502983 -0.2231412 -0.1575773 -0.20623682 0.007980191 0.19572364 0.013194812
-0.1561576 -0.020417362 -0.25078544 -0.016739802 -0.29644966 -0.1940625 -0.047477648 0.0026647726
-0.18179128 0.027086597 0.047841966 0.008576088 0.017638048 -0.013638666 -0.13473752 0.20508349
0.0010883682 -0.21848696 -0.13423549 0.062061083 -0.03101081 -0.08689403 0.04247781 -0.09839176
0.150333 0.23111199 0.016735472 0.19444445 0.06513207 0.14683338 -0.0788438 -0.13069984
-0.15659973 -0.070043825 -0.0015623091 -0.02787161 -0.040257484 0.2293829 0.08762963 -0.15919861
0.16572043 -0.1697821 -0.013489968 -0.0061936798 0.19883743 0.013872111 -0.14939281 0.1767114
0.01396786 -0.1440491 0.025261447 -0.11260296 -0.20350124 -0.07989199 -0.17128949 -0.1298395
0.1430511 0.06840187 0.14817736 0.05847872 -0.07705028 0.012095774 0.18605517 -0.1443123
0.050228175 -0.07851743 0.040926255 -0.08291493 0.10537908 0.23872359 0.08043321 -0.09331946
-0.17208762 -0.028182022 -0.051899932 0.07659909 -0.16051178 -0.16643779 -0.10207521 -0.2726702
0.03541372 0.21494557 -0.037820045 0.05836042 0.0994571 0.065021746 -0.20047888 0.02704659
00000000: 94f1 18bd ac4f 633e f163 96bd f4d4 17be
00000010: 6c94 a43d aa72 ca3d ac92 5dbd 489b 303e
00000020: f19d 333e a021 41bd c3d8 d93d c61a acbe
00000030: bc61 1dbe 0718 43be 0ef2 e2bb 3b76 15be
00000040: 1e91 2ebe cc52 2c3d 2863 28be 8088 60bd
00000050: 4209 0ebe 8a6a 10be a4c0 cebd 4547 a1bd
00000060: 56a4 0cbe fb45 b03d 1cad 39be 8ed6 e5bd
00000070: 9aea 2f3e 7b1a eb39 6a7d 193d 46da c33d
00000080: bf61 0a3c 053b 33be 207f 64be f25b 21be
00000090: bf2f 53be 59bf 023c c76b 483e 0e2f 583c
000000a0: c7e7 1fbe 5042 a7bc f366 80be e921 89bc
000000b0: 40c8 97be 52b8 46be ec77 42bd 77a3 2e3b
000000c0: 7e27 3abe b6e4 dd3c f0f5 433d b882 0c3c
000000d0: ab7d 903c b674 5fbc a2f8 09be 6801 523e
000000e0: 94a7 8e3a 0cbb 5fbe 0775 09be c333 7e3d
000000f0: 620a febc 7ff5 b1bd 36fd 2d3d 9e81 c9bd
00000100: e5f0 193e 9fa8 6c3e d418 893c 721c 473e
00000110: f663 853d 7d5b 163e dc78 a1bd 2ed6 05be
00000120: ae5b 20be 2373 8fbd 65c6 ccba 0153 e4bc
00000130: 08e5 24bd 5ae3 6a3e 2a77 b33d f604 23be
00000140: 9eb2 293e 5cdb 2dbe 0705 5dbc 5af4 cabb
00000150: 0a9c 4b3e da47 633c 6efa 18be d5f3 343e
00000160: 73d9 643c 9b81 13be 18f1 ce3c 619c e6bd
00000170: a162 50be 699e a3bd 8366 2fbe a5f4 04be
00000180: fd7b 123e 4816 8c3d cebb 173e 6287 6f3d
00000190: 8acc 9dbd 5a2d 463c 3f85 3e3e 9bc6 13be
000001a0: 0fbc 4d3d bfcd a0bd 4aa2 273d 4ecf a9bd
000001b0: fdd0 d73d f573 743e 2bba a43d 461e bfbd
000001c0: bd37 30be fcdd e6bc 0695 54bd fcdf 9c3d
000001d0: 335d 24be ab6e 2abe cf0c d1bd 6e9b 8bbe
000001e0: fa0d 113d b11a 5c3e 31e9 1abd 560b 6f3d
000001f0: 2ab0 cb3d 1f2a 853d 564a 4dbe cf90 dd3c
