logs/rsl_rl/anymal_c_flat_direct/2025-04-24_12-25-01/model_350.pt (torch, 983322 bytes, 48 tensors)

std f4 [12]
0.11663183 0.11940289 0.11526947 0.11671654 0.13943079 0.14240617 0.14193636 0.15401302
0.091015965 0.10756192 0.08588827 0.09548201
00000000: abdc ee3d 8189 f43d 6612 ec3d 1509 ef3d
00000010: f2c6 0e3e ecd2 113e c457 113e 97b5 1d3e
00000020: 9466 ba3d 6d49 dc3d 30e6 af3d 128c c33d

actor.0.weight f4 [128, 48]
0.21439525 -0.020202013 -0.15920705 -0.12636265 0.34752652 -0.34961754 0.2603899 0.07046449
0.11173982 -0.044292167 0.39188445 0.25981483 0.027130704 -0.2839997 -0.29637483 -0.5626891
-0.105225146 0.22032389 -0.0017061561 -0.17895041 0.009199278 0.3217792 0.40889606 -0.05351188
-0.054776095 0.034722712 0.03384794 -0.042005584 0.07250888 0.1693249 -0.06374739 -0.009439594
0.061888963 0.046894103 -0.07012532 -0.015524204 0.032970447 -0.21895273 0.21978706 -0.13819928
0.006761862 -0.15860033 0.15284748 -0.09996048 -0.18235803 -0.17384483 0.13363065 0.11390022
-0.5055625 -0.43381113 0.10850988 -0.12025162 -0.21362749 0.054134987 -0.0764763 0.3487447
0.17571029 -0.13983479 0.501668 -0.30564454 0.07197639 -0.02445419 0.07379345 -0.15072747
-0.09976046 -0.10077476 -0.3395737 0.06877776 0.034660548 0.09754762 0.009840855 0.23386666
0.041582856 0.014209641 -0.021500876 -0.052986596 -0.027359296 -0.01804597 -0.082197644 -0.089293
-0.018133868 -0.025254086 -0.0056165652 0.016592868 -0.03246477 0.09617521 -0.004362209 -0.039770674
0.0004375314 0.0036919643 -0.0042414935 -0.12208796 -0.20340447 -0.15214668 0.032470506 -0.17607738
-0.12337947 -0.06463386 0.25634947 0.08537652 0.1380593 -0.26320028 -0.33608213 -0.928473
0.15222007 0.37763038 -0.0033839967 0.33697134 0.33334184 0.081228815 0.10341893 0.31209213
-0.078411296 -0.32933426 0.21756397 0.39134055 0.23610322 0.0049735215 -0.06868365 0.08022682
-0.07633784 0.061377924 0.00378033 0.004976564 -0.0840344 -0.08461729 0.008668231 0.06708459
-0.01637707 0.04707165 0.031568594 -0.0021007068 0.1624407 0.14929284 0.14849399 -0.090061136
0.06773276 -0.18212712 -0.04027091 -0.13393535 -0.21744266 -0.02534789 -0.13055402 -0.1635515
-0.2002943 0.2935904 0.44343674 0.21549022 -0.13311331 0.08551256 0.13696936 0.4332331
0.006359742 -0.13475956 -0.110647656 0.37335065 -0.2964359 0.34977442 0.19357984 0.12550643
0.12890637 -0.22744584 0.21155064 -0.57675296 0.07584158 0.056147244 0.68659335 -0.22918618
0.1418414 -0.032597207 0.11969797 -0.0952525 0.032548837 -0.06519065 0.07694631 0.03648608
-0.02741784 -0.022721184 0.11423254 0.028286777 0.15211551 -0.12800951 -0.028407147 -0.187779
-0.05084235 -0.01430981 0.2887404 -0.16597115 -0.056565 -0.16144261 -0.37239328 -0.018337933
0.3013992 -0.04371296 -0.19646528 -0.20841664 0.2095762 0.2232402 0.6068629 0.51862735
0.08854126 0.21523513 -0.30585635 0.011479768 -0.22073226 -0.11073914 -0.19263081 -0.43907282
-0.2118449 -0.1710609 0.2589047 -0.0021376568 0.2867087 -0.28595525 0.0158004 -0.16235535
0.043104038 -0.06983264 0.04304127 -0.16112927 0.057401706 0.045858853 -0.11429186 0.055746533
0.050708443 -0.025200492 -0.04681166 0.016038734 0.13648658 0.22653799 -0.093012646 -0.20553055
-0.10893054 0.06393998 0.010141423 0.07721018 -0.10102327 -0.2090472 0.06307631 0.40851158
-0.16191493 0.099317856 -0.3698689 0.20416006 -0.04162286 0.29704592 0.017033357 -0.11154929
-0.030180717 0.041630555 -0.3853325 0.034920752 0.22806156 0.5975235 -0.08154536 0.05493081
00000000: 6e8a 5b3e b17e a5bc 2c07 23be 3665 01be
00000010: ffee b13e 1201 b3be d351 853e b04f 903d
00000020: d9d7 e43d b46b 35bd 14a5 c83e 7306 853e
00000030: 3641 de3c 6968 91be 71be 97be 650c 10bf
00000040: 4880 d7bd 969c 613e 19a1 dfba c73e 37be
00000050: 92b8 163c 3ec0 a43e d35a d13e 462f 5bbd
00000060: e65c 60bd 6739 0e3d 23a4 0a3d 0c0e 2cbd
00000070: 897f 943d 8263 2d3e fe8d 82bd 87a8 1abc
00000080: 487f 7d3d 0814 403d dd9d 8fbd 3b59 7ebc
00000090: 050c 073d 2535 60be dc0f 613e 1d84 0dbe
000000a0: 9c92 dd3b 2068 22be 0d84 1c3e 15b8 ccbd
000000b0: 10bc 3abe 6104 32be 79d6 083e 8544 e93d
000000c0: 8b6c 01bf 7e1c debe 6e3a de3d 7b46 f6bd
000000d0: 2ac1 5abe a6bc 5d3d 9b9f 9cbd aa8e b23e
000000e0: 66ed 333e da30 0fbe 506d 003f 717d 9cbe
000000f0: 5c68 933d 2754 c8bc 0521 973d 4d58 1abe
00000100: 364f ccbd ff62 cebd 9bdc adbe 5bdb 8c3d
00000110: 38f8 0d3d 0cc7 c73d 8a3b 213c be7a 6f3e
00000120: c952 2a3d 8ecf 683c 9b22 b0bc 7908 59bd
00000130: 9a20 e0bc 24d5 93bc 3d57 a8bd 40df b6bd
00000140: 7a8d 94bc a8e1 cebc 2a0b b8bb c4ed 873c
00000150: c7f9 04bd 82f7 c43d dcf0 8ebb 93e6 22bd
00000160: 7864 e539 e2f4 713b 3afc 8abb 4109 fabd
00000170: 4349 50be 57cc 1bbe cbff 043d a14d 34be
00000180: 60ae fcbd c25e 84bd 3d40 833e e3d9 ae3d
00000190: 6b5f 0d3e 30c2 86be f512 acbe 68b0 6dbf
000001a0: 94df 1b3e c558 c13e 0bc6 5dbb 8287 ac3e
000001b0: c8ab aa3e 4b5b a63d 4ecd d33d 8aca 9f3e
000001c0: 1a96 a0bd 809e a8be 17c9 5e3e ca5d c83e
000001d0: 0bc5 713e ecf8 a23b 03aa 8cbd f64d a43d
000001e0: 0357 9cbd 6b67 7b3d 6abf 773b 7212 a33b
000001f0: 3a1a acbd d44b adbd 3205 0e3c a563 893d
00000200: 3529 86bc 34ce 403d 124e 013d 03ac 09bb
00000210: db56 263e 39e0 183e cf0e 183e f971 b8bd
00000220: 79b7 8a3d 887f 3abe 1cf3 24bd 5926 09be
00000230: 4aa9 5ebe 61a6 cfbc f4af 05be 0b7a 27be
00000240: f319 4dbe 7b51 963e 240a e33e 78a9 5c3e
00000250: db4e 08be 3621 af3d b241 0c3e bbd0 dd3e
00000260: 6265 d03b 69fe 09be 3d9b e2bd d127 bf3e
00000270: 72c6 97be a215 b33e cb39 463e c284 003e
00000280: 0800 043e 90e7 68be bba0 583e 15a6 13bf
00000290: d552 9b3d a7fa 653d 95c4 2f3f c8af 6abe
000002a0: df3e 113e a684 05bd 3624 f53d be13 c3bd
000002b0: ee51 053d ad82 85bd 0796 9d3d 6e72 153d
000002c0: 619b e0bc c721 babc c0f2 e93d acb9 e73c
000002d0: 2bc4 1b3e ed14 03be 1bb6 e8bc 2349 40be
000002e0: 1140 50bd b173 6abc c8d5 933e 57f4 29be
000002f0: b4b0 67bd 3651 25be 55aa bebe 6f39 96bc
00000300: ff50 9a3e 5c0c 33bd 322e 49be 2c6b 55be
00000310: 259b 563e 1499 643e 5e5b 1b3f c3c4 043f
00000320: 1f55 b53d 9966 5c3e 3499 9cbe a315 3c3c
00000330: a307 62be 34cb e2bd 0341 45be 27ce e0be
00000340: dfed 58be 972a 2fbe 288f 843e ee17 0cbb
00000350: 7ccb 923e ba68 92be d76f 813c 7b40 26be
00000360: dc8d 303d 6a04 8fbd 0b4c 303d 12ff 24be
00000370: 0d1e 6b3d 7ed6 3b3d da11 eabd 7a56 643d
00000380: a8b3 4f3d 4371 cebc 95bd 3fbd aa63 833c
00000390: 23c3 0b3e 93f9 673e 6a7d bebd 9a76 52be
000003a0: fa16 dfbd f7f2 823d 3628 263c 5f20 9e3d
000003b0: 4ae5 cebd 7810 56be 272e 813d 6e28 d13e
000003c0: 07cd 25be 2967 cb3d 755f bdbe 560f 513e
000003d0: bb7c 2abd 6716 983e 8a89 8b3c f473 e4bd
000003e0: 8d3d f7bc cd84 2a3d 4d4a c5be 1009 0f3d
000003f0: f888 693e 4df7 183f 4101 a7bd 21ff 603d

actor.0.bias f4 [128]
-0.1959919 -0.11019921 0.08074743 0.009215372 0.15264402 0.07410203 -0.07412505 0.042351693
0.009350643 0.034302864 -0.054657705 0.010900458 -0.064031884 -0.07435312 -0.030580753 -0.02667426
0.057346486 -0.10924263 -0.018306369 -0.035658922 -0.03166149 0.04306784 -0.08170903 -0.2468942
-0.088946864 -0.05506562 0.045922965 0.035200417 -0.12392228 0.012921137 0.0042614294 -0.006694157
0.1845491 0.11370245 -0.010268999 0.043700956 0.056452632 -0.06305018 -0.1171366 -0.08954035
0.032365087 -0.03242262 0.052939046 0.07687937 -0.035444044 0.04672457 -0.052739017 0.08815138
-0.18237917 0.08414576 -0.00823673 -0.069798134 0.08095088 0.041988775 -0.13184601 -0.027107673
0.029811833 -0.19319437 0.034301963 -0.024464056 -0.059308495 0.05200493 -0.22810382 0.10581449
-0.2308847 -0.15703835 -0.095052935 -0.22469366 -0.11192629 0.00036992907 -0.03526002 -0.052665673
0.003189157 -0.030274905 -0.0005171875 0.024398092 0.12607495 -0.107599005 -0.11406513 -0.0626336
-0.0313048 -0.011013165 0.07606278 -0.07574449 -0.16213913 -0.150156 0.064996235 -0.038657296
0.030826308 0.13441737 -0.059730977 -0.07691807 -0.07771393 -0.018659549 -0.0264299 0.06520957
-0.18971252 -0.1129752 -0.14902095 -0.056906875 0.006622387 -0.03615855 -0.07360703 0.17995444
0.059638955 -0.06187313 -0.090751566 0.079763874 0.12233572 -0.1215887 0.051854193 -0.08612895
0.13722637 -0.14349824 -0.14713258 -0.0014141732 -0.11678964 -0.1714409 0.0064926995 -0.04435519
0.17922325 0.018272733 -0.06039649 -0.010286063 0.0022576335 -0.081473 0.006965173 0.028189402
00000000: 1ab2 48be 20b0 e1bd e95e a53d 12fc 163c
00000010: b74e 1c3e cec2 973d e0ce 97bd f878 2d3d
00000020: 7033 193c 2981 0c3d c2e0 5fbd d697 323c
00000030: 2623 83bd 7346 98bd 7d84 fabc fa83 dabc
00000040: 26e4 6a3d 9aba dfbd 3df7 95bc 170f 12bd
00000050: 7baf 01bd e767 303d 1057 a7bd d5d1 7cbe
00000060: c629 b6bd 7d8c 61bd b819 3c3d 502e 103d
00000070: f7ca fdbd 2db3 533c 76a3 8b3b a95a dbbb
00000080: 70fa 3c3e d5dc e83d 4e3f 28bc c6ff 323d
00000090: e03a 673d 7420 81bd 50e5 efbd ee60 b7bd
000000a0: 4191 043d 95cd 04bd 9dd6 583d ee72 9d3d
000000b0: c62d 11bd 4362 3f3d de04 58bd b688 b43d
000000c0: 9bc1 3abe 9d54 ac3d 59f3 06bc 53f2 8ebd
000000d0: 93c9 a53d 6cfc 2b3d a402 07be e910 debc
000000e0: f237 f43c bfd4 45be 3780 0c3d d868 c8bc
000000f0: 77ed 72bd 1f03 553d 0c94 69be 44b5 d83d
00000100: 0a6d 6cbe a9ce 20be 1dab c2bd 1816 66be
00000110: 9c39 e5bd 0af3 c139 d06c 10bd f6b7 57bd
00000120: 2d01 513b 1403 f8bc de93 07ba 82de c73c
00000130: cb19 013e de5c dcbd fb9a e9bd 0b46 80bd
00000140: 7639 00bd 9070 34bc cec6 9b3d ed1f 9bbd
00000150: cd07 26be 7fc2 19be bf1c 853d 1d57 1ebd
00000160: 7487 fc3c b5a4 093e 78a8 74bd 3987 9dbd
00000170: 7b28 9fbd e9db 98bc 8583 d8bc 988c 853d
00000180: 0044 42be 8b5f e7bd f398 18be 2f17 69bd
00000190: 9c00 d93b fd1a 14bd 48bf 96bd fa45 383e
000001a0: fa47 743d ae6e 7dbd f5db b9bd 3e5b a33d
000001b0: 268b fa3d 7f03 f9bd 1065 543d 6064 b0bd
000001c0: 1285 0c3e 34f1 12be eca9 16be c75b b9ba
000001d0: 682f efbd 348e 2fbe b6c0 d43b caad 35bd
000001e0: 4d86 373e b3b0 953c 4f62 77bd e086 28bc
000001f0: cef4 133b 51db a6bd 1b3c e43b 76ed e63c

actor.2.weight f4 [128, 128]
0.11723946 0.10598474 0.069751464 -0.05829713 0.09717673 -0.01778553 -0.014807102 0.067408256
0.077990234 -0.1590889 0.22033624 0.088969536 -0.09561819 -0.02938458 0.12651952 0.08521028
0.0018877777 0.076269954 -0.016342232 -0.014516539 -0.087593816 0.049592935 -0.1347309 0.18578333
0.042499267 0.064284034 0.059730127 0.03390086 -0.09236052 -0.014396087 -0.054982066 0.0832668
-0.12506367 0.020802854 0.025977055 -0.07794267 0.024946092 0.08811775 -0.00706851 0.05953963
-0.002202371 -0.031094784 0.11964165 0.092413634 0.07100452 -0.16617505 -0.09845555 -0.054043572
-0.016071675 -0.020031746 0.024720214 0.0012182485 -0.0041517997 -0.08986461 0.016731068 -0.080641694
-0.10728221 0.089716494 0.0076927342 0.0498204 -0.19399433 -0.10767598 0.12889798 -0.10365122
0.10243171 0.15936871 -0.12253842 0.06627602 0.08605485 0.07204624 -0.04359934 -0.06316954
0.03016917 -0.12275994 0.073598824 0.08505093 0.0050892606 -0.073591 -0.11111034 0.057858467
-0.15643619 0.109355755 -0.07022037 0.14308448 0.018345028 -0.09097947 0.03885604 0.08930586
0.07726152 0.04343623 -0.048925504 -0.07400895 0.06512387 -0.0019347968 0.0379741 0.17449114
-0.054618064 -0.04940141 0.11362071 -0.049764052 0.048407964 0.07293151 -0.082901545 0.0075066816
0.014278371 -0.033999145 0.045317795 0.052514154 -0.020513898 0.17972182 0.071371324 0.1441178
-0.029549297 0.041253515 -0.18851441 -0.047774266 0.1893746 -0.05102142 -0.0166234 0.16389483
0.0128271645 -0.09687369 0.14088832 -0.25439787 0.14680927 -0.07180229 -0.039736222 0.032425575
0.148222 0.030149732 -0.036800392 0.008121121 0.12464372 0.085872695 0.0031963054 0.11736238
-0.14218861 0.055786084 -0.08071472 -0.14902201 0.045994613 -0.08854998 -0.10440621 0.041576073
0.07337647 -0.11489006 -0.05416714 0.114370264 -0.078193724 -0.23364122 0.12594567 -0.08930167
0.044458024 -0.096251905 0.05556996 -0.11810672 -0.0013933501 -0.16391106 -0.034284167 -0.0075167194
0.19217232 0.024565788 -0.11784147 -0.2476298 0.01193855 0.06330058 -0.07072192 -0.009845913
0.028541652 -0.1059945 0.11164664 0.080487296 0.059755553 -0.18282428 -0.09774722 0.02852665
-0.10709379 -0.020949835 0.05318542 0.0067550316 -0.10204966 0.0009358645 0.10092616 -0.039685205
0.10970087 -0.059080012 -0.15160483 0.03513923 -0.0024111294 0.04960421 -0.012194025 0.0668064
0.08181088 -0.09111022 -0.043204546 -0.096632734 -0.01662123 -0.03854634 0.049524043 -0.01728857
-0.0674038 0.10944028 -0.098490715 -0.09714197 -0.10494837 0.06620765 0.10247314 -0.07696403
0.0075196065 -0.038016148 0.117583916 -0.13252386 -0.09646837 0.037079703 -0.04527623 0.093977496
-0.105304204 0.120173074 0.084434874 0.15819931 0.045817085 -0.11723292 -0.007963824 0.055736236
-0.02094743 -0.1387755 0.12369736 -0.026299616 0.09293845 -0.07218897 -0.056963816 0.09789539
-0.09243181 -0.077086195 -0.12192288 -0.10968871 -0.011186892 -0.109406464 0.017574672 0.11484112
0.07193152 -0.041274987 -0.017277578 0.057183728 -0.12348685 -0.010988358 -0.00326236 0.020201929
0.030026836 -0.11427389 -0.029642152 -0.13715696 -0.096001245 -0.1247789 -0.08720013 0.025612272
00000000: 3e1b f03d 870e d93d dbd9 8e3d f9c8 6ebd
00000010: 9804 c73d f6b2 91bc 7d99 72bc 570d 8a3d
00000020: 58b9 9f3d 33e8 22be d39f 613e a935 b63d
00000030: 78d3 c3bd eeb7 f0bc 558e 013e ba82 ae3d
00000040: 4f6f f73a 6c33 9c3d 25e0 85bc c7d6 6dbc
00000050: 6364 b3bd f621 4b3d e6f6 09be fc3d 3e3e
00000060: b613 2e3d 59a7 833d 94a7 743d a1db 0a3d
00000070: 8327 bdbd 91dd 6bbc e034 61bd c987 aa3d
00000080: b110 00be bf6a aa3c d5cd d43c 68a0 9fbd
00000090: bf5b cc3c 1477 b43d f69e e7bb d4df 733d
000000a0: a755 10bb 7dba febc ae06 f53d 5c43 bd3d
000000b0: d16a 913d cb29 2abe 10a3 c9bd cb5c 5dbd
000000c0: bfa8 83bc 9e19 a4bc 0c82 ca3c a3ad 9f3a
000000d0: d20b 88bb f00a b8bd 980f 893c 7927 a5bd
000000e0: c6b6 dbbd 48bd b73d 5513 fc3b 7a10 4c3d
000000f0: 73a6 46be 3985 dcbd d5fd 033e 1747 d4bd
00000100: b7c7 d13d 8d31 233e 6cf5 fabd b9bb 873d
00000110: 863d b03d fb8c 933d 3995 32bd 085f 81bd
00000120: 5625 f73c 9069 fbbd fbba 963d 2f2f ae3d
00000130: d0c3 a63b e1b6 96bd d18d e3bd 00fd 6c3d
00000140: cf30 20be e9f5 df3d b3cf 8fbd bd84 123e
00000150: 5048 963c 7253 babd 8327 1f3d fee5 b63d
00000160: 4a3b 9e3d 30ea 313d 1c66 48bd 0192 97bd
00000170: aa5f 853d 0299 fdba bb8a 1b3d cead 323e
00000180: 31b7 5fbd 2259 4abd fab1 e83d 64d5 4bbd
00000190: 6e47 463d 1e5d 953d 49c8 a9bd 9cfa f53b
000001a0: d4ef 693c b042 0bbd 279f 393d 1519 573d
000001b0: c30c a8bc ff08 383e 212b 923d 9e93 133e
000001c0: 5e11 f2bc 72f9 283d ec09 41be f3ae 43bd
000001d0: 6aeb 413e d6fb 50bd cc2d 88bc 0cd4 273e
000001e0: 0729 523c b765 c6bd 0745 103e 7040 82be
000001f0: 2b55 163e 140d 93bd 73c2 22bd aed0 043d
00000200: 82c7 173e 92fc f63c 02bc 16bd 730e 053c
00000210: 3545 ff3d 06de af3d 1b79 513b b05b f03d
00000220: e499 11be f37f 643d c24d a5bd 3a99 18be
00000230: d964 3c3d b159 b5bd ecd2 d5bd ac4b 2a3d
00000240: 6746 963d 7b4b ebbd 5dde 5dbd f53a ea3d
00000250: 0824 a0bd a53f 6fbe e7f7 003e cbe3 b6bd
00000260: 9e19 363d b81f c5bd 549d 633d f0e1 f1bd
00000270: 12a1 b6ba 4dd8 27be 8e6d 0cbd d04e f6bb
00000280: d2c8 443e 313e c93c de56 f1bd ab92 7dbe
00000290: e899 433c bca3 813d a7d6 90bd c150 21bc
000002a0: 2fd0 e93c a513 d9bd fea6 e43d 86d6 a43d
000002b0: 3dc2 743d 4a36 3bbe b22f c8bd b9b0 e93c
000002c0: fd53 dbbd fd9e abbc f4d8 593d 5059 dd3b
000002d0: 6aff d0bd ce54 753a 60b2 ce3d f48c 22bd
000002e0: daaa e03d e2fd 71bd 4c3e 1bbe 27ee 0f3d
000002f0: 0a04 1ebb c92d 4b3d 73c9 47bc cbd1 883d
00000300: 768c a73d ff97 babd 40f7 30bd 62e7 c5bd
00000310: 3f29 88bc c4e2 1dbd b9d9 4a3d c2a0 8dbc
00000320: 010b 8abd 3a22 e03d 80b5 c9bd 5ff2 c6bd
00000330: 2cef d6bd e097 873d 70dd d13d 519f 9dbd
00000340: 0867 f63b d2b6 1bbd d6cf f03d 56b4 07be
00000350: 3591 c5bd e3e0 173d 9173 39bd 4677 c03d
00000360: bba9 d7bd 4d1d f63d 31ec ac3d 00ff 213e
00000370: b2aa 3b3d d017 f0bd b37a 02bc ae4b 643d
00000380: f299 abbc 2a1b 0ebe 0b55 fd3d 4b72 d7bc
00000390: 8456 be3d d0d7 93bd e452 69bd 617d c83d
000003a0: e44c bdbd 5edf 9dbd b4b2 f9bd 79a4 e0bd
000003b0: 3a49 37bc 7f10 e0bd c2f8 8f3c d231 eb3d
000003c0: d550 933d f60f 29bd b589 8dbc 7c39 6a3d
000003d0: ace6 fcbd 8408 34bc 52cd 55bb 847e a53c
000003e0: d7fa f53c 6e08 eabd 19d4 f2bc e072 0cbe
000003f0: 4d9c c4bd 148c ffbd fb95 b2bd d4d0 d13c

actor.2.bias f4 [128]
-0.15748031 0.00958183 -0.15150903 -0.10742876 0.023674294 -0.08496097 0.016812392 -0.09987108
-0.031870484 0.032641284 -0.15601368 -0.09157147 -0.05070223 -0.028783564 -0.07155681 -0.10962337
-0.10427851 -0.034331575 -0.013342819 -0.093647264 -0.012846807 -0.038104907 -0.038296003 -0.118640035
-0.103131935 -0.17658491 -0.08225082 -0.08209643 -0.018638987 -0.20178173 -0.034044087 -0.0019538386
0.0064801294 -0.109709494 0.0025450985 -0.15472442 -0.04198482 -0.049569577 0.06448711 -0.052287627
-0.16733947 -0.0009685679 -0.010147233 -0.090866715 -0.11233104 -0.03893424 -0.041584954 -0.21126615
-0.04307762 -0.04978395 -0.09443863 -0.16850062 -0.119614385 -0.039805427 -0.0551919 -0.19893302
-0.026705395 -0.13246705 -0.0801415 -0.037797492 0.051183816 -0.06019591 0.06245511 0.054471966
0.0009622103 -0.18698506 -0.008020089 -0.11359432 -0.1331755 0.061923068 -0.014545835 0.08636766
-0.07258701 -0.032845218 -0.062177714 -0.045117952 0.11737737 -0.08359579 -0.027853733 -0.15190433
-0.041060142 0.052671343 -0.07739461 -0.11708893 0.02132999 -0.06596711 -0.081033446 -0.017026579
-0.019237088 -0.07023697 0.025175096 0.09593006 0.005346014 -0.0040492034 -0.065294504 -0.08614157
-0.09062454 -0.084669776 0.0870276 0.041940562 -0.1596633 -0.046625134 -0.04895455 0.020865504
-0.103324436 -0.07600152 -0.1510759 -0.007775312 -0.064533845 0.0134107 -0.15222384 -0.083591744
-0.05999723 0.0047270544 -0.02563791 -0.029932046 -0.063288294 -0.0014441144 -0.0038572203 -0.21473452
-0.11544044 -0.006304823 -0.13511266 -0.12341304 0.07167133 0.08903757 -0.17113973 -0.040500004
00000000: 8542 21be 1cfd 1c3c 2f25 1bbe 9c03 dcbd
00000010: 98f0 c13c 0400 aebd 24ba 893c 3589 ccbd
00000020: a08a 02bd deb2 053d 0dc2 1fbe d389 bbbd
00000030: 24ad 4fbd 82cb ebbc 608c 92bd 3882 e0bd
00000040: f98f d5bd 449f 0cbd d79b 5abc 23ca bfbd
00000050: 6a7b 52bc e413 1cbd 45dc 1cbd 8cf9 f2bd
00000060: d636 d3bd add2 34be 1e73 a8bd 2c22 a8bd
00000070: cab0 98bc df9f 4ebe d071 0bbd f90b 00bb
00000080: 4457 d43b 5faf e0bd abcb 263b 1470 1ebe
00000090: 46f8 2bbd 7809 4bbd d111 843d 8d2b 56bd
000000a0: 0a5b 2bbe 7ee7 7dba 9440 26bc 5418 babd
000000b0: d10d e6bd 8279 1fbd fc54 2abd 2756 58be
000000c0: 2972 30bd 41ea 4bbd 0a69 c1bd 6d8b 2cbe
000000d0: 63f8 f4bd 040b 23bd e710 62bd 19b5 4bbe
000000e0: 46c5 dabc 71a5 07be 3a21 a4bd 8bd1 1abd
000000f0: 1fa6 513d fd8f 76bd eed0 7f3d ff1d 5f3d
00000100: d73c 7c3a 0379 3fbe b166 03bc 24a4 e8bd
00000110: 295f 08be 0ba3 7d3d a751 6ebc 87e1 b03d
00000120: 80a8 94bd b588 06bd 0fae 7ebd 9acd 38bd
00000130: 8c63 f03d 4534 abbd 832d e4bc cf8c 1bbe
00000140: ae2e 28bd e8bd 573d 1181 9ebd 52cc efbd
00000150: 3bbc ae3c c419 87bd ddf4 a5bd 537b 8bbc
00000160: 1997 9dbc 67d8 8fbd 013c ce3c fb76 c43d
00000170: 9e2d af3b 2eaf 84bb 20b9 85bd fe6a b0bd
00000180: 5c99 b9bd 5967 adbd 873b b23d dec9 2b3d
00000190: c77e 23be fff9 3ebd 9184 48bd 22ee aa3c
000001a0: c39b d3bd afa6 9bbd a4b3 1abe 0bc8 febb
000001b0: 522a 84bd 8db8 5b3c 91e0 1bbe 2632 abbd
000001c0: a8bf 75bd 68e5 9a3b 9806 d2bc 0d34 f5bc
000001d0: 4b9d 81bd 7048 bdba 6bc9 7cbb 5ee3 5bbe
000001e0: 0a6c ecbd b098 cebb f95a 0abe fabf fcbd
000001f0: 6bc8 923d 5459 b63d 413f 2fbe 55e3 25bd

actor.4.weight f4 [128, 128]
-0.013620392 -0.036622502 -0.014537249 0.039294068 0.037570924 0.28094745 0.023328433 -0.18802693
-0.043834787 0.115354896 0.03879633 0.10756636 0.10883611 -0.12046285 -0.063947685 0.042871155
-0.037732944 0.023064958 0.09405233 -0.13368288 0.18625925 -0.3116722 -0.06701123 0.02893682
-0.021475662 -0.1915731 0.09624925 -0.0389661 -0.0058092135 -0.041558653 0.085579775 -0.10948244
0.101402484 0.13243012 -0.1861764 0.057483017 0.18497665 -0.10816593 -0.042420212 0.051441744
0.097632386 -0.3107861 -0.16642599 -0.17977759 -0.22691585 0.09544496 -0.075721025 -0.026861547
0.06828805 -0.046227824 0.002047167 -0.11807989 -0.21576717 -0.043624803 -0.06532634 -0.081501
-0.07808118 0.053641915 -0.09689733 0.0014664807 -0.03916997 -0.13187811 0.062250577 -0.01355678
0.089114875 -0.001239397 -0.0076640453 0.016034957 0.26126537 0.1596695 0.12124197 -0.02081645
-0.15466104 -0.13321759 0.0028698684 0.092240244 0.02599963 0.02987658 -0.014005666 0.008709803
0.12675191 0.024541019 0.116257384 0.018542988 0.11177719 0.18148363 0.16163021 -0.0334318
0.112434745 -0.095562264 -0.040673222 -0.04391838 -0.03720906 -0.23266351 0.018396148 -0.038498405
0.03820836 0.029553657 -0.12943207 -0.0045124344 0.14605726 -0.17559926 -0.075186685 -0.016353035
0.019879 0.03206711 0.03782512 0.019952953 -0.08474746 -0.053532396 -0.08179052 -0.06645583
-0.10928718 -0.06613338 -0.0114594735 -0.004031049 -0.16385223 -0.005051223 0.1385917 0.079391785
0.094527744 -0.029680343 -0.10991271 0.1062767 -0.13017507 -0.25034022 0.06428365 0.19679
-0.03463307 -0.023618093 0.013801037 -0.073116995 -0.062010624 -0.30852926 -0.12528858 -0.03844533
0.020110518 0.08007131 -0.014887931 0.021355398 0.08471071 0.06615095 -0.007681897 0.07429205
0.094388865 0.023234952 0.04503966 -0.13055655 -0.055462934 -0.058463313 -0.041457288 -0.032677542
-0.024029225 0.08531429 -0.28811613 -0.055868693 -0.13012591 0.060132366 0.0066322447 0.06669184
-0.041605163 -0.11946541 -0.066287324 0.20320094 -0.16686662 -0.07435467 -0.02147453 -0.057288658
0.036060583 -0.04443586 0.047626365 -0.011035319 -0.09622193 0.019734899 0.071061395 0.12636244
0.061931025 -0.012525755 0.017049752 0.08200611 -0.019490646 0.15559337 -0.09716818 0.0042526703
-0.041673884 0.11336228 -0.03890033 0.043491524 -0.10790084 -0.124025114 0.16935542 0.09516819
0.091141485 -0.005695188 -0.07281663 0.19384362 0.078169316 -0.1526432 0.028211787 0.10996522
0.08755548 -0.05910962 -0.061187927 -0.026960684 -0.094804175 -0.048641615 0.036163818 0.0744794
-0.112052076 -0.18167251 0.09521587 0.050724298 -0.05597737 -0.13096274 -0.0024601927 -0.05705185
0.07387278 0.1435432 -0.07891536 0.0075070933 0.030804975 0.11644378 -0.058723304 0.05202376
0.105274536 -0.023205882 -0.052830677 -0.03948031 -0.059366155 -0.10772691 -0.15355551 -0.09304578
-0.03887236 0.06543887 0.12947327 0.011008397 -0.12433832 -0.016096788 -0.059382774 0.0044420934
0.065017894 -0.14192925 -0.12145988 0.12891738 -0.22765595 -0.08261688 -0.1153025 0.042306833
-0.09752572 -0.009446161 0.06947529 -0.028574644 -0.24318258 -0.0050190114 0.11508263 0.07035198
00000000: 1128 5fbc 7a01 16bd a42d 6ebc d1f2 203d
00000010: f8e3 193d 58d8 8f3e 451b bf3c 228a 40be
00000020: 1b8c 33bd 303f ec3d e7e8 1e3d c04b dc3d
00000030: 77e5 de3d 3ab5 f6bd 01f7 82bd aa99 2f3d
00000040: dc8d 1abd b9f2 bc3c 829e c03d 2ae4 08be
00000050: bfba 3e3e 8093 9fbe 2f3d 89bd e90c ed3c
00000060: baed afbc bd2b 44be 541e c53d eb9a 1fbd
00000070: 375b bebb 6839 2abd 7344 af3d 5438 e0bd
00000080: 1bac cf3d c39b 073e 07a5 3ebe 5073 6b3d
00000090: 856a 3d3e 1986 ddbd d1c0 2dbd 94b4 523d
000000a0: 7df3 c73d 5b1f 9fbe 936b 2abe 9e17 38be
000000b0: a15c 68be a678 c33d a013 9bbd bf0c dcbc
000000c0: 9bda 8b3d 6359 3dbd c329 063b dfd3 f1bd
000000d0: 12f2 5cbe ecaf 32bd d1c9 85bd ffe9 a6bd
000000e0: 07e9 9fbd a0b7 5b3d 1b72 c6bd ed36 c03a
000000f0: b170 20bd 0e0b 07be 76fa 7e3d 421d 5ebc
00000100: dc81 b63d 4373 a2ba ac22 fbbb be5b 833c
00000110: 93c4 853e 6780 233e b64d f83d 4287 aabc
00000120: 775f 1ebe 316a 08be 6714 3c3b 74e8 bc3d
00000130: 2dfd d43c bbbf f43c 0578 65bc 90b3 0e3c
00000140: 41cb 013e 3f0a c93c 5a18 ee3d 77e7 973c
00000150: 70eb e43d d8d6 393e 6482 253e c8ef 08bd
00000160: 3044 e63d 26b6 c3bd f798 26bd c2e3 33bd
00000170: 8768 18bd 583f 6ebe 85b3 963c 81b0 1dbd
00000180: 5f80 1c3d 831a f23c d789 04be 0bdd 93bb
00000190: 0990 153e 4bd0 33be 7afb 99bd cdf6 85bc
000001a0: 49d9 a23c cd58 033d 83ee 1a3d 6074 a33c
000001b0: 1490 adbd c944 5bbd ca81 a7bd ff19 88bd
000001c0: f5d1 dfbd f070 87bd 84c0 3bbc e416 84bb
000001d0: e1c8 27be bb84 a5bb fcea 0d3e 2998 a23d
000001e0: c397 c13d 3124 f3bc ea19 e1bd 99a7 d93d
000001f0: 9d4c 05be 982c 80be 25a7 833d 5183 493e
00000200: 68db 0dbd bb7a c1bc bf1d 623c 5dbe 95bd
00000210: dafe 7dbd 8cf7 9dbe a64b 00be da78 1dbd
00000220: d0be a43c 6dfc a33d 82ec 73bc 84f1 ae3c
00000230: cf7c ad3d 267a 873d 6cb8 fbbb 6e26 983d
00000240: f34e c13d 3a57 be3c 827b 383d 9eb0 05be
00000250: 1a2d 63bd 3a77 6fbd 1ecf 29bd e3d8 05bd
00000260: f0d8 c4bc 42b9 ae3d f583 93be 92d6 64bd
00000270: ba3f 05be 5b4d 763d 4d53 d93b bb95 883d
00000280: 2d6a 2abd 48aa f4bd a6c1 87bd e813 503e
00000290: 15df 2abe 4347 98bd 5beb afbc 83a7 6abd
000002a0: 43b4 133d 6002 36bd dd13 433d 7ccd 34bc
000002b0: 0110 c5bd 15ab a13c a388 913d 2865 013e
000002c0: 63ab 7d3d d338 4dbc ecab 8b3c d2f2 a73d
000002d0: d9aa 9fbc de53 1f3e 1c00 c7bd fc59 8b3b
000002e0: 3cb2 2abd 7c2a e83d f455 1fbd 2b24 323d
000002f0: 1efb dcbd e100 febd 826b 2d3e 8ae7 c23d
00000300: 63a8 ba3d b39e babb e320 95bd f17e 463e
00000310: 3c17 a03d 804e 1cbe 681c e73c 7235 e13d
00000320: 4a50 b33d ee1c 72bd 31a0 7abd a7dc dcbc
00000330: b128 c2bd 6e3c 47bd 8320 143d a888 983d
00000340: 8f7b e5bd 5c08 3abe 8a00 c33d 48c4 4f3d
00000350: 8748 65bd 191b 06be 2f3b 21bb 33af 69bd
00000360: 9d4a 973d fdfc 123e 609e a1bd 10fe f53b
00000370: b75a fc3c 147a ee3d d987 70bd de16 553d
00000380: 2d9a d73d 431a bebc fb64 58bd 1bb6 21bd
00000390: ed29 73bd ed9f dcbd a83d 1dbe c98e bebd
000003a0: a038 1fbd d004 863d a494 043e 905c 343c
000003b0: 17a5 febd 69dd 83bc 5a3b 73bd fb8e 913b
000003c0: 1a28 853d e755 11be f5bf f8bd eb02 043e
000003d0: a41e 69be 0a33 a9bd b823 ecbd ee49 2d3d
000003e0: 91bb c7bd 12c4 1abc 1049 8e3d 5f15 eabc
000003f0: db04 79be 8576 a4bb 71b0 eb3d b314 903d

actor.4.bias f4 [128]
-0.09326089 0.018384494 -0.15099859 -0.17315972 -0.048244946 -0.15593775 0.04224613 -0.111307405
-0.013315721 -0.18780261 -0.2624817 -0.1833748 -0.01140223 0.13029295 0.019049944 0.14506665
-0.045827236 0.13099274 0.15142587 -0.1780801 0.041872524 -0.0318665 -0.049228817 0.051264647
-0.07944204 -0.008100767 -0.07477983 -0.13899599 0.14489146 -0.010207438 0.0716438 -0.043476276
-0.105597965 0.031811427 0.0067720716 -0.08087881 -0.17628734 -0.2269616 0.019459514 -0.11328222
0.052805908 0.056627087 -0.20275234 -0.07558218 -0.192186 -0.0774439 0.03452014 -0.051746175
0.08121806 -0.20826231 -0.049453106 0.025041113 0.06871306 -0.06616271 -0.0035949084 0.117863126
0.015173933 0.10305669 -0.01045413 -0.10109173 -0.17779756 -0.050557543 -0.0710927 -0.04556456
0.031607267 -0.09065374 -0.046680074 -0.03336314 -0.0140005145 0.046438236 0.00835201 -0.17596199
-0.12047905 0.045438528 -0.07916333 -0.10483193 0.07302105 -0.024786359 -0.09213636 -0.027379941
-0.07690961 0.043075476 0.023533277 0.0006369427 -0.04981847 -0.15504406 -0.018291391 0.079448156
0.05995561 -0.031928167 0.11219379 -0.011860351 -0.172765 -0.06917993 -0.23618944 -0.15151604
0.0842522 0.032431096 -0.018312695 0.110114105 -0.18880394 -0.065107025 -0.10626368 -0.09801629
-0.038888793 -0.06905508 -0.08667268 -0.0010103679 -0.10457036 0.012066347 -0.1951505 -0.05380499
0.17623909 -0.18507794 0.101567 -0.11391109 -0.23017064 -0.13116166 -0.19461177 -0.14640105
-0.15728483 -0.1953043 0.122784905 0.013833209 -0.008370235 0.17990229 -0.205466 -0.10458833
00000000: 91ff bebd 149b 963c 609f 1abe c850 31be
00000010: 7e9c 45bd 25ae 1fbe 470a 2d3d 23f5 e3bd
00000020: 2f2a 5abc 544f 40be 0064 86be 9bc6 3bbe
00000030: 6bd0 3abc 846b 053e a10e 9c3c 5a8c 143e
00000040: 57b5 3bbd f622 063e 620f 1b3e a15a 36be
00000050: 8682 2b3d 7286 02bd 28a4 49bd e1fa 513d
00000060: 82b2 a2bd 14b9 04bc 2b26 99bd f754 0ebe
00000070: 6d5e 143e 193d 27bc fcb9 923d 2e14 32bd
00000080: bf43 d8bd b34c 023d 41e8 dd3b caa3 a5bd
00000090: ab84 34be 9f68 68be 8f69 9f3c 8200 e8bd
000000a0: 024b 583d cef1 673d 4f9e 4fbe d4ca 9abd
000000b0: 68cc 44be e89a 9ebd fe64 0d3d ccf3 53bd
000000c0: a755 a63d b742 55be 578f 4abd 0523 cd3c
000000d0: 6fb9 8c3d 5180 87bd 8e98 6bbb 3962 f13d
000000e0: 169c 783c 630f d33d cd47 2bbc 2e09 cfbd
000000f0: 9010 36be 6d15 4fbd 0d99 91bd e7a1 3abd
00000100: 9f76 013d aba8 b9bd 9b33 3fbd caa7 08bd
00000110: 6a62 65bc 0536 3e3d ded6 083c 612f 34be
00000120: b8bd f6bd c01d 3a3d 6220 a2bd 1fb2 d6bd
00000130: 0f8c 953d c30c cbbc fdb1 bcbd e64b e0bc
00000140: c982 9dbd e96f 303d dcc8 c03c 80f8 263a
00000150: 740e 4cbd dfc3 1ebe d4d7 95bc b7b5 a23d
00000160: 0494 753d 1cc7 02bd dcc5 e53d eb51 42bc
00000170: 4fe9 30be 35ae 8dbd a5db 71be 0527 1bbe
00000180: 6b8c ac3d 78d6 043d 8104 96bc 8183 e13d
00000190: d255 41be d556 85bd c6a0 d9bd c4bc c8bd
000001a0: db49 1fbd c06c 8dbd 7281 b1bd 526e 84ba
000001b0: fc28 d6bd edb1 453c 88d5 47be 9f62 5cbd
000001c0: 0578 343e 1285 3dbe 5c02 d03d 384a e9bd
000001d0: dab1 6bbe 3e4f 06be 4f48 47be 28ea 15be
000001e0: 460f 21be dafd 47be a776 fb3d afa4 623c
000001f0: 4f23 09bc 4e38 383e ae65 52be 6832 d6bd

actor.6.weight f4 [12, 128]
0.101978995 -0.06041382 0.05337247 -0.08240109 -0.018181942 0.002757392 -0.044644427 0.006828461
-0.044178512 0.11600617 0.0049995715 0.011295194 -0.02048933 -0.09452859 -0.050628923 0.038555678
-0.010146151 -0.047957126 -0.036676884 0.019588351 -0.030819956 0.056505658 -0.017626323 -0.0034910128
-0.02403525 -0.004898096 -0.02225699 0.05175878 0.03348955 0.021125691 -0.0102855 0.0073860954
-0.009676572 0.005703747 -0.07741657 0.0039003973 -0.038559355 -0.0010586801 -0.057603445 -0.026287578
-0.0073394803 0.0003812926 -0.23188643 -0.021961993 -0.050367594 -0.021986386 -0.017534137 0.014539429
-0.036161367 0.11010475 -0.0031753373 -0.001467245 -0.0334174 0.015745556 -0.031648934 -0.010376552
-0.005130013 -0.07657687 0.028954402 -0.03098824 0.018805021 0.041094642 0.0088286055 -0.10165016
0.023960067 -0.023267759 0.047967378 -0.020921504 0.07073947 0.024139475 -0.00038187916 0.06704073
0.03275446 -0.049586773 -0.025176957 0.01835864 -0.01584059 0.052532412 0.08078859 -0.038918618
0.051826157 -0.016046885 -0.006707135 -0.046685737 -0.024828998 0.03719346 0.076029435 -0.025637686
-0.0043439227 -0.020831864 -0.025827235 -0.0036884567 0.014320564 0.017014766 0.10267643 -0.0029762108
-0.047652353 -0.046071276 0.053269777 -0.079323456 -0.01986596 -0.09173866 -0.0367632 -0.037079718
0.010761133 0.06290742 -0.018220779 -0.03247798 0.13800876 0.04404933 -0.028104316 0.004636695
-0.029950341 -0.020761572 -0.035608675 -0.07082892 0.10330948 0.024413008 0.038171805 -0.0035618448
0.018236173 0.042450376 -0.038702734 -0.05457308 -0.048210543 -0.032594137 0.075518444 0.03977278
-0.023461573 0.013394644 0.011343567 0.045561813 0.06429643 0.038960155 0.05103871 0.0903073
0.017217191 0.06441717 0.107790135 0.032601565 0.016000295 -0.064416505 -0.001237998 -0.07911143
-0.013278583 -0.00066894636 -0.05715175 -0.15912628 -0.02122756 -0.036870256 0.04129244 -0.041011777
0.033369757 -0.0035657745 0.015184628 -0.019486086 -0.06865135 -0.040757526 0.006771855 -0.0014990872
-0.00018846554 -9.4429204e-05 0.08276927 -0.010627114 0.023206633 0.08253884 -0.09501064 0.034957215
0.018774182 -0.018621849 0.06890557 0.0008279397 0.0026639006 0.034408864 0.005553246 -0.020164246
0.019304082 0.09989224 -0.0552319 -0.018290324 0.04034786 0.034476463 0.0005852259 -0.053137023
-0.043630607 -0.06447675 -0.0035118756 0.08224347 -0.028836701 -0.026335606 0.01191987 0.059026916
-0.039329465 -0.008888814 -0.05694162 0.016582148 -0.09352278 -0.018100737 0.00872347 0.081095256
-0.0372647 0.05071391 0.020613216 0.024140095 0.03007339 -0.01869515 -0.012699961 0.06761276
0.013965619 0.015827565 -0.037148897 -0.0065496047 0.028663103 0.04105107 -0.013531245 0.021852845
0.018692764 -0.0059516286 0.004514676 -0.00046311825 0.05558797 -0.10796167 0.011185814 0.056512233
-9.8037635e-05 0.0082764765 0.024052927 0.008272529 0.056534864 -0.0022049733 0.014241423 0.06063818
-0.027102584 -0.056963675 0.014894698 -0.012697002 -0.004719582 -0.058744997 -0.0040469323 -0.00963907
-0.052467864 -0.029896012 -0.048507318 -0.14067782 -0.040704936 0.044664342 0.12001148 -0.07525577
0.15401326 0.051197648 -0.010935998 0.024177926 0.09135318 -0.029624274 0.061206777 -0.079282515
00000000: 5dda d03d 7b74 77bd 179d 5a3d e7c1 a8bd
00000010: 4cf2 94bc 5cb5 343b 13dd 36bd 48c1 df3b
00000020: 87f4 34bd a594 ed3d 72d3 a33b 7a0f 393c
00000030: 3dd9 a7bc 3598 c1bd 4660 4fbd 8fec 1d3d
00000040: 0b3c 26bc b16e 44bd 803a 16bd c077 a03c
00000050: 227a fcbc 7a72 673d 1465 90bc 7ac9 64bb
00000060: 93e5 c4bc 3580 a0bb 4b54 b6bc 0401 543d
00000070: 572c 093d c90f ad3c 8484 28bc 0f07 f23b
00000080: 7c8a 1ebc 7fe6 ba3b 948c 9ebd cf9d 7f3b
00000090: 6af0 1dbd 69c3 8aba 97f1 6bbd 0c59 d7bc
000000a0: 0680 f0bb 3ae8 c739 a373 6dbe a3e9 b3bc
000000b0: 404e 4ebd cb1c b4bc c0a3 8fbc c936 6e3c
000000c0: f11d 14bd 997e e13d 5219 50bb 9350 c0ba
000000d0: afe0 08bd d3fc 803c 50a2 01bd 6a02 2abc
000000e0: ab19 a8bb 56d4 9cbd c831 ed3c 0ddb fdbc
000000f0: fd0c 9a3c db52 283d dba5 103c f62d d0bd
00000100: e747 c43c 079c bebc 7179 443d 9363 abbc
00000110: dbdf 903d 26c0 c53c f436 c8b9 a64c 893d
00000120: 8a29 063d 801b 4bbd e83f cebc dc64 963c
00000130: 20c4 81bc 3a2c 573d 7d74 a53d 2169 1fbd
00000140: aa47 543d c274 83bc 87c7 dbbb 8b39 3fbd
00000150: 2f66 cbbc 2b58 183d 52b5 9b3d 2006 d2bc
00000160: 7757 8ebb 96a7 aabc a393 d3bc 09ba 71bb
00000170: cda0 6a3c 8d62 8b3c 0548 d23d 880c 43bb
00000180: 1d2f 43bd 3cb5 3cbd 6931 5a3d 5674 a2bd
00000190: f0bd a2bc 7be1 bbbd 0295 16bd e7e0 17bd
000001a0: 774f 303c 9bd5 803d be43 95bc a107 05bd
000001b0: 2b52 0d3e 126d 343d 063b e6bc 6bef 973b
000001c0: 6b5a f5bc 2c14 aabc 67da 11bd c10e 91bd
000001d0: ec93 d33d cafd c73c 0a5a 1c3d d76d 69bb
000001e0: 0764 953c 72e0 2d3d c286 1ebd 0688 5fbd
000001f0: 6b78 45bd 6e81 05bd 6aa9 9a3d c8e8 223d
00000200: 7c32 c0bc 3575 5b3c 5eda 393c 069f 3a3d
00000210: d9ad 833d af94 1f3d f70d 513d 09f3 b83d
00000220: 110b 8d3c 26ed 833d 13c1 dc3d 3889 053d
00000230: 0d13 833c cdec 83bd 5244 a2ba 2c05 a2bd
00000240: 6a8e 59bc 3b5c 2fba f417 6abd 00f2 22be
00000250: 6be5 adbc 4405 17bd 4322 293d f7fb 27bd
00000260: baae 083d c5af 69bb f2c8 783c 49a1 9fbc
00000270: 1499 8cbd 5df1 26bd 70e6 dd3b 057d c4ba
00000280: d59e 45b9 4b08 c6b8 ef82 a93d 591d 2ebc
00000290: d61b be3c 200a a93d f094 c2bd 4c2f 0f3d
000002a0: 50cc 993c d98c 98bc 5d1e 8d3d 180a 593a
000002b0: d694 2e3b 4ff0 0c3d 01f8 b53b 7d2f a5bc
000002c0: 9823 9e3c 4d94 cc3d d83a 62bd 97d5 95bc
000002d0: cc43 253d 3137 0d3d d869 193a 35a6 59bd
000002e0: 02b6 32bd 630c 84bd 7f27 66bb 446f a83d
000002f0: f23a ecbc c5bd d7bc 8f4b 433c 35c6 713d
00000300: ef17 21bd 63a2 11bc 9e3b 69bd 49d7 873c
00000310: df88 bfbd ff47 94bc e3ec 0e3c 4515 a63d
00000320: dfa2 18bd 64b9 4f3d 0cdd a83c 73c1 c53c
00000330: 785c f63c 9226 99bc 7f13 50bc 8f78 8a3d
00000340: 0dd0 643c cfa8 813c 7129 18bd 119e d6bb
00000350: e2ce ea3c 2b25 283d 28b2 5dbc bd04 b33c
00000360: 9121 993c e105 c3bb d9ef 933b aece f2b9
00000370: 36b0 633d 021b ddbd b444 373c 5f79 673d
00000380: 8e99 cdb8 0f9a 073c a50a c53c 8089 073c
00000390: 1a91 673d 5081 10bb dc54 693c bd5f 783d
000003a0: 3d06 debc be52 69bd e408 743c 1607 50bc
000003b0: b9a6 9abb 989e 70bd 219c 84bb 31ed 1dbc
000003c0: 8be8 56bd 7be8 f4bc 9caf 46bd d90d 10be
000003d0: 38ba 26bd f5f1 363d 94c8 f53d b21f 9abd
000003e0: a7b5 1d3e a0b4 513d e62c 33bc c910 c63c
000003f0: 6017 bb3d 9bae f2bc f5b3 7a3d df5e a2bd

actor.6.bias f4 [12]
-0.10033027 -0.24833903 0.06614863 0.03915784 0.05327466 -0.038779523 0.010620225 0.0060615093
0.045793854 -0.043753542 0.082467005 -0.12977843
00000000: f579 cdbd 964c 7ebe ef78 873d f963 203d
00000010: 8836 5a3d 47d7 1ebd 7400 2e3c a09f c63b
00000020: 5692 3b3d ea36 33bd 76e4 a83d a3e4 04be

critic.0.weight f4 [128, 48]
0.34503514 -0.010028751 -0.11729408 0.008023192 0.016945748 -0.20958005 0.28726113 -0.21014917
0.088501275 -0.47253376 -0.70827204 -0.35988778 0.10483819 -0.01080961 0.16055869 -0.026634598
0.032817833 -0.041115947 0.2056574 0.03706256 0.06141391 -0.1397081 -0.06545675 0.04168446
0.07523265 -0.026146347 -0.0635465 0.005251142 0.04425627 0.020431228 0.008311537 -0.0407156
-0.013865558 0.012018875 0.047455486 0.002523414 -0.04336777 -0.031012077 -0.012368447 -0.02972791
0.10348343 -0.0185432 0.034219164 0.04679968 -0.016428454 -0.076722585 -0.019603351 -0.02305181
-0.3140613 -0.1410754 -0.16671601 0.09998151 0.09493397 0.08415801 1.3047197 -1.0681018
-0.006616864 0.29748392 0.14288643 -0.08457094 0.024217473 0.31833908 0.11817427 0.0011769609
0.30050516 -0.03719128 0.39494923 0.12217276 0.11125322 0.2264792 0.5539207 0.0001426899
0.09472215 -0.13653636 -0.018581826 0.075439215 0.051632535 0.004760291 0.097050786 -0.06459024
0.017293872 -0.006408393 0.02016064 -0.014696802 0.015288164 0.008934406 0.007958605 0.12125284
0.025890347 -0.07547861 -0.011822179 0.044321503 -0.01290974 0.047529574 -0.05244495 0.027625952
-0.09692322 0.1102539 -0.020149235 -0.118887864 -0.14153627 0.25314388 -0.47835764 1.5976592
0.19760588 0.2187708 -0.11000049 -0.22689547 -0.104329064 -0.26513207 -0.15464547 -0.31496412
0.17064221 -0.26351982 0.17168935 0.06860903 0.17936964 -0.17185536 -0.24754144 0.0803022
-0.020204902 -0.052898582 0.027663613 -0.031068675 0.0073652174 -0.034312006 -9.4782976e-05 0.017600864
-0.004129378 -0.00540011 -0.025426134 0.016235815 0.05626085 0.012581021 0.037233688 0.07908502
0.09774457 0.029251494 -0.008724369 -0.06677914 0.018128825 -0.012144487 -0.02267946 -0.06444762
-0.12830363 -0.3347199 -0.023219062 -0.012694441 0.01017469 -0.13356845 -2.0882032 -0.46646646
-0.033679888 0.09203029 0.37250236 0.2958129 0.30031288 0.024614075 -0.05011576 -0.031560246
-0.058728922 -0.18249804 0.051404763 0.17062864 -0.34168553 -0.023233881 -0.29508856 -0.1255166
0.07225054 -0.015105043 -0.024594277 0.038784083 0.011222754 -0.057504136 0.032503348 0.034610137
-0.018189058 -0.037772316 0.017545028 0.003362934 -0.06908974 0.083238974 0.11766436 0.06936282
-0.05867507 0.0035107897 0.14193003 0.049322233 0.14255963 -0.086299576 -0.13915735 -0.028071197
-0.33238357 -0.34729752 0.14233981 -0.1681321 0.0862109 -0.016893938 0.8057861 -0.7972714
-0.07711015 0.022888662 -0.2841879 -0.40166938 -0.02199758 0.16185409 0.13691527 0.10798148
0.17563628 -0.025657466 -0.0027121105 -0.18326652 -0.053942215 -0.031439662 -0.036513984 -0.16693792
-0.093707845 0.04569906 -0.05686721 0.017917918 0.05359082 0.027006444 -0.11383175 -0.07463264
-0.046814594 0.0077218 -0.028787559 0.0048223664 0.11324908 -0.044174924 -0.08049519 0.039426204
0.025131823 0.047001798 -0.05992418 -0.06388637 -0.015053565 0.07241687 -0.16486269 -0.093969725
-0.33343357 -0.069902174 0.092838824 0.038310405 -0.13398975 0.23300003 -0.7865956 -0.94893867
0.06299358 0.12200368 0.016145574 0.15358065 -0.068982355 0.09604853 0.14873369 0.23043507
00000000: 72a8 b03e a14f 24bc e137 f0bd b573 033c
00000010: cfd1 8a3c 279c 56be e413 933e 5831 57be
00000020: 2840 b53d f2ef f1be 5151 35bf 3643 b8be
00000030: 68b5 d63d ca1a 31bc 7f69 243e cd30 dabc
00000040: fe6b 063d 3269 28bd da97 523e e9ce 173d
00000050: 278d 7b3d a40f 0fbe 300e 86bd 53bd 2a3d
00000060: 9313 9a3d dd30 d6bc ab24 82bd c611 ac3b
00000070: 1046 353d 645f a73c 1d2d 083c 67c5 26bd
00000080: 5e2c 63bc d1ea 443c af60 423d dd5f 253b
00000090: 67a2 31bd 0a0d febc 07a5 4abc f287 f3bc
000000a0: 1fef d33d e9e7 97bc 6529 0c3d 05b1 3f3d
000000b0: f794 86bc bb20 9dbd 3597 a0bc 26d7 bcbc
000000c0: a5cc a0be 1276 10be 9ab7 2abe 1bc3 cc3d
000000d0: be6c c23d 095b ac3d 0e01 a73f 8fb7 88bf
000000e0: 47d2 d8bb d04f 983e d250 123e 8733 adbd
000000f0: b963 c63c 57fd a23e 5a05 f23d 4144 9a3a
00000100: d0db 993e e255 18bd c936 ca3e b635 fa3d
00000110: bad8 e33d 2aea 673e bfcd 0d3f 079f 1539
00000120: b0fd c13d 30d0 0bbe ea38 98bc e07f 9a3d
00000130: a37c 533d 37fc 9b3b 90c2 c63d e347 84bd
00000140: e1ab 8d3c 7ffd d1bb ed27 a53c dbca 70bc
00000150: 357b 7a3c 9d61 123c cf64 023c 6953 f83d
00000160: fe17 d43c 8894 9abd d0b1 41bc 778a 353d
00000170: 6083 53bc 5fae 423d 84d0 56bd d24f e23c
00000180: ae7f c6bd cccc e13d 0210 a5bc 7b7b f3bd
00000190: e2ee 10be 139c 813e 4beb f4be 1980 cc3f
000001a0: 3259 4a3e 7405 603e f047 e1bd 4957 68be
000001b0: 7aaa d5bd 64bf 87be 625b 1ebe fa42 a1be
000001c0: d5bc 2e3e 12ec 86be 55cf 2f3e e482 8c3d
000001d0: adac 373e dafa 2fbe 817b 7dbe 7b75 a43d
000001e0: c084 a5bc 2fac 58bd cd9e e23c bc83 febc
000001f0: ec57 f13b bf8a 0cbd 39c6 c6b8 b02f 903c
00000200: bc4f 87bb 68f3 b0bb 784a d0bc f900 853c
00000210: c771 663d a020 4e3c 5a82 183d 54f7 a13d
00000220: 4e2e c83d d4a0 ef3c a8f0 0ebc 80c3 88bd
00000230: e782 943c acf9 46bc 46ca b9bc 1dfd 83bd
00000240: 0762 03be 6860 abbe e735 bebc 58fc 4fbc
00000250: beb3 263c 2bc6 08be 1fa5 05c0 b1d4 eebe
00000260: ecf3 09bd 607a bc3d a1b8 be3e ca74 973e
00000270: 9cc2 993e 75a3 c93c 2f46 4dbd 5145 01bd
00000280: bd8d 70bd c4e0 3abe cd8d 523d 46b9 2e3e
00000290: 68f1 aebe fb54 bebc d915 97be 6c87 00be
000002a0: 17f8 933d 247b 77bc f079 c9bc 0fdc 1e3d
000002b0: a4df 373c 7589 6bbd 3b22 053d 5cc3 0d3d
000002c0: 3801 95bc 25b7 1abd 97ba 8f3c ac64 5c3b
000002d0: ec7e 8dbd 3279 aa3d 03fa f03d 180e 8e3d
000002e0: 4555 70bd 4715 663b 1b56 113e 1c06 4a3d
000002f0: 27fb 113e d5bd b0bd 447f 0ebe 91f5 e5bc
00000300: 2e2e aabe fbd0 b1be 87c1 113e d22a 2cbe
00000310: 578f b03d 2865 8abc ff47 4e3f fa19 4cbf
00000320: edeb 9dbd 0181 bb3c 1481 91be 9ca7 cdbe
00000330: 4534 b4bc 14bd 253e 8433 0c3e 6525 dd3d
00000340: ffd9 333e 9b2f d2bc aabd 31bb 38aa 3bbe
00000350: 83f2 5cbd e0c6 00bd b08f 15bd c6f1 2abe
00000360: e6e9 bfbd f02e 3b3d 97ed 68bd 99c8 923c
00000370: 0c82 5b3d 9e3c dd3c 9f20 e9bd ffd8 98bd
00000380: a9c0 3fbd 2707 fd3b e3d3 ebbc f104 9e3b
00000390: 22ef e73d c4f0 34bd aada a4bd 5f7d 213d
000003a0: 41e1 cd3c f584 403d 0f73 75bd dbd6 82bd
000003b0: 3aa3 76bc 4c4f 943d c4d1 28be 3373 c0bd
000003c0: ceb7 aabe df28 8fbd 4822 be3d 5feb 1c3d
000003d0: 9c34 09be 8f97 6e3e 545e 49bf a5ed 72bf
000003e0: c702 813d 11dd f93d b943 843c 3f44 1d3e
000003f0: 9f46 8dbd 17b5 c43d a54d 183e 2cf7 6b3e

critic.0.bias f4 [128]
-0.040573467 0.22469583 -0.075250596 -0.14777958 0.08634929 0.09396129 -0.057602044 0.17451009
0.17564991 -0.052921366 0.109128825 -0.3375384 -0.16469806 -0.19588281 0.011261099 -0.14733656
-0.17487593 0.043344177 -0.17372791 -0.06261231 -0.14415276 -0.14022316 -0.10504467 -0.08322248
-0.14429073 0.08977311 -0.18745394 -0.114496365 0.1853336 0.0020679738 0.041058064 0.0940312
9.917073e-05 -0.17744884 -0.22599277 -0.15925798 -0.20785728 0.006312898 0.19919413 0.0042735483
-0.15775199 -0.017237434 -0.2585314 -0.023690797 -0.2994382 -0.19566607 -0.051615663 -0.003804581
-0.18966372 0.028479889 0.06935752 0.0019002873 0.013196281 -0.02084782 -0.14061657 0.20802844
0.010706522 -0.22896323 -0.13827913 0.06658507 -0.022058206 -0.08952112 0.04220845 -0.10036227
0.15499212 0.23178591 0.013678197 0.20747122 0.06003327 0.1561971 -0.0768431 -0.13159317
-0.15995935 -0.07520062 -0.0013092322 -0.028962791 -0.052743092 0.23385835 0.085839435 -0.16190132
0.16879438 -0.17260063 -0.019436425 0.0025024957 0.20506743 0.017403984 -0.15367119 0.17936644
0.008967966 -0.15099108 0.023219202 -0.10227447 -0.21197832 -0.08271827 -0.17488055 -0.1356706
0.15077625 0.08660721 0.15054664 0.060568903 -0.080448955 0.0073496043 0.18838392 -0.15011646
0.052952696 -0.0827178 0.042621646 -0.08427248 0.108142875 0.24286589 0.08465141 -0.09618565
-0.17523357 -0.023986245 -0.053942032 0.08120761 -0.16554685 -0.16966347 -0.10468554 -0.2771558
0.044392616 0.2251643 -0.032021664 0.06848919 0.096136175 0.06506019 -0.20482497 0.028579706
00000000: 5d30 26bd aa16 663e fc1c 9abd 8853 17be
00000010: e6d7 b03d c76e c03d 1ff0 6bbd c6b2 323e
00000020: 92dd 333e 13c4 58bd ef7e df3d d5d1 acbe
00000030: 9ca6 28be 8195 48be 7980 383c 65df 16be
00000040: ad12 33be aa89 313d bbe5 31be e23a 80bd
00000050: c89c 13be a996 0fbe a921 d7bd 8c70 aabd
00000060: f3c0 13be f7da b73d edf3 3fbe 127d eabd
00000070: 17c8 3d3e d886 073b 802c 283d 6e93 c03d
00000080: e1f9 cf38 26b5 35be a66a 67be 8614 23be
00000090: 8ad8 54be 6ddc ce3b 8cf9 4b3e 1f09 8c3b
000000a0: bd89 21be 8535 8dbc 3a5e 84be 3413 c2bc
000000b0: f74f 99be b05c 48be f26a 53bd 4756 79bb
000000c0: 3537 42be a84e e93c 510b 8e3d 1013 f93a
000000d0: 3735 583c 0cc9 aabc cafd 0fbe 6805 553e
000000e0: 686a 2f3c 5675 6abe 0b99 0dbe c15d 883d
000000f0: 69b3 b4bc d956 b7bd c5e2 2c3d bc8a cdbd
00000100: 41b6 1e3e 4959 6d3e 841a 603c 5673 543e
00000110: 72e5 753d 22f2 1f3e ea5f 9dbd 5cc0 06be
00000120: 62cc 23be c802 9abd 8b9a abba 6043 edbc
00000130: 2409 58bd 9078 6f3e 96cc af3d 76c9 25be
00000140: 6fd8 2c3e 38be 30be 2339 9fbc e900 243b
00000150: 32fd 513e cd92 8e3c fb5b 1dbe d6ab 373e
00000160: 60ee 123c 689d 1abe 3236 be3c 4775 d1bd
00000170: d810 59be 3268 a9bd e313 33be 3ced 0abe
00000180: 1765 1a3e 1f5f b13d e628 1a3e 1917 783d
00000190: 6cc2 a4bd f3d4 f03b b7e7 403e 21b8 19be
000001a0: ede4 583d f367 a9bd 0994 2e3d 0d97 acbd
000001b0: 037a dd3d d6b1 783e b85d ad3d fbfc c4bd
000001c0: 6e70 33be cd7e c4bc 52f2 5cbd 2d50 a63d
000001d0: 1d85 29be 43bc 2dbe 5f65 d6bd 5de7 8dbe
000001e0: 08d5 353d 7891 663e 2629 03bd 0f44 8c3d
000001f0: 0be3 c43d 473e 853d a3bd 51be fd1f ea3c
