logs/rsl_rl/anymal_c_flat_direct/2025-04-24_12-25-01/model_250.pt (torch, 983322 bytes, 48 tensors)

std f4 [12]
0	0x3e133dc5	0.14379032
1	0x3e0e4163	0.1389213
2	0x3e0ba62e	0.13637611
3	0x3e0c071c	0.13674587
4	0x3e305c3a	0.17222682
5	0x3e2be3ab	0.16786067
6	0x3e32dad7	0.17466293
7	0x3e2fc1c7	0.17163764
8	0x3de8a8e1	0.11360336
9	0x3e049854	0.12948734
10	0x3ddb6bee	0.10713945
11	0x3df1ad7b	0.11800667

actor.0.weight f4 [128, 48]
0	0x3e56de3b	0.20983212
1	0xbc8ff761	-0.017574014
2	0xbe18c90a	-0.1492044
3	0xbe0053b8	-0.12531936
4	0x3eaaa076	0.33325547
5	0xbeb5810c	-0.35450017
6	0x3e5f95a2	0.21834424
7	0x3d8cb0d1	0.068696626
8	0x3de5a62e	0.11213337
9	0xbd496f17	-0.04917821
10	0x3ec90198	0.39259028
11	0x3e83e5cb	0.25761256
12	0x3ca7abcb	0.02046766
13	0xbe8db6cb	-0.27678522
14	0xbe94a731	-0.29033807
15	0xbf0cd786	-0.5501636
16	0xbdd30efa	-0.10305591
17	0x3e66b8e6	0.2253147
18	0xbc0d5b8d	-0.008627784
19	0xbe26fb3d	-0.16306777
20	0x3d03754c	0.032094285
21	0x3e9d4a68	0.3072083
22	0x3edaa1ed	0.42701665
23	0xbd788ecf	-0.060683068
24	0xbd62fab3	-0.055414867
25	0x3d094288	0.033510715
26	0x3d038bea	0.032115854
27	0xbd435e46	-0.047697328
28	0x3d82c180	0.063845634
29	0x3e2cadbc	0.1686315
30	0xbd6240dc	-0.055237636
31	0xbbec24de	-0.0072065433
32	0x3d8412d3	0.06448903
33	0x3d689df7	0.056791272
34	0xbd9f1938	-0.07768482
35	0xbbf662fb	-0.0075191236
36	0x3d0789f8	0.03309056
37	0xbe5dfe06	-0.21678934
38	0x3e5cc7ff	0.21560667
39	0xbe0abf6e	-0.13549587
40	0x3b87186b	0.004122784
41	0xbe22a59f	-0.15883492
42	0x3e1653c5	0.14680393
43	0xbdd5edd7	-0.10445755
44	0xbe2a8436	-0.16651997
45	0xbe33add3	-0.17546777
46	0x3e0cb3aa	0.13740411
47	0x3dcf3864	0.101181775
48	0xbf0343a5	-0.5127509
49	0xbedd46a2	-0.4321795
50	0x3dc33b50	0.09532797
51	0xbdf3bc49	-0.11901147
52	0xbe5cf80b	-0.21578996
53	0x3d5a6a78	0.053324193
54	0xbdbc892e	-0.092058524
55	0x3eadf8c3	0.33978853
56	0x3e2a41a2	0.166266
57	0xbe17825a	-0.14795819
58	0x3effee78	0.49986625
59	0xbe9c2ad2	-0.3050142
60	0x3d6c9b9e	0.057765596
61	0xbca521cc	-0.020157717
62	0x3d9dbaab	0.0770162
63	0xbe0e5eee	-0.139034
64	0xbdcd49df	-0.100238554
65	0xbdd336bb	-0.103131734
66	0xbeab9a54	-0.3351618
67	0x3d82e339	0.063909955
68	0x3d138607	0.03601649
69	0x3dbfbada	0.09361811
70	0x3ce48790	0.027896672
71	0x3e7eb28c	0.24872798
72	0x3d408436	0.047001086
73	0x3c377419	0.011197113
74	0xbcc2b273	-0.023766732
75	0xbd52c500	-0.051457405
76	0xbcf5cb9e	-0.030004319
77	0xbcc55d81	-0.024092438
78	0xbd9db0bd	-0.07699726
79	0xbdbbca30	-0.091694236
80	0xbc97117a	-0.01844095
81	0xbcb2d754	-0.021831192
82	0xbb9b608c	-0.004741734
83	0x3c8ac597	0.016939921
84	0xbd000187	-0.031251457
85	0x3dc16d11	0.09444631
86	0xbae7821f	-0.001766268
87	0xbcfff29f	-0.03124362
88	0xbbd4462a	-0.006478091
89	0xbbb9a14c	-0.00566498
90	0xbc31e594	-0.010857958
91	0xbe070a8e	-0.1318762
92	0xbe48573f	-0.19564532
93	0xbe27ea22	-0.16397908
94	0x3d21c106	0.039490722
95	0xbe302583	-0.1720181
96	0xbe017449	-0.12642016
97	0xbd778121	-0.06042588
98	0x3e882e59	0.2659786
99	0x3da9e146	0.082949206
100	0x3dfc83ff	0.12329864
101	0xbe8561ee	-0.26051277
102	0xbeb28c08	-0.3487246
103	0xbf6af5b7	-0.9178118
104	0x3e1d9847	0.1539012
105	0x3ec05d84	0.37571347
106	0x3ab328bf	0.001366876
107	0x3eadadf1	0.3392177
108	0x3ea940e6	0.33057326
109	0x3da02b8f	0.07820808
110	0x3dc4c79d	0.09608386
111	0x3ea2b707	0.31780264
112	0xbd8b1a1c	-0.06792089
113	0xbea086c4	-0.31352818
114	0x3e5f2f2e	0.21795341
115	0x3ec6b64a	0.3881095
116	0x3e787cb2	0.24266317
117	0xba1e5cdc	-0.0006041059
118	0xbd6b387f	-0.057426926
119	0x3d96cda4	0.073634416
120	0xbd9a36b8	-0.07529968
121	0x3d8d0ff9	0.06887812
122	0x3bb91f70	0.0056494996
123	0x3b433643	0.0029786981
124	0xbdac2ca8	-0.08406955
125	0xbda38bff	-0.079856865
126	0x3bfdfb1e	0.0077508828
127	0x3d908bb8	0.07057899
128	0xbbf8b35e	-0.0075897416
129	0x3d3701dc	0.044679508
130	0x3d0bfba2	0.034175523
131	0xbb85310e	-0.0040646857
132	0x3e25fac9	0.16208948
133	0x3e15136b	0.14558189
134	0x3e1b22a4	0.15149933
135	0xbdb2ac95	-0.08724324
136	0x3d9b71a2	0.07590033
137	0xbe39018b	-0.18066995
138	0xbd2e12d7	-0.042498436
139	0xbe0b5781	-0.13607599
140	0xbe576f1a	-0.21038476
141	0xbd0362dc	-0.0320767
142	0xbe011be8	-0.12608302
143	0xbe244e6d	-0.16045542
144	0xbe4b8c27	-0.19877683
145	0x3e93056a	0.28715068
146	0x3ee2ae56	0.44273633
147	0x3e6a7c17	0.22898899
148	0xbe1bf129	-0.15228714
149	0x3dc1ee0c	0.09469232
150	0x3e0bfbfa	0.1367034
151	0x3eeaa117	0.45826027
152	0x3bc66b1b	0.0060552484
153	0xbe083eec	-0.13305253
154	0xbdf45a8d	-0.11931334
155	0x3ec162cc	0.3777069
156	0xbe9480d5	-0.2900454
157	0x3eac847a	0.33694822
158	0x3e428706	0.1899682
159	0x3dfc26f8	0.1231212
160	0x3e02d887	0.12777911
161	0xbe710608	-0.23537457
162	0x3e5408fe	0.20706555
163	0xbf11964e	-0.5686997
164	0x3dbd798d	0.092516996
165	0x3d6f308b	0.058395904
166	0x3f2f9863	0.685919
167	0xbe7d01fe	-0.24707791
168	0x3e0f6c66	0.14006194
169	0xbcf2729e	-0.02959567
170	0x3e04789d	0.12936635
171	0xbdd3586b	-0.10319599
172	0x3d03e5f1	0.03220171
173	0xbd76e797	-0.060279455
174	0x3daf155e	0.08548997
175	0x3d046014	0.03231819
176	0xbcd5ac6e	-0.026083197
177	0xbcbcb0f6	-0.0230336
178	0x3dd10d5f	0.102076285
179	0x3d08ef88	0.03343156
180	0x3e176381	0.14784051
181	0xbdf2c2f1	-0.11853588
182	0xbce569cc	-0.02800455
183	0xbe4b2bf3	-0.19840984
184	0xbd851a20	-0.064991236
185	0xbc65dc98	-0.014029644
186	0x3e9374b4	0.28799975
187	0xbe2efa76	-0.17087731
188	0xbd57ba32	-0.052667804
189	0xbe1eef20	-0.15520906
190	0xbebe8ebf	-0.37218282
191	0xbce18ef2	-0.027533982
192	0x3e96c6ee	0.29448646
193	0xbd154950	-0.03644687
194	0xbe4fbdb6	-0.20287213
195	0xbe600a58	-0.21878946
196	0x3e3e81b5	0.18604167
197	0x3e624682	0.22097209
198	0x3f0c2f59	0.54759747
199	0x3f00d303	0.5032198
200	0x3db3db1e	0.08782028
201	0x3e575f86	0.21032533
202	0xbe9ac5ed	-0.3022913
203	0x3c14cbc6	0.0090817865
204	0xbe5ddd56	-0.21666464
205	0xbde5ee2f	-0.112270705
206	0xbe435abe	-0.19077584
207	0xbed8283c	-0.42218196
208	0xbe4528d4	-0.19253856
209	0xbe1933b3	-0.14961128
210	0x3e877d4f	0.2646279
211	0x3b88f0d6	0.0041791005
212	0x3e910b3f	0.28328893
213	0xbe926997	-0.28596184
214	0x3c839d9a	0.016066361
215	0xbe1ccb1e	-0.15311858
216	0x3d5d39f1	0.054010335
217	0xbdb1bdde	-0.086787924
218	0x3d3d8fa8	0.04627958
219	0xbe1f8e2d	-0.1558158
220	0x3d5d70e4	0.05406274
221	0x3d4cb94c	0.0499814
222	0xbdca6185	-0.098818816
223	0x3d59658f	0.05307537
224	0x3d833f49	0.06408555
225	0xbcdf01bc	-0.027222507
226	0xbd65a06e	-0.0560612
227	0x3aefa821	0.0018284359
228	0x3e0c3300	0.1369133
229	0x3e5f2371	0.21790864
230	0xbdbc675f	-0.09199404
231	0xbe4bab61	-0.19889595
232	0xbde3f29f	-0.11130261
233	0x3d86b6b2	0.06577815
234	0x3c9f03d6	0.019411009
235	0x3d983083	0.07431128
236	0xbdabc4f1	-0.08387173
237	0xbe5129b4	-0.20426065
238	0x3d564ce8	0.052319437
239	0x3ecd0d5b	0.40049252
240	0xbe2b3aa1	-0.16721584
241	0x3dd282df	0.10278868
242	0xbec6fc83	-0.38864526
243	0x3e4e8baf	0.20170473
244	0xbd54c8f8	-0.05194947
245	0x3e9418ff	0.2892532
246	0x3cb63031	0.022239776
247	0xbda366ae	-0.07978569
248	0xbcfec421	-0.03109938
249	0x3d2224ff	0.039586063
250	0xbec1b2a4	-0.37831604
251	0x3ce693dd	0.028146679
252	0x3e521d6d	0.20519038
253	0x3f13d7a0	0.5775089
254	0xbd89eb3c	-0.067343205
255	0x3d9b237e	0.07575129

actor.0.bias f4 [128]
0	0xbe4920f8	-0.19641483
1	0xbdce6dd9	-0.100795455
2	0x3da1e0d4	0.07904211
3	0x3c197162	0.0093654115
4	0x3e1d2f67	0.15350114
5	0x3d9997df	0.0749967
6	0xbd8f72e6	-0.07004337
7	0x3d41f09b	0.0473486
8	0x3c46b954	0.012129147
9	0x3cea6ef0	0.028617352
10	0xbd4013df	-0.04689395
11	0x3c2197c5	0.009862845
12	0xbd826c09	-0.06368262
13	0xbd92d353	-0.07169213
14	0xbcc1e401	-0.023668291
15	0xbcbbea5c	-0.0229389
16	0x3d6ffe0f	0.0585919
17	0xbddd8a78	-0.108174264
18	0xbca9363b	-0.020655742
19	0xbcfdcc40	-0.030981183
20	0xbcd92a45	-0.026509413
21	0x3d280117	0.041016664
22	0xbd994275	-0.07483379
23	0xbe7b9b21	-0.24570896
24	0xbdb632e4	-0.08896425
25	0xbd50add7	-0.050947037
26	0x3d4df3ac	0.05028121
27	0x3cecc4e5	0.02890248
28	0xbe00e8e7	-0.12588845
29	0x3c3fe30a	0.011711845
30	0x3a89ab36	0.0010503295
31	0xbb524fa2	-0.0032090922
32	0x3e3dd8c8	0.18539727
33	0x3deb9624	0.115032464
34	0xbc4b596b	-0.012411456
35	0x3d202147	0.039094236
36	0x3d70cb84	0.058787838
37	0xbd91d00d	-0.07119761
38	0xbde19cb9	-0.110162206
39	0xbdb2b51b	-0.087259494
40	0x3d234df6	0.03986927
41	0xbd10c23d	-0.03534149
42	0x3d48aaf2	0.04899115
43	0x3d951206	0.07278828
44	0xbd15aecf	-0.036543664
45	0x3d379d16	0.044827543
46	0xbd76689a	-0.06015835
47	0x3dae4312	0.085088864
48	0xbe36da72	-0.17856768
49	0x3da709da	0.08156176
50	0xbb676851	-0.003530998
51	0xbd89b9b5	-0.06724874
52	0x3dae6a3c	0.08516356
53	0x3d587839	0.05284903
54	0xbe00c998	-0.12576902
55	0xbcd15321	-0.025552334
56	0x3d00ed8c	0.031476542
57	0xbe420098	-0.18945539
58	0x3d01c55d	0.03168236
59	0xbc99ec7c	-0.018789522
60	0xbd5d0e48	-0.053968698
61	0x3d75ef64	0.060042754
62	0xbe6a1ab3	-0.22861747
63	0x3dddb7db	0.10826083
64	0xbe6b2840	-0.22964573
65	0xbe18315c	-0.14862579
66	0xbdbcfaa1	-0.09227491
67	0xbe678e7a	-0.22612944
68	0xbde0b2f9	-0.10971636
69	0xbb614cf7	-0.003437815
70	0xbd156d21	-0.036481027
71	0xbd6bc738	-0.057563037
72	0xba33c8d1	-0.0006858232
73	0xbceec43d	-0.029146308
74	0xbb68d37b	-0.0035526443
75	0x3caf3bcc	0.021390818
76	0x3dfb3b97	0.12267225
77	0xbde1eefd	-0.110319115
78	0xbde726eb	-0.1128672
79	0xbd6c309d	-0.05766355
80	0xbd104049	-0.035217557
81	0xbc329845	-0.010900562
82	0x3da247b1	0.0792383
83	0xbd8e5efd	-0.06951711
84	0xbe1d4471	-0.1535814
85	0xbe1afcc2	-0.15135482
86	0x3d771876	0.060326062
87	0xbd194329	-0.037417565
88	0x3cf074c0	0.029352546
89	0x3e0ac28e	0.13550779
90	0xbd733652	-0.059377976
91	0xbd96887e	-0.073502526
92	0xbd97a90f	-0.07405292
93	0xbc070987	-0.008242018
94	0xbcf4e035	-0.029892066
95	0x3d831801	0.06401063
96	0xbe3d4c8d	-0.18486233
97	0xbde41853	-0.11137452
98	0xbe1b9180	-0.15192223
99	0xbd67aeba	-0.056563117
100	0x3b9963d3	0.0046810894
101	0xbcf39cf0	-0.02973792
102	0xbd903142	-0.07040645
103	0x3e358236	0.17725453
104	0x3d6d01c9	0.05786303
105	0xbd7f0d36	-0.06226846
106	0xbdb25b41	-0.087088116
107	0x3da0e21d	0.07855628
108	0x3df968dd	0.12178204
109	0xbdf7bf6b	-0.12097057
110	0x3d519c94	0.051174715
111	0xbdacab73	-0.08431139
112	0x3e0cf61f	0.13765763
113	0xbe0ded53	-0.13860063
114	0xbe0e2b43	-0.1388369
115	0xbb7572db	-0.0037452492
116	0xbdeb2126	-0.11480932
117	0xbe2f4ee6	-0.17119941
118	0x3ad10d31	0.0015949366
119	0xbd534967	-0.051583674
120	0x3e311f08	0.17296994
121	0x3c920b01	0.017827513
122	0xbd6835ba	-0.056691863
123	0xbc091fe8	-0.008369423
124	0x3b4cb370	0.0031234883
125	0xbda5996b	-0.08085903
126	0x3afe15a2	0.0019385109
127	0x3cda03c2	0.02661312

actor.2.weight f4 [128, 128]
0	0x3de8cb0f	0.11366855
1	0x3dcc8332	0.09985961
2	0x3d98c886	0.07460122
3	0xbd96262c	-0.073314995
4	0x3dae3d36	0.08507769
5	0xbc8b72ba	-0.01702248
6	0xbc23392a	-0.009962359
7	0x3d81fa5e	0.06346582
8	0x3d95563f	0.07291841
9	0xbe22690a	-0.15860382
10	0x3e61eae3	0.22062258
11	0x3daa2e63	0.08309629
12	0xbdcc6f84	-0.099822074
13	0xbd15bd41	-0.03655744
14	0x3de96b79	0.11397452
15	0x3da82f53	0.082121514
16	0xbcbf5ba8	-0.023359135
17	0x3d8dd2be	0.069249615
18	0xbc790f0c	-0.015201341
19	0xbca4bde1	-0.020110073
20	0xbdaf3bb4	-0.08556309
21	0x3d7bd6ec	0.061484262
22	0xbe0763c7	-0.13221656
23	0x3e3cf5b3	0.18453102
24	0x3d13a232	0.036043353
25	0x3d91cbd3	0.071189545
26	0x3d604656	0.054754578
27	0x3d0c4784	0.03424789
28	0xbdbdc14b	-0.09265383
29	0xbbbfe935	-0.005856658
30	0xbd45e1a8	-0.048310906
31	0x3da507de	0.08058141
32	0xbde71dca	-0.11284979
33	0x3cab1cb8	0.020887718
34	0x3cd82175	0.026383141
35	0xbda17671	-0.07883919
36	0x3ce98e53	0.028510248
37	0x3dad88b1	0.084733374
38	0xbb3e9810	-0.0029082336
39	0x3d5c956a	0.05385343
40	0x3ac3b709	0.0014931868
41	0xbcde1bea	-0.02711292
42	0x3df6ceb6	0.12051146
43	0x3da62723	0.081129335
44	0x3d93bb7a	0.07213493
45	0xbe2d5912	-0.16928509
46	0xbde0c0bf	-0.109742634
47	0xbd64bdc5	-0.05584504
48	0xbc7133d3	-0.0147218285
49	0xbc11352c	-0.008862775
50	0x3c8d90cd	0.01728096
51	0x3c103cc1	0.008803547
52	0xbb05186b	-0.0020308744
53	0xbdc1d49c	-0.0946438
54	0x3b8e5858	0.0043440275
55	0xbdb6e38f	-0.08930122
56	0xbdd7ca08	-0.10536581
57	0x3dbaf796	0.091292545
58	0x3b5d5bfb	0.0033776748
59	0x3d506497	0.05087718
60	0xbe3dfea0	-0.18554163
61	0xbdde9c98	-0.10869712
62	0x3e03bd53	0.1286519
63	0xbdbd5614	-0.09244934
64	0x3dd0cd2d	0.10195384
65	0x3e1df0d0	0.15423894
66	0xbdca1e32	-0.098690405
67	0x3d7a4482	0.06110049
68	0x3da35ee7	0.079770856
69	0x3d8e9f03	0.06963923
70	0xbd0e1306	-0.03468611
71	0xbd5bb790	-0.053641856
72	0x3cf9a5c4	0.030474551
73	0xbe0360df	-0.12829922
74	0x3d8cb389	0.06870181
75	0x3dab6645	0.08369116
76	0xbb0f50f8	-0.002186833
77	0xbd9a242b	-0.0752643
78	0xbdeb6606	-0.11494069
79	0x3d6a4811	0.057197634
80	0xbe1f204c	-0.15539664
81	0x3de043ec	0.10950455
82	0xbd79bfa9	-0.060973797
83	0x3e18de23	0.14928488
84	0x3ca678b8	0.020321235
85	0xbdc782e4	-0.09741762
86	0x3d1b6a71	0.037943307
87	0x3db40574	0.087901026
88	0x3d917b8b	0.07103642
89	0x3d2bb644	0.04192187
90	0xbd4c4538	-0.0498707
91	0xbd934339	-0.07190556
92	0x3d8681cb	0.06567725
93	0xbba58d26	-0.0050522266
94	0x3d3092be	0.043108694
95	0x3e334fa2	0.17510846
96	0xbd30daf7	-0.04317757
97	0xbd4b6778	-0.049659222
98	0x3defc25e	0.117069945
99	0xbd57afb3	-0.052657794
100	0x3d43f0f4	0.047837213
101	0x3d95aa69	0.07307894
102	0xbd9b806d	-0.07592855
103	0x3bb88dd0	0.0056321397
104	0x3c7385a1	0.014863403
105	0xbd21f412	-0.039539404
106	0x3d411829	0.04714218
107	0x3d5b8c49	0.053600583
108	0xbccb23b4	-0.024797298
109	0x3e39ff12	0.18163708
110	0x3d970eec	0.07375893
111	0x3e08dee9	0.13366283
112	0xbc21b6e0	-0.009870261
113	0x3d01d5f0	0.031698167
114	0xbe4758e1	-0.19467498
115	0xbd288c15	-0.041149218
116	0x3e48ffff	0.19628905
117	0xbd454832	-0.048164554
118	0xbc1f4b7a	-0.009722585
119	0x3e2c033c	0.16798109
120	0x3cbc2b2a	0.022969801
121	0xbdc5a585	-0.09650711
122	0x3e16a139	0.14709939
123	0xbe841680	-0.25798416
124	0x3e0f82b5	0.14014705
125	0xbd8857a5	-0.06657342
126	0xbcef2235	-0.029191116
127	0x3ce42ab4	0.027852394
128	0x3e1921af	0.14954256
129	0x3ce30077	0.027710183
130	0xbcdf8aca	-0.02728786
131	0x3c1dd48f	0.009633197
132	0x3df3f639	0.119121976
133	0x3db60bfa	0.08889003
134	0x3c21d031	0.009876297
135	0x3de89c54	0.11357942
136	0xbe13d41b	-0.1443638
137	0x3d73ebb4	0.059550956
138	0xbd939833	-0.07206764
139	0xbe1f92ba	-0.15583315
140	0x3d3f0c0c	0.04664235
141	0xbdb5ffbf	-0.0888667
142	0xbdd1650c	-0.10224351
143	0x3d00c13a	0.031434275
144	0x3d8aa964	0.0677059
145	0xbde6b1a4	-0.11264351
146	0xbd665cf0	-0.056240976
147	0x3de51d2f	0.11187207
148	0xbda02e65	-0.07821349
149	0xbe65ad96	-0.22429499
150	0x3dff6906	0.124712035
151	0xbdaa98e4	-0.08329943
152	0x3d250fa0	0.040298104
153	0xbdcab89a	-0.09898491
154	0x3d603a3a	0.05474303
155	0xbde3dff2	-0.111266986
156	0xbc04bbd0	-0.008101419
157	0xbe1da318	-0.15394247
158	0xbcc53124	-0.024071284
159	0xbb3b7f01	-0.0028609636
160	0x3e44343d	0.19160552
161	0x3cc4c17d	0.024018044
162	0xbdf46467	-0.11933213
163	0xbe7ab5db	-0.24483435
164	0x3c9f6993	0.019459521
165	0x3d86ff52	0.06591667
166	0xbd8cb1f6	-0.06869881
167	0xbc04110c	-0.008060705
168	0x3cbb72b6	0.022881847
169	0xbddecb3d	-0.108786084
170	0x3dd32828	0.103103936
171	0x3da1702f	0.078827254
172	0x3d3f4b74	0.046702817
173	0xbe38e0e6	-0.18054542
174	0xbdbd8547	-0.09253936
175	0x3cffb56a	0.031214435
176	0xbdeb0a52	-0.11476578
177	0xbcfff6af	-0.031245558
178	0x3d827338	0.063696325
179	0x3c07da1c	0.008291747
180	0xbdc1810b	-0.09448441
181	0x3bbfc83b	0.0058527268
182	0x3dc76692	0.097363606
183	0xbd2f92e6	-0.042864703
184	0x3dc16982	0.09443952
185	0xbd738f78	-0.059462994
186	0xbe19be05	-0.15013893
187	0x3d05e902	0.032692917
188	0xba4e6d72	-0.0007874585
189	0x3d4a85bb	0.04944394
190	0xbc3b05e7	-0.011414981
191	0x3d73183a	0.059349276
192	0x3db2e0bd	0.08734272
193	0xbdaa412d	-0.083132125
194	0xbd515303	-0.051104557
195	0xbdae3413	-0.08506026
196	0xbca11dc7	-0.01966752
197	0xbd0b7da4	-0.034055367
198	0x3d2b989f	0.041893598
199	0xbc6a029e	-0.014282851
200	0xbd9cac3c	-0.076500386
201	0x3dea8cc8	0.11452633
202	0xbdd082fa	-0.10181232
203	0xbdbb0f04	-0.091337234
204	0xbdd3619a	-0.103213504
205	0x3d7215ab	0.059102695
206	0x3dd4beba	0.10387941
207	0xbda60fc6	-0.08108477
208	0x3b357e14	0.0027693557
209	0xbd0471dd	-0.03233515
210	0x3df6ee45	0.12057165
211	0xbe0e9f4a	-0.13927951
212	0xbdc09849	-0.09404046
213	0x3d300fca	0.042983808
214	0xbd078972	-0.033090062
215	0x3dc9cef9	0.0985393
216	0xbdcc0121	-0.09961153
217	0x3dec83cf	0.11548578
218	0x3da4427f	0.080204956
219	0x3e17ab34	0.14811403
220	0x3d4ce9fc	0.050027832
221	0xbdeed44f	-0.116615884
222	0xbbad7523	-0.005293505
223	0x3d5823e6	0.05276861
224	0xbcb1ea85	-0.021718273
225	0xbe0dbbb0	-0.13841128
226	0x3e015941	0.12631704
227	0xbca9e42e	-0.020738687
228	0x3dc80850	0.097672105
229	0xbd9da86c	-0.076981395
230	0xbd85ade0	-0.06527305
231	0x3dce21ea	0.10065062
232	0xbdc1c3f1	-0.09461201
233	0xbd8fa243	-0.07013371
234	0xbdfe8db3	-0.12429371
235	0xbdd99d52	-0.106257096
236	0xbc2eef43	-0.010677162
237	0xbde2e6f9	-0.11079211
238	0x3cb34b63	0.021886533
239	0x3e0133da	0.12617436
240	0x3d911990	0.07084954
241	0xbd457080	-0.04820299
242	0xbcd1665e	-0.025561508
243	0x3d37ce21	0.044874314
244	0xbdf999b9	-0.121875234
245	0xbbb0e634	-0.005398536
246	0x3b1bfb54	0.0023800926
247	0x3c894d42	0.016760472
248	0x3d02044f	0.03174239
249	0xbdf69c19	-0.12041492
250	0xbcfbaf81	-0.030723335
251	0xbe120150	-0.14258313
252	0xbdb27d5a	-0.08715315
253	0xbdea0dd8	-0.11428422
254	0xbdbd6e3b	-0.092495404
255	0x3d017253	0.03160317

actor.2.bias f4 [128]
0	0xbe22365d	-0.1584105
1	0x3c2dd451	0.010609702
2	0xbe1ce5ad	-0.1532199
3	0xbddc8246	-0.10767035
4	0x3cca1992	0.024670396
5	0xbdb1121b	-0.086460315
6	0x3c964c4f	0.018346934
7	0xbdca8026	-0.098877236
8	0xbcd11e2d	-0.025527084
9	0x3d19fd9e	0.037595384
10	0xbe1cddfc	-0.15319055
11	0xbdbaa6a0	-0.091138124
12	0xbd4e46dd	-0.05036055
13	0xbd064a70	-0.032785833
14	0xbd8d985d	-0.069138266
15	0xbddb0921	-0.106951006
16	0xbddddff4	-0.10833731
17	0xbceea918	-0.029133365
18	0xbcace6fc	-0.021106236
19	0xbdb8b83d	-0.09019516
20	0xbc8d9f8e	-0.017287996
21	0xbd125009	-0.03572086
22	0xbd0c28e9	-0.034218702
23	0xbde95bb4	-0.11394444
24	0xbdd53a9b	-0.10411569
25	0xbe2e7424	-0.17036492
26	0xbda60953	-0.08107247
27	0xbda9a08e	-0.082825765
28	0xbcbe3515	-0.02321867
29	0xbe4da523	-0.20082526
30	0xbce6ecbe	-0.02818906
31	0xbbf1080c	-0.0073556956
32	0x3b8b1ca1	0.004245356
33	0xbdd5e31f	-0.104437105
34	0x3bcad466	0.0061898706
35	0xbe1b2255	-0.15149815
36	0xbd5a4e47	-0.053297307
37	0xbd24ff5f	-0.040282603
38	0x3d7a7186	0.06114342
39	0xbd5c79dc	-0.05382715
40	0xbe24df88	-0.16100895
41	0xbbaaf816	-0.0052175624
42	0xbc47efe8	-0.012203194
43	0xbdb2ceed	-0.08730874
44	0xbde28a38	-0.110615194
45	0xbd0ba4a8	-0.034092575
46	0xbd13a8e3	-0.036049735
47	0xbe526052	-0.20544556
48	0xbd3248e0	-0.04352653
49	0xbd6a7bbf	-0.05724692
50	0xbdcfb850	-0.10142577
51	0xbe2695a9	-0.16268028
52	0xbdf1da41	-0.11809207
53	0xbd2f03f8	-0.042728394
54	0xbd55296e	-0.052041464
55	0xbe4a9d8e	-0.19786665
56	0xbcb8bf2c	-0.022552095
57	0xbe079737	-0.13241278
58	0xbda6bb1a	-0.081411555
59	0xbd196a36	-0.037454806
60	0x3d5b7f3e	0.053588144
61	0xbd6fe94f	-0.05857211
62	0x3d7bb9ea	0.0614566
63	0x3d573fd3	0.052551102
64	0xbb170b6e	-0.0023047584
65	0xbe3a7cab	-0.1821162
66	0xbc970ecd	-0.018439675
67	0xbde4ec50	-0.111778855
68	0xbe0a0933	-0.13480072
69	0x3d8113ce	0.063026056
70	0xbc55235d	-0.01300892
71	0x3db0750a	0.086160734
72	0xbd81d6cf	-0.063397996
73	0xbced1447	-0.028940333
74	0xbd81b59a	-0.06333466
75	0xbd2f3fa8	-0.042785317
76	0x3df60d44	0.12014249
77	0xbd9f678f	-0.07783424
78	0xbce44f90	-0.02786997
79	0xbe172a9c	-0.14762348
80	0xbd2650dc	-0.040604457
81	0x3d2cd306	0.042193435
82	0xbd8c1b49	-0.06841142
83	0xbde4e84f	-0.11177122
84	0x3cac3f87	0.021026386
85	0xbd7b82d8	-0.06140408
86	0xbda030c3	-0.078218006
87	0xbc86c4eb	-0.01645132
88	0xbc8ed179	-0.017433869
89	0xbd8ad179	-0.06778235
90	0x3cdf8330	0.027284235
91	0x3db77d0e	0.08959399
92	0x39db0694	0.00041775836
93	0xbb4de132	-0.0031414744
94	0xbd84679a	-0.06465073
95	0xbda5dfa1	-0.080992945
96	0xbdb11692	-0.08646883
97	0xbda529a9	-0.08064587
98	0x3da23fda	0.07922335
99	0x3d1a333b	0.037646513
100	0xbe2512a4	-0.16120392
101	0xbd4910b7	-0.049088206
102	0xbd510b8c	-0.051036403
103	0x3cacb99a	0.021084595
104	0xbdcae9b7	-0.09907859
105	0xbd98e8ad	-0.074662544
106	0xbe1c0abc	-0.1523847
107	0xbc58723c	-0.013210829
108	0xbd8bf24c	-0.06833324
109	0x3c9a6614	0.018847503
110	0xbe1ac450	-0.1511395
111	0xbda65f1d	-0.0812361
112	0xbd6cb3e4	-0.057788745
113	0x3b7e4270	0.0038796924
114	0xbc89e453	-0.016832506
115	0xbcc1ca26	-0.023655962
116	0xbd7021d0	-0.058625996
117	0xbc02c6ab	-0.007981936
118	0xbc2c26fe	-0.010507343
119	0xbe599f7d	-0.21252246
120	0xbdf00c11	-0.117210515
121	0xbbaee58e	-0.0053374236
122	0xbe066311	-0.13123728
123	0xbdf0a1be	-0.117496
124	0x3d86b9b1	0.065783866
125	0x3db2de2b	0.087337814
126	0xbe2834e9	-0.16426434
127	0xbd041eab	-0.03225581

actor.4.weight f4 [128, 128]
0	0xbc218866	-0.00985918
1	0xbd0e925a	-0.03480754
2	0xbb7554b7	-0.0037434527
3	0x3d099148	0.033585817
4	0x3cff6d0a	0.031179924
5	0x3e8a8726	0.27056235
6	0x3cc287e7	0.023746444
7	0xbe433b3c	-0.19065565
8	0xbd363a4e	-0.044489197
9	0x3dd6d426	0.10489683
10	0x3ce994e5	0.028513381
11	0x3dc1d6e1	0.09464813
12	0x3dba7613	0.09104552
13	0xbdec1f00	-0.1152935
14	0xbd856cc9	-0.0651489
15	0x3d2264ff	0.0396471
16	0xbd2edbd7	-0.042690124
17	0x3d1329ff	0.035928722
18	0x3dae1754	0.08500543
19	0xbe018dc5	-0.12651737
20	0x3e3d3d06	0.1848031
21	0xbe9ab8ad	-0.3021902
22	0xbd7b8940	-0.06141019
23	0x3ceba24c	0.028763913
24	0xbc84509d	-0.01615172
25	0xbe3c157f	-0.18367575
26	0x3dbbacf8	0.091638505
27	0xbd0feb02	-0.03513623
28	0xbba07afe	-0.0048974743
29	0xbd29b8ce	-0.04143601
30	0x3da76970	0.081744075
31	0xbdd452d0	-0.10367358
32	0x3dd4a9c3	0.10383942
33	0x3e001f37	0.12511908
34	0xbe432d30	-0.19060206
35	0x3d59292f	0.05301779
36	0x3e3726f8	0.17885959
37	0xbdd74cc4	-0.10512689
38	0xbd05721a	-0.03257952
39	0x3d5c6630	0.05380839
40	0x3dae6462	0.0851524
41	0xbe9cf845	-0.30658165
42	0xbe2c5e54	-0.16832858
43	0xbe360ab2	-0.17777517
44	0xbe6c5789	-0.23080267
45	0x3db2767b	0.087140046
46	0xbd983db2	-0.074336424
47	0xbcb998d0	-0.022655874
48	0x3d85cb94	0.0653297
49	0xbd3b7e92	-0.045775004
50	0x3be9ca72	0.007134729
51	0xbdf1c702	-0.11805536
52	0xbe5be3df	-0.21473645
53	0xbd5607c8	-0.052253515
54	0xbd819d79	-0.06328864
55	0xbd99a40b	-0.07501992
56	0xbdb7f9e5	-0.089832105
57	0x3d6d4250	0.05792457
58	0xbdb0015e	-0.08594011
59	0xbbf13aa6	-0.0073617278
60	0xbd27a9d1	-0.040933434
61	0xbe082ee6	-0.1329914
62	0x3d858c1c	0.06520864
63	0xbd02371b	-0.031790834
64	0x3dac6481	0.08417607
65	0xbc0c8fdb	-0.00857922
66	0xbbafd997	-0.005366515
67	0x3c86567e	0.016398665
68	0x3e883d23	0.26609144
69	0x3e1ae94b	0.15128057
70	0x3e069755	0.13143666
71	0xbc9808f0	-0.01855895
72	0xbe1e0a5d	-0.15433641
73	0xbe05b30c	-0.13056582
74	0x3a9e4d1f	0.0012077427
75	0x3dc7ed10	0.09762013
76	0x3caf3c73	0.02139113
77	0x3cf5e817	0.030017896
78	0xbca66391	-0.020311149
79	0x3bccb1fd	0.006246804
80	0x3dfce79b	0.12348863
81	0x3cb0fbe7	0.021604491
82	0x3de2fdb8	0.11083549
83	0x3ca6c6ad	0.020358408
84	0x3ddb2e1e	0.107021555
85	0x3e380b34	0.17973024
86	0x3e1fb0ed	0.15594836
87	0xbd04b388	-0.032397777
88	0x3ddd6613	0.10810485
89	0xbde2c9b2	-0.110736266
90	0xbd1173fa	-0.035510994
91	0xbd5601fb	-0.052247982
92	0xbd0ed905	-0.034874935
93	0xbe61ca26	-0.2204977
94	0x3caf9867	0.021434976
95	0xbd277a0e	-0.040887885
96	0x3d1ee5a0	0.038793206
97	0x3ce58f20	0.028022349
98	0xbe046247	-0.12928115
99	0x3ae95733	0.0017802477
100	0x3e1ab70d	0.15108891
101	0xbe2c43c1	-0.16822721
102	0xbda4ead7	-0.08052605
103	0xbca51b19	-0.020154523
104	0x3ca371e0	0.01995176
105	0x3d243fb0	0.0400998
106	0x3d10bb36	0.03533479
107	0x3cc383a6	0.023866486
108	0xbdb282cc	-0.08716354
109	0xbd837ce1	-0.06420303
110	0xbda5a10f	-0.0808736
111	0xbd91365b	-0.070904456
112	0xbde2e610	-0.11079037
113	0xbd8d5802	-0.06901552
114	0xbc34ab8c	-0.011027228
115	0x3afd86e4	0.0019342569
116	0xbe1f7872	-0.1557329
117	0x3b460a60	0.0030218586
118	0x3e0c26f8	0.1368674
119	0x3d9682c2	0.07349159
120	0x3dbf3f3b	0.09338232
121	0xbca3708c	-0.019951127
122	0xbdcfb01a	-0.101410106
123	0x3ddd937c	0.10819146
124	0xbdebc477	-0.11512082
125	0xbe7a5974	-0.24448186
126	0x3d724c86	0.05915501
127	0x3e4f5702	0.20248035
128	0xbd0c012a	-0.034180798
129	0xbcbcd153	-0.023049032
130	0x3c8edf6a	0.017440517
131	0xbd936af5	-0.07198135
132	0xbd6ced10	-0.057843268
133	0xbe9ec101	-0.31006625
134	0xbdfb3c1b	-0.122673236
135	0xbd136185	-0.035981674
136	0x3c309638	0.010778002
137	0x3da0d50a	0.07853134
138	0xbc2a1f6a	-0.010383466
139	0x3cc1f63d	0.023676986
140	0x3da8905c	0.08230659
141	0x3d89a335	0.067205824
142	0xbc0b4787	-0.00850094
143	0x3d916243	0.0709882
144	0x3da4d44f	0.08048307
145	0x3c8940d9	0.016754555
146	0x3d4d0b5e	0.05005967
147	0xbe056bf7	-0.13029467
148	0xbd5e33a3	-0.054248463
149	0xbd4d83a7	-0.05017438
150	0xbd2082cc	-0.039187238
151	0xbd093947	-0.03350189
152	0xbce1f292	-0.027581487
153	0x3da4e801	0.08052064
154	0xbe931c3d	-0.28732482
155	0xbd72e4e1	-0.059300307
156	0xbdff13ae	-0.124549255
157	0x3d802e2c	0.062588066
158	0x3c32f192	0.010921853
159	0x3d8abb4e	0.06774007
160	0xbd04003b	-0.032226782
161	0xbdee107a	-0.116242364
162	0xbd8de6a2	-0.06928755
163	0x3e4c9845	0.19979961
164	0xbe2acfe3	-0.16680865
165	0xbd86225d	-0.06549523
166	0xbc8be237	-0.017075641
167	0xbd7ac638	-0.061224192
168	0x3cddbe7e	0.027068373
169	0xbd2fed56	-0.04295095
170	0x3d3a02a2	0.045412667
171	0xbbc77fad	-0.006088218
172	0xbdc6d75f	-0.097090475
173	0x3c9fc618	0.019503638
174	0x3d9cdb75	0.076590456
175	0x3dfc3f1b	0.12316724
176	0x3d958fd6	0.07302825
177	0xbc6b336d	-0.014355523
178	0x3c84bf48	0.016204491
179	0x3da478a9	0.080308266
180	0xbcd95e90	-0.026534349
181	0x3e1cc438	0.15309227
182	0xbdca3b21	-0.09874559
183	0x3bb63b83	0.0055612936
184	0xbd3a65cd	-0.04550724
185	0x3dd9550a	0.10611923
186	0xbcfc3297	-0.030785842
187	0x3d4cab63	0.049968135
188	0xbdd9a14f	-0.1062647
189	0xbdfd7471	-0.12375725
190	0x3e2e63fe	0.17030331
191	0x3dbcb1fe	0.09213637
192	0x3dc2a77d	0.09504602
193	0xbc57c8da	-0.013170445
194	0xbd936f2a	-0.07198937
195	0x3e3e6037	0.1859139
196	0x3db0e9bc	0.08638331
197	0xbe1ebfcc	-0.15502852
198	0x3cd875fa	0.026423443
199	0x3ddd078d	0.10792456
200	0x3daaaff9	0.08334345
201	0xbd5d667c	-0.054052815
202	0xbd80441b	-0.0626299
203	0xbcecbf84	-0.028899916
204	0xbdc28aee	-0.09499155
205	0xbd333a6f	-0.0437569
206	0x3d140659	0.036138866
207	0x3d9b29c3	0.07576325
208	0xbddf1704	-0.10893062
209	0xbe306680	-0.172266
210	0x3dcd7e32	0.100338355
211	0x3d420945	0.04737212
212	0xbd613755	-0.05498441
213	0xbdf011f6	-0.11722176
214	0xbbef7c1d	-0.0073084966
215	0xbd45d7c7	-0.048301484
216	0x3d9bbb5a	0.07604094
217	0x3e12ef4d	0.14349099
218	0xbda8702f	-0.08224522
219	0x3c308cd9	0.010775768
220	0x3d16779b	0.03673516
221	0x3df3b83a	0.11900373
222	0xbd6972f5	-0.056994397
223	0x3d7bb35c	0.061450347
224	0x3dd2eb41	0.10298777
225	0xbc9b95b4	-0.018992282
226	0xbd5199f2	-0.051172204
227	0xbd0b0382	-0.033938892
228	0xbd68693f	-0.056740995
229	0xbdd0644a	-0.101753786
230	0xbe259c81	-0.16172983
231	0xbdb5867b	-0.08863541
232	0xbd21befc	-0.039488778
233	0x3d820f2c	0.0635055
234	0x3dee94a6	0.11649446
235	0x3c9df357	0.019281073
236	0xbdf5060d	-0.11964045
237	0xbc9dd001	-0.019264223
238	0xbd7bf86d	-0.061516214
239	0x39ff1d5a	0.0004865926
240	0x3d952f5d	0.072844245
241	0xbe0effae	-0.13964722
242	0xbdf25d74	-0.11834231
243	0x3e05a205	0.13050087
244	0xbe68eb83	-0.2274609
245	0xbd9f2ee8	-0.077726185
246	0xbde63dd5	-0.11242262
247	0x3d11765c	0.035513267
248	0xbdbd0039	-0.09228558
249	0xbc1d77e6	-0.009611106
250	0x3d91f775	0.07127277
251	0xbcf5dd83	-0.030012852
252	0xbe81d263	-0.25355825
253	0xba94ebe3	-0.0011361804
254	0x3dddb358	0.10825223
255	0x3da3b140	0.07992792

actor.4.bias f4 [128]
0	0xbdb96cf3	-0.090539835
1	0x3cbd41cf	0.023102669
2	0xbe17dc41	-0.14830114
3	0xbe285b07	-0.16440974
4	0xbd3ecc8e	-0.046581797
5	0xbe1ea20f	-0.15491508
6	0x3d423692	0.047415324
7	0xbde42fc2	-0.111419216
8	0xbc6afd1e	-0.014342574
9	0xbe47a039	-0.19494714
10	0xbe877c8c	-0.2646221
11	0xbe3b4fcb	-0.18292157
12	0xbc6eb4ca	-0.014569471
13	0x3e061d44	0.13097101
14	0x3d0452df	0.032305595
15	0x3e1ab774	0.15109044
16	0xbd1c4f2c	-0.03816144
17	0x3e02c370	0.12769866
18	0x3e1f1b96	0.15537867
19	0xbe3a3a8a	-0.18186393
20	0x3d3620dd	0.044464935
21	0xbce5746f	-0.028009621
22	0xbd3778e6	-0.044793032
23	0x3d847ba8	0.06468898
24	0xbda296d9	-0.07938928
25	0xbbe09325	-0.0068534785
26	0xbd9502d4	-0.0727593
27	0xbe0a0c0a	-0.13481155
28	0x3e13b25a	0.14423504
29	0xbbe52966	-0.0069934605
30	0x3da5f674	0.08103648
31	0xbd50a6d5	-0.050940353
32	0xbdd85a4e	-0.10564099
33	0x3d04f2c3	0.032458078
34	0x3c77e5e4	0.015130494
35	0xbdad2e8a	-0.08456142
36	0xbe30bec5	-0.17260273
37	0xbe666ada	-0.22501698
38	0x3c61d39d	0.013783363
39	0xbded4576	-0.11585514
40	0x3d6606e2	0.056158908
41	0x3d482b55	0.04886945
42	0xbe4ad9b2	-0.19809607
43	0xbdb4fc8f	-0.08837234
44	0xbe3a4fcf	-0.18194507
45	0xbd96c587	-0.07361894
46	0x3d0b86d5	0.034064133
47	0xbd2594f0	-0.04042524
48	0x3db651cc	0.0890232
49	0xbe563ff2	-0.2092283
50	0xbd3d94e4	-0.04628457
51	0x3c7e934b	0.015538047
52	0x3d7eb164	0.06218089
53	0xbd8b5fd8	-0.0680539
54	0x3b8171e6	0.0039503453
55	0x3e00cba2	0.1257768
56	0x3cab5a26	0.02091701
57	0x3ddb8aed	0.10719857
58	0xbc012e24	-0.007884536
59	0xbdcfeb51	-0.10152305
60	0xbe347850	-0.1762402
61	0xbd40dcad	-0.047085453
62	0xbd8acf26	-0.06777792
63	0xbd47a27f	-0.048738953
64	0x3cf5478d	0.029941345
65	0xbdab72e0	-0.0837152
66	0xbd421c05	-0.047390003
67	0xbcc11ba9	-0.02357276
68	0xbc609f65	-0.013709878
69	0x3d4f003c	0.050537333
70	0x3c72d00b	0.014820109
71	0xbe38c6a6	-0.18044528
72	0xbde23f2e	-0.11047207
73	0x3d4d3073	0.050095033
74	0xbd9a28d5	-0.07527319
75	0xbdd2b49b	-0.10288354
76	0x3da56bad	0.08077178
77	0xbcb863bc	-0.022508495
78	0xbdc47c46	-0.09594016
79	0xbcdf219b	-0.027237704
80	0xbda3098c	-0.07960805
81	0x3d27e0df	0.04098594
82	0x3cd9c8de	0.026585039
83	0xbad22faa	-0.0016035934
84	0xbd477e61	-0.04870451
85	0xbe196c3a	-0.14982691
86	0xbcc3622b	-0.023850521
87	0x3d9cdc27	0.07659178
88	0x3d530f64	0.05152835
89	0xbd1b79b5	-0.037957866
90	0x3de739c5	0.112903155
91	0xbb04bdac	-0.0020254655
92	0xbe2bb6b9	-0.16768922
93	0xbd8304e5	-0.06397418
94	0xbe7101d3	-0.23535852
95	0xbe123aec	-0.1428029
96	0x3dc1df1e	0.09466384
97	0x3d0b07a2	0.033942826
98	0xbcc6753b	-0.024225822
99	0x3dc8ae53	0.09798875
100	0xbe3d3692	-0.18477848
101	0xbd8b809d	-0.068116404
102	0xbdd53af1	-0.10411633
103	0xbdc1d99b	-0.09465333
104	0xbcfad325	-0.03061826
105	0xbd96c0c2	-0.073609844
106	0xbdad9a15	-0.084766544
107	0x3a225561	0.0006192532
108	0xbde148e7	-0.11000233
109	0x3c9eb756	0.01937453
110	0xbe408149	-0.18799318
111	0xbd7859b3	-0.06063242
112	0x3e2f9e54	0.17150241
113	0xbe39bd2b	-0.18138568
114	0x3ddb38b3	0.10704174
115	0xbde3cb74	-0.1112279
116	0xbe678704	-0.22610098
117	0xbe03ec4d	-0.1288311
118	0xbe4a2163	-0.19739299
119	0xbe125aea	-0.14292493
120	0xbe1e6a5a	-0.15470257
121	0xbe51316d	-0.2042901
122	0x3df62f95	0.12020794
123	0x3c2227d3	0.00989719
124	0xbc791809	-0.015203484
125	0x3e37788e	0.17917082
126	0xbe575059	-0.21026744
127	0xbdd1ad25	-0.10238103

actor.6.weight f4 [12, 128]
0	0x3dc7321e	0.09726356
1	0xbd80e2c7	-0.06293254
2	0x3d5e61c1	0.054292444
3	0xbdad9f7c	-0.08477685
4	0xbcd42fed	-0.025901759
5	0x3b039580	0.0020078123
6	0xbd2a93b3	-0.041644763
7	0x3bf5bfc7	0.0074996683
8	0xbd0c8c08	-0.03431323
9	0x3df49ab4	0.1194357
10	0x3c268fb9	0.010166102
11	0x3bb8e737	0.0056427973
12	0xbc94b26b	-0.018151483
13	0xbdc392a8	-0.09549457
14	0xbd5f7f2d	-0.054564644
15	0x3d160633	0.036627006
16	0xbc2e05e1	-0.010621519
17	0xbd3b6e21	-0.045759324
18	0xbd12b391	-0.03581578
19	0x3c16f24e	0.009213043
20	0xbd1206f2	-0.035651155
21	0x3d350520	0.04419434
22	0xbc60bbd8	-0.01371666
23	0xbc277ce9	-0.010222652
24	0xbcf1fd09	-0.029539602
25	0xbc2990ff	-0.010349511
26	0xbcd23f2d	-0.02566489
27	0x3d435b94	0.047694758
28	0x3d0cc631	0.034368698
29	0x3c9367ca	0.017993826
30	0xbc705081	-0.014667631
31	0x3c8babe3	0.017049735
32	0xbc09e185	-0.008415584
33	0x3bacc7f4	0.0052728597
34	0xbd8a696d	-0.067583896
35	0x3bd189e4	0.0063946117
36	0xbd15e9b1	-0.03659982
37	0xbb7d0f6e	-0.0038613933
38	0xbd8b5e7f	-0.06805133
39	0xbc916b55	-0.017751375
40	0xba016430	-0.00049358886
41	0x3bc23d25	0.005927699
42	0xbe6cebaa	-0.23136774
43	0xbc30cab4	-0.010790516
44	0xbd4c0cfc	-0.04981707
45	0xbc849614	-0.016184844
46	0xbca40150	-0.020020157
47	0x3c9244fa	0.017855156
48	0xbd19e29a	-0.03756962
49	0x3de29c31	0.110649474
50	0xbc08bf5c	-0.008346405
51	0x3ad7a5f6	0.0016452658
52	0xbd1bef41	-0.038069967
53	0x3bfcd0e8	0.0077153333
54	0xbcf0b394	-0.029382505
55	0xbc58fb26	-0.013243472
56	0xbb7b3b14	-0.0038334774
57	0xbd970cdb	-0.07375499
58	0x3cdbd6c8	0.026835814
59	0xbce24ce7	-0.02762456
60	0x3c9500f4	0.018188931
61	0x3d042398	0.032260507
62	0x3c089c3e	0.008338032
63	0xbdd3fbdb	-0.10350772
64	0x3c870cfc	0.016485684
65	0xbcd245ea	-0.025668103
66	0x3d2669a8	0.040628105
67	0xbc79cb27	-0.015246189
68	0x3d92fae5	0.071767606
69	0x3d01d59e	0.03169786
70	0xbb9bc6d6	-0.0047539277
71	0x3d8e5946	0.06950621
72	0x3cc897ad	0.024486387
73	0xbd3194ff	-0.043354984
74	0xbcbe950a	-0.023264427
75	0x3cc29d28	0.023756579
76	0xbc3f897d	-0.011690495
77	0x3d55ef87	0.052230384
78	0x3daa680e	0.08320628
79	0xbcdd46f1	-0.027011367
80	0x3d48ba1f	0.049005624
81	0xbc783cef	-0.015151246
82	0xbc07c7ac	-0.008287352
83	0xbd344388	-0.044009715
84	0xbc8e83f2	-0.0173969
85	0x3d35a46d	0.04434626
86	0x3d8f4357	0.06995266
87	0xbd16d5a6	-0.036824845
88	0x3bbe23d3	0.0058026104
89	0xbca5101f	-0.020149289
90	0xbcdfecd9	-0.027334617
91	0xb9ff6234	-0.00048710557
92	0x3c3e77a7	0.011625207
93	0x3c60bd1d	0.013716963
94	0x3dc74913	0.09730735
95	0x3bb9841c	0.0056615006
96	0xbd252d7e	-0.040326588
97	0xbd539bac	-0.051662132
98	0x3d51453f	0.05109143
99	0xbd9c17a6	-0.07621698
100	0xbc7ce8a5	-0.015436326
101	0xbdc2becd	-0.095090486
102	0xbd0d0301	-0.034426693
103	0xbd326014	-0.04354866
104	0x3bda1689	0.0066555184
105	0x3d561e52	0.05227501
106	0xba882dc5	-0.0010389617
107	0xbd1341c4	-0.03595139
108	0x3e0cc2c0	0.13746166
109	0x3d0f7894	0.0350271
110	0xbd066904	-0.032814994
111	0x3b5e15ad	0.0033887431
112	0xbd0ebc77	-0.034847703
113	0xbcbf0cea	-0.023321588
114	0xbd3050fe	-0.04304599
115	0xbd987656	-0.07444446
116	0x3dd77045	0.105194606
117	0x3cb4344b	0.021997591
118	0x3d2689cc	0.040658757
119	0xbc1c3de4	-0.00953624
120	0x3c2f26d9	0.010690414
121	0x3d2e98d2	0.04262621
122	0xbd2dd974	-0.042443708
123	0xbd4afdc0	-0.0495584
124	0xbd5e5158	-0.054276794
125	0xbd0dcfa5	-0.034621853
126	0x3da1d2ad	0.07901511
127	0x3d210179	0.039308045
128	0xbcbe824a	-0.023255486
129	0x3c4616fb	0.01209044
130	0x3c1f9233	0.009739446
131	0x3d198b63	0.037486445
132	0x3d932322	0.071844354
133	0x3d0a356c	0.033742353
134	0x3d20687d	0.039162148
135	0x3db9e2f9	0.09076495
136	0x3cfb6781	0.030689003
137	0x3d748a56	0.05970224
138	0x3dd63ffd	0.104614235
139	0x3d0f809e	0.03503477
140	0x3c00c9b6	0.007860592
141	0xbd65f209	-0.056139026
142	0x3b6682be	0.0035173143
143	0xbdb36fce	-0.087615594
144	0x3bb6dc44	0.005580457
145	0x3b7607c7	0.0037541257
146	0xbd706ba3	-0.0586964
147	0xbe1b8ce1	-0.1519046
148	0xbd10bf21	-0.035338525
149	0xbd2ab8e5	-0.041680235
150	0x3d09f0db	0.033676963
151	0xbd0b9ce9	-0.034085188
152	0x3d1dc215	0.03851517
153	0xbbd69f37	-0.0065497416
154	0x3c7f2516	0.015572807
155	0xbc9869a7	-0.018605066
156	0xbd8d441f	-0.06897759
157	0xbd244795	-0.04010733
158	0x3bfccb94	0.007714698
159	0x3c339ff6	0.010963431
160	0xbad34cd8	-0.0016120924
161	0xbc36582f	-0.011129423
162	0x3da6c43f	0.081429
163	0xbc1cd972	-0.009573327
164	0x3d03bdb9	0.032163355
165	0x3daaccd8	0.08339852
166	0xbdc12eb7	-0.09432738
167	0x3d11ef18	0.03562841
168	0x3cf8c653	0.030368006
169	0xbc6f2365	-0.014595841
170	0x3d92c09f	0.07165646
171	0x3c6362fc	0.01387858
172	0x3c437638	0.011930041
173	0x3cf0e54f	0.029406218
174	0xbc1302e4	-0.008972857
175	0xbc583aaf	-0.013197585
176	0x3c815648	0.015788212
177	0x3dd62991	0.10457147
178	0xbd6325ad	-0.055455852
179	0xbc1a1c7e	-0.009406207
180	0x3d3654de	0.04451453
181	0x3d039c36	0.032131396
182	0x3b5ac729	0.003338287
183	0xbd747b93	-0.059688162
184	0xbd39d329	-0.045367394
185	0xbd8dd309	-0.069250174
186	0xbbd6c811	-0.0065546115
187	0x3da4e079	0.08050627
188	0xbcd93059	-0.026512312
189	0xbcae47ec	-0.02127453
190	0x3b5826c4	0.003298209
191	0x3d64343b	0.055713873
192	0xbd2a3aff	-0.04156017
193	0xbc68773a	-0.014188582
194	0xbd54c712	-0.05194766
195	0x3cc5389d	0.024074847
196	0xbdb5a754	-0.08869806
197	0xbc7c304f	-0.015392377
198	0x3c5ae31b	0.01335981
199	0x3da322a0	0.079655886
200	0xbd2ea52e	-0.042637996
201	0x3d55159e	0.05202257
202	0x3cc95f6b	0.024581632
203	0x3c92ecfa	0.017935265
204	0x3cc10f8f	0.02356699
205	0xbc3c432e	-0.011490626
206	0xbc65ebbb	-0.014033253
207	0x3d886219	0.06659336
208	0x3bf9422c	0.0076067653
209	0x3c24206f	0.010017498
210	0xbd1b5b1a	-0.037928678
211	0xb8980514	-7.248871e-05
212	0x3cfaec7f	0.030630348
213	0x3d05931d	0.032611
214	0xbcb1f998	-0.02172546
215	0x3bc56807	0.006024364
216	0x3c5864d3	0.013207632
217	0xbb292ceb	-0.0025814127
218	0x3bdaaa8c	0.006673163
219	0x3bbebde8	0.0058209784
220	0x3d698419	0.057010744
221	0xbdde42f4	-0.10852614
222	0x3c44df8d	0.012016189
223	0x3d212cd6	0.0393494
224	0xbac43004	-0.0014967923
225	0x3c3353be	0.010945259
226	0x3cbdbfce	0.023162749
227	0x3c08a4b5	0.0083400505
228	0x3d6717c1	0.056419138
229	0x3ae024fb	0.0017100865
230	0x3c7fafa0	0.015605837
231	0x3d81e759	0.06342954
232	0xbcbcc9da	-0.02304547
233	0xbd71683c	-0.058937296
234	0x3c7a9275	0.015293707
235	0xbc4515c3	-0.012029114
236	0xbbd427d1	-0.006474473
237	0xbd848e18	-0.06472415
238	0xbb9e7c66	-0.004836607
239	0xba9057b2	-0.0011012463
240	0xbd37e627	-0.044897225
241	0xbce39104	-0.02777911
242	0xbd3bd874	-0.045860723
243	0xbe117098	-0.14203107
244	0xbd1261ac	-0.03573768
245	0x3d5b72ac	0.053576156
246	0x3dfa804c	0.12231502
247	0xbd9fda4d	-0.078053094
248	0x3e1db350	0.15400434
249	0x3d5c53d7	0.053790893
250	0xbc3e5ab2	-0.011618303
251	0x3cd80156	0.026367825
252	0x3db9638d	0.09052191
253	0xbcf5a7c8	-0.02998723
254	0x3d408724	0.04700388
255	0xbd9fe452	-0.078072205

actor.6.bias f4 [12]
0	0xbdd3098f	-0.103045575
1	0xbe802c5b	-0.2503384
2	0x3d85171f	0.064985506
3	0x3d162271	0.03665394
4	0x3d8019d4	0.06254926
5	0xbd46170b	-0.04836182
6	0x3c9a138b	0.018808147
7	0xbbb05d65	-0.0053822272
8	0x3d228b19	0.039683435
9	0xbd1f8ed5	-0.038954575
10	0x3d9f55b0	0.077800155
11	0xbdff4102	-0.12463571

critic.0.weight f4 [128, 48]
0	0x3eb68f81	0.3565636
1	0xbceb6131	-0.028732868
2	0xbdfab098	-0.12240714
3	0x3b06c459	0.002056381
4	0x3bda79f1	0.0066673686
5	0xbe4238ca	-0.18966976
6	0x3e827874	0.25482523
7	0xbe46a76d	-0.19399805
8	0x3dae7f05	0.08520321
9	0xbef31aa1	-0.47481254
10	0xbf35e531	-0.71052843
11	0xbea8cf0a	-0.32970458
12	0x3dd25881	0.10270787
13	0xbc890775	-0.016727189
14	0x3e0ebae3	0.13938479
15	0xbcfc9783	-0.030833965
16	0xbb1504c9	-0.0022738448
17	0xbd6f3c79	-0.05840728
18	0x3e3c5313	0.18391065
19	0x3d385970	0.04500717
20	0x3d94128b	0.07230099
21	0xbe0bb306	-0.13642511
22	0xbd5c574c	-0.05379419
23	0x3d0838b5	0.033257205
24	0x3d90d74c	0.070723146
25	0xbca673ad	-0.02031883
26	0xbd84f77c	-0.064925164
27	0x3bd2385c	0.00641541
28	0x3d155a3b	0.036463004
29	0x3c39817e	0.011322377
30	0x3b794678	0.0038036387
31	0xbc873221	-0.016503396
32	0xbc297ce9	-0.010344722
33	0x3c7cdd48	0.015433617
34	0x3d6873dc	0.056751117
35	0x3b2bae8f	0.0026196574
36	0xbd4fa1f1	-0.05069155
37	0xbd07de40	-0.03317094
38	0xbca3b12c	-0.019981943
39	0xbd168ee9	-0.036757383
40	0x3d874121	0.06604219
41	0xbce2e4bb	-0.027696958
42	0x3c82ea69	0.015980916
43	0x3d3c0929	0.045907173
44	0xbc7192bb	-0.014744456
45	0xbd9a1653	-0.07523789
46	0x3c509460	0.012730688
47	0xbcbc0153	-0.02294985
48	0xbe948fa9	-0.29015854
49	0xbe13217c	-0.14368242
50	0xbe17693b	-0.14786236
51	0x3dbf7bbe	0.09349774
52	0x3dbc96d8	0.09208459
53	0x3d86cfdb	0.06582614
54	0x3fa03610	1.2516499
55	0xbf84db38	-1.03794
56	0xbbbc5295	-0.005747149
57	0x3e9e0441	0.3086262
58	0x3df24329	0.11829216
59	0xbd823d03	-0.06359293
60	0x3cf2f023	0.029655522
61	0x3e9fe708	0.3123095
62	0x3da8c7a3	0.08241203
63	0x3baec55c	0.0053335857
64	0x3e8ca7f7	0.27471897
65	0xbcd833df	-0.026391922
66	0x3ecee345	0.40407768
67	0x3df072fa	0.1174068
68	0x3dee76b8	0.116437376
69	0x3e53e45b	0.2069258
70	0x3f0ca965	0.54945976
71	0xbc02684b	-0.007959436
72	0x3dc275ed	0.09495149
73	0xbddbd19f	-0.107333414
74	0xbcad609d	-0.021164233
75	0x3d8da104	0.06915477
76	0x3d799fa5	0.060943265
77	0xbac8fbdd	-0.001533385
78	0x3daea2ce	0.08527146
79	0xbd8c8eaa	-0.068631485
80	0x3cc5bea6	0.02413876
81	0x3b4150fd	0.0029497736
82	0x3c86fd14	0.016478099
83	0xbc70a95a	-0.014688814
84	0xbaf58c28	-0.0018733786
85	0x3cc2e2b5	0.023789743
86	0x3b0038fc	0.0019565215
87	0x3e0996dd	0.13436456
88	0x3bcaded6	0.006191115
89	0xbdb3d68e	-0.087811574
90	0xbc47df3b	-0.012199218
91	0x3d439959	0.047753666
92	0xbb39a660	-0.0028327927
93	0x3d438c7a	0.04774139
94	0xbd3fd749	-0.04683617
95	0x3cd00f8e	0.025398042
96	0xbdd4503c	-0.10366866
97	0x3df0b253	0.11752763
98	0x3bcd89d9	0.0062725362
99	0xbe03dbc9	-0.1287681
100	0xbe20dc7f	-0.15709113
101	0x3e874256	0.26417798
102	0xbeff4528	-0.4985745
103	0x3fc143c8	1.509881
104	0x3e48419e	0.19556281
105	0x3e530a5e	0.20609424
106	0xbdc1770a	-0.09446533
107	0xbe66183d	-0.22470184
108	0xbdbe44dc	-0.09290478
109	0xbe816b1a	-0.25277025
110	0xbe1e8839	-0.15481652
111	0xbe9f5c1d	-0.31124964
112	0x3e1d6847	0.1537181
113	0xbe8f0270	-0.27931547
114	0x3e072d88	0.13200963
115	0x3d79b1b8	0.0609605
116	0x3e309e5b	0.17247908
117	0xbe299bde	-0.16563365
118	0xbe76a6b1	-0.24087025
119	0x3d9f5413	0.07779708
120	0xbca92616	-0.020648044
121	0xbd58cef8	-0.052931756
122	0x3d019a4a	0.031641282
123	0xbd1d06ca	-0.038336553
124	0xbb594cd5	-0.0033157368
125	0xbd37f34a	-0.044909753
126	0x3abe8129	0.0014534342
127	0x3c95eed0	0.018302351
128	0x3b54b763	0.003245794
129	0xbbc20fb5	-0.0059222826
130	0xbcdbf3c4	-0.026849635
131	0x3ca381f0	0.01995942
132	0x3d55c5d8	0.05219063
133	0x3c2602f2	0.010132538
134	0x3d0bdce6	0.034146212
135	0x3d972090	0.07379258
136	0x3dc46839	0.095901914
137	0x3cb120ce	0.021622088
138	0xbc680b61	-0.014162869
139	0xbd8764cc	-0.06611022
140	0x3c8f4fa4	0.01749403
141	0xbb29d69d	-0.0025915273
142	0xbc760ed8	-0.015018187
143	0xbd811def	-0.063045375
144	0xbe14fb43	-0.14548974
145	0xbeb25815	-0.34832826
146	0xbcd76c0e	-0.026296642
147	0x3b406023	0.0029354177
148	0x3c48fe31	0.012267635
149	0xbe0cbb89	-0.13743414
150	0xbffc3157	-1.9702557
151	0xbedb0d20	-0.4278345
152	0xbd0e1d87	-0.03469613
153	0x3dcd5122	0.100252405
154	0x3ececf49	0.4039252
155	0x3e90f71d	0.28313532
156	0x3e8d2d86	0.27573794
157	0x3a10a1b0	0.00055172574
158	0xbd30ddaa	-0.043180145
159	0xbd50e0e3	-0.05099572
160	0xbd6015bb	-0.054708224
161	0xbe38f563	-0.18062358
162	0x3c864d4e	0.016394284
163	0x3e39782e	0.18112251
164	0xbeb1389d	-0.34613505
165	0x3a7ce671	0.00096473756
166	0xbe93c8a6	-0.2886402
167	0xbde8620c	-0.11346826
168	0x3d8e8e09	0.06960685
169	0xbd3069c1	-0.043069605
170	0xbce81158	-0.028328583
171	0x3cd42a21	0.025898995
172	0x3cf3c12a	0.029755194
173	0xbd4dc4ee	-0.050236635
174	0x3cbf0d48	0.023321763
175	0x3d028eb1	0.031874362
176	0xbc957d6d	-0.018248284
177	0xbcf4e246	-0.029893052
178	0x3c84cd73	0.016211247
179	0xba6aa49c	-0.00089509203
180	0xbd8d89c3	-0.069110416
181	0x3d896391	0.06708444
182	0x3df5de39	0.12005276
183	0x3d5f0b85	0.054454345
184	0xbd24505d	-0.040115703
185	0x3be546ee	0.006996981
186	0x3debb95f	0.11509966
187	0x3d496b6d	0.049174715
188	0x3e0bd939	0.13657083
189	0xbda2e945	-0.07954649
190	0xbe16c858	-0.14724863
191	0xbcb93e08	-0.022612587
192	0xbea59d75	-0.32346693
193	0xbeb84ea7	-0.35997507
194	0x3e172660	0.14760733
195	0xbe2875e6	-0.16451225
196	0x3d56edf5	0.052473027
197	0xbca8be9d	-0.020598704
198	0x3f423f67	0.75877994
199	0xbf3d2e11	-0.73898417
200	0xbd93befc	-0.07214162
201	0x3c305c00	0.010764122
202	0xbe94c633	-0.29057464
203	0xbec494bb	-0.38394722
204	0xbce5242b	-0.027971348
205	0x3e2280f4	0.15869504
206	0x3dcd21f5	0.100162424
207	0x3dbd96a6	0.092572495
208	0x3e20b39e	0.15693519
209	0xbd17e916	-0.037087522
210	0xbc297f81	-0.010345341
211	0xbe451151	-0.19244887
212	0xbd500872	-0.050789304
213	0xbd0fb943	-0.03508879
214	0xbcebed34	-0.02879963
215	0xbe3392d9	-0.17536487
216	0xbdc30144	-0.09521726
217	0x3d5e91aa	0.054338135
218	0xbd52bcd5	-0.051449616
219	0x3c345e4c	0.01100881
220	0x3d1b0029	0.03784195
221	0x3cef203c	0.029190175
222	0xbdd6530c	-0.10465059
223	0xbd9ff2f5	-0.07810012
224	0xbd0ddf54	-0.03463681
225	0x3b3319ba	0.0027328567
226	0xbcd07ecc	-0.025451086
227	0x3c8c548e	0.017130163
228	0x3deb52c5	0.114903964
229	0xbd2107a8	-0.039313942
230	0xbdb0fef7	-0.08642381
231	0x3d159477	0.03651854
232	0x3bf9cc38	0.0076232217
233	0x3cd8fca3	0.026487654
234	0xbd81d538	-0.063394964
235	0xbd9d6dfb	-0.07686993
236	0xbc1b1276	-0.009464851
237	0x3d8224f7	0.06354707
238	0xbe190b42	-0.14945701
239	0xbdac74db	-0.08420726
240	0xbeae0a90	-0.33992434
241	0xbde8049c	-0.11329004
242	0x3d968a76	0.07350628
243	0x3d42d13f	0.047562834
244	0xbe10719b	-0.14105837
245	0x3e51a380	0.20472527
246	0xbf2f4038	-0.68457365
247	0xbf55d895	-0.835336
248	0x3d7c935f	0.06166398
249	0x3e07d765	0.1326576
250	0x3ccd9c0a	0.02509882
251	0x3e223dcb	0.15843885
252	0xbe011e99	-0.12609328
253	0x3d673299	0.056444738
254	0x3dcede1d	0.101009585
255	0x3e550925	0.2080427

critic.0.bias f4 [128]
0	0xbd1a3769	-0.0376505
1	0x3e64ca6c	0.22342843
2	0xbd969549	-0.07352693
3	0xbe168d2e	-0.14702293
4	0x3da6a4a5	0.08136872
5	0x3dc3da47	0.095631175
6	0xbd662076	-0.0561833
7	0x3e31b880	0.17355537
8	0x3e343155	0.17596944
9	0xbd404221	-0.046938065
10	0x3ddd7317	0.10812967
11	0xbeacf01e	-0.33776945
12	0xbe208c8b	-0.15678613
13	0xbe456226	-0.19275722
14	0xbb97acf1	-0.0046287705
15	0xbe122ec3	-0.1427565
16	0xbe311b1d	-0.17295499
17	0x3d33d11d	0.043900598
18	0xbe2c2e91	-0.16814639
19	0xbd5bf372	-0.053698964
20	0xbe0f7eb5	-0.14013179
21	0xbe0ccaa6	-0.13749179
22	0xbdd1d0c8	-0.102449
23	0xbda51567	-0.08060723
24	0xbe0eb6cf	-0.13936923
25	0x3db37b10	0.08763707
26	0xbe3c6e2b	-0.184014
27	0xbde84501	-0.113412865
28	0x3e32d3c3	0.17463593
29	0x3b3a028c	0.0028382866
30	0x3d23df26	0.040007733
31	0x3dc31a9c	0.0952656
32	0x3ba0d981	0.004908741
33	0xbe33d549	-0.1756183
34	0xbe657b9a	-0.22410432
35	0xbe223b0c	-0.15842837
36	0xbe54132f	-0.20710443
37	0x3b837e6b	0.004012873
38	0x3e49f4b4	0.19722253
39	0x3c1811e2	0.009281607
40	0xbe21202c	-0.15734929
41	0xbc9d51c4	-0.019204028
42	0xbe82095e	-0.25397772
43	0xbcaabe8b	-0.020842811
44	0xbe97d0c2	-0.29651457
45	0xbe4547e0	-0.192657
46	0xbd4020df	-0.04690635
47	0x394fc72b	0.00019815254
48	0xbe3bda20	-0.18344927
49	0x3cdd3f80	0.027007818
50	0x3d600ee2	0.054701693
51	0x3c0473a7	0.008084214
52	0x3c88d5f9	0.016703593
53	0xbc8b7635	-0.017024139
54	0xbe0c30ef	-0.13690542
55	0x3e536f8e	0.20648023
56	0x3b907922	0.0044089714
57	0xbe62d8d4	-0.22153026
58	0xbe0b9ab4	-0.13633233
59	0x3d83e3ee	0.064399585
60	0xbce11448	-0.027475491
61	0xbdb32482	-0.08747198
62	0x3d36c289	0.044619117
63	0xbdca6dda	-0.09884234
64	0x3e1b8ecb	0.1519119
65	0x3e6d5847	0.23178206
66	0x3c73daa0	0.014883667
67	0x3e4cd07f	0.2000141
68	0x3d85c6cf	0.0653206
69	0x3e1a4c43	0.15068154
70	0xbda2975d	-0.079390265
71	0xbe075390	-0.1321547
72	0xbe227786	-0.15865907
73	0xbd934b1b	-0.071920596
74	0xba948929	-0.0011332381
75	0xbccddc89	-0.025129573
76	0xbd2e43a6	-0.042544983
77	0x3e6c6a54	0.23087436
78	0x3db0193d	0.08598564
79	0xbe242b51	-0.16032149
80	0x3e2acb57	0.1667913
81	0xbe2f031a	-0.17091027
82	0xbc873742	-0.016505841
83	0xbb106d70	-0.0022037886
84	0x3e50c68d	0.20388241
85	0x3c78ef82	0.015193822
86	0xbe18a61b	-0.14907114
87	0x3e3647f7	0.1780089
88	0x3c57a695	0.013162275
89	0xbe15920d	-0.14606495
90	0x3cd92bb0	0.02651009
91	0xbde35ee3	-0.111020826
92	0xbe5280bf	-0.20556925
93	0xbda53a01	-0.08067704
94	0xbe2f8276	-0.1713961
95	0xbe081d24	-0.13292366
96	0x3e158775	0.14602454
97	0x3d9da9d4	0.07698408
98	0x3e18bd9d	0.14916082
99	0x3d70af55	0.05876096
100	0xbda2c72b	-0.079481445
101	0x3c183423	0.009289774
102	0x3e3fa608	0.1871568
103	0xbe166188	-0.14685643
104	0x3d56366f	0.052298006
105	0xbda289e2	-0.07936455
106	0x3d2c84a2	0.042118676
107	0xbdab149f	-0.083535425
108	0x3dde86d8	0.10865563
109	0x3e762381	0.24036981
110	0x3da6c550	0.08143103
111	0xbdc2aeb1	-0.09505976
112	0xbe31eb6b	-0.17374961
113	0xbcd873eb	-0.026422461
114	0xbd5533a7	-0.052051213
115	0x3da0e9dc	0.07857105
116	0xbe270ccb	-0.16313474
117	0xbe2bf3c8	-0.16792214
118	0xbdd5e925	-0.104448594
119	0xbe8c394d	-0.27387467
120	0x3d1b94e4	0.03798379
121	0x3e5ffe4d	0.21874352
122	0xbd067aed	-0.032832075
123	0x3d75ced3	0.060011696
124	0x3dcd3de6	0.10021572
125	0x3d86e4c1	0.065866
126	0xbe4ecf02	-0.20196155
127	0x3ce9692a	0.028492529
