logs/rsl_rl/anymal_c_flat_direct/2025-04-24_12-25-01/model_400.pt (torch, 983322 bytes, 48 tensors)

std f4 [12]
0	0x3de3c256	0.11121051
1	0x3de98b4b	0.11403521
2	0x3ddcf40c	0.10788736
3	0x3ddf6ee5	0.10909823
4	0x3e0626bc	0.13100713
5	0x3e094f69	0.13409199
6	0x3e0e470d	0.13894291
7	0x3e1287bc	0.14309591
8	0x3db03b23	0.086050294
9	0x3dcce194	0.10003963
10	0x3da5238d	0.080634214
11	0x3db7cfa1	0.08975149

actor.0.weight f4 [128, 48]
0	0x3e5d7c27	0.21629392
1	0xbceb33f7	-0.028711302
2	0xbe318e48	-0.17339432
3	0xbe01f2de	-0.12690303
4	0x3eb126bc	0.34599864
5	0xbeb0fce2	-0.34567934
6	0x3e8c95f1	0.27458146
7	0x3da24a07	0.07924276
8	0x3de88c5e	0.11354898
9	0xbd2d0a93	-0.042246412
10	0x3ec53933	0.38520202
11	0x3e8569e2	0.26057345
12	0x3cfa4925	0.030552456
13	0xbe92105e	-0.28528112
14	0xbe9bc500	-0.30423737
15	0xbf10edd1	-0.5661288
16	0xbdded830	-0.10881078
17	0x3e5d42e8	0.21607554
18	0xbbb4bb24	-0.005515473
19	0xbe402884	-0.18765455
20	0x3b1fc201	0.002437711
21	0x3ea7bd36	0.32761544
22	0x3ece3f93	0.40282878
23	0xbd5c0f8c	-0.053725764
24	0xbd56ff8a	-0.052489795
25	0x3d256cdf	0.04038703
26	0x3d190d1e	0.037366025
27	0xbd29ddd1	-0.041471306
28	0x3d90ec11	0.07076276
29	0x3e3043f8	0.17213428
30	0xbd8256d5	-0.06364218
31	0xbbf92fc0	-0.007604569
32	0x3d77b66b	0.0604767
33	0x3d36f5d7	0.044668045
34	0xbd89232d	-0.066961624
35	0xbc7221d9	-0.014778578
36	0x3d07e364	0.03317584
37	0xbe663ea9	-0.2248484
38	0x3e63ece2	0.22258332
39	0xbe0ce4f5	-0.13759215
40	0x3c08d306	0.008351093
41	0xbe241969	-0.16025318
42	0x3e210283	0.15723614
43	0xbdd98ec0	-0.106229305
44	0xbe3b17e3	-0.18270831
45	0xbe317ee5	-0.17333563
46	0x3e0795ae	0.13240692
47	0x3dea80ce	0.11450349
48	0xbf01c637	-0.50693077
49	0xbedfb674	-0.43693888
50	0x3df9509c	0.12173578
51	0xbde4d7e2	-0.11173989
52	0xbe56def1	-0.20983483
53	0x3d4b4d94	0.04963453
54	0xbd83589a	-0.06413384
55	0x3eb5357a	0.35392362
56	0x3e37eafb	0.17960732
57	0xbe11b24c	-0.14228171
58	0x3f008a46	0.5021099
59	0xbe9ebe5b	-0.31004605
60	0x3d9bb069	0.07602007
61	0xbc99d23d	-0.018777007
62	0x3d87cefe	0.066312775
63	0xbe223ac2	-0.15842727
64	0xbdcf230b	-0.10114106
65	0xbdd5429e	-0.10413097
66	0xbeb223b2	-0.34792858
67	0x3d8b1232	0.0679058
68	0x3ca35d6a	0.019942004
69	0x3dd93521	0.10605837
70	0x3bd0730e	0.006361372
71	0x3e6fc635	0.23415454
72	0x3d224124	0.039612904
73	0x3c85a76c	0.016315185
74	0xbcbbb0a8	-0.022911385
75	0xbd633977	-0.055474725
76	0xbcef9413	-0.029245412
77	0xbc93fe05	-0.018065462
78	0xbdaa6a9d	-0.08321116
79	0xbdbd99ed	-0.09257875
80	0xbcb99e32	-0.022658441
81	0xbce55f8c	-0.027999662
82	0xba94f3c0	-0.0011364147
83	0x3c905b91	0.017621787
84	0xbcfb2f22	-0.030662123
85	0x3dc1ac92	0.09456743
86	0xbbf06a03	-0.0073368563
87	0xbd346f7a	-0.044051625
88	0x3b4792e0	0.0030452535
89	0xba5e55ea	-0.000848143
90	0xbbce0f0d	-0.0062884153
91	0xbdfadd57	-0.122492485
92	0xbe56d7e9	-0.209808
93	0xbe15cc33	-0.14628677
94	0x3d05ae03	0.032636654
95	0xbe348f6f	-0.1763284
96	0xbe02bab8	-0.1276654
97	0xbd8643d6	-0.065559074
98	0x3e775d14	0.241566
99	0x3da9a40b	0.08283242
100	0x3e0fb34e	0.14033243
101	0xbe8862ef	-0.2663798
102	0xbea62960	-0.32453442
103	0xbf6fe1e6	-0.9370407
104	0x3e1a4ce8	0.150684
105	0x3ebfb707	0.37444326
106	0xbb886fd5	-0.004163722
107	0x3eac1a90	0.33614016
108	0x3ea9c2b4	0.3315636
109	0x3da1671d	0.078809954
110	0x3de89852	0.11357178
111	0x3e9ec1a4	0.3100711
112	0xbd8ab63b	-0.06773039
113	0xbea7e733	-0.32793579
114	0x3e5efdc1	0.21776487
115	0x3ec99095	0.3936812
116	0x3e6d58d9	0.23178424
117	0x3a929f7f	0.001118645
118	0xbd931f85	-0.07183746
119	0x3db4787d	0.08812044
120	0xbd9666f0	-0.073438525
121	0x3d764a5a	0.0601295
122	0xbb18f334	-0.002333832
123	0x3b90f51f	0.004423752
124	0xbdb78032	-0.08959998
125	0xbdae4160	-0.08508563
126	0x3c38e54a	0.0112851355
127	0x3d87faf5	0.06639663
128	0xbc89b5c7	-0.016810311
129	0x3d2eace5	0.042645354
130	0x3d0332c1	0.032030825
131	0xbaf4b230	-0.0018668827
132	0x3e26000f	0.1621096
133	0x3e191d74	0.14952642
134	0x3e1abd06	0.15111169
135	0xbdbb7026	-0.0915225
136	0x3d8ebb86	0.06969361
137	0xbe3da399	-0.18519439
138	0xbd2a11b6	-0.041520797
139	0xbe08048c	-0.13282984
140	0xbe610f6e	-0.21978542
141	0xbcd2fff7	-0.02575682
142	0xbe06c9ee	-0.13162968
143	0xbe284412	-0.16432217
144	0xbe50f0e0	-0.20404387
145	0x3e97ead7	0.29671356
146	0x3ee57111	0.44812825
147	0x3e578bcb	0.2104942
148	0xbdf87808	-0.12132269
149	0x3da203ac	0.079108566
150	0x3e121ea5	0.14269502
151	0x3edcee09	0.43150356
152	0x3bc31fed	0.0059547336
153	0xbe0eb587	-0.13936435
154	0xbdda7108	-0.1066609
155	0x3ebced89	0.36899975
156	0xbe974550	-0.2954507
157	0x3eb0dea2	0.34544855
158	0x3e4a5292	0.1975806
159	0x3dfabf91	0.1224357
160	0x3e0543ee	0.13014194
161	0xbe623628	-0.22090971
162	0x3e605011	0.21905543
163	0xbf1166bf	-0.56797403
164	0x3d9ba2bf	0.07599401
165	0x3d574e3c	0.052564844
166	0x3f31778a	0.6932303
167	0xbe717414	-0.23579437
168	0x3e145199	0.14484252
169	0xbd1796bc	-0.037008986
170	0x3df07ce3	0.1174257
171	0xbdaed427	-0.085365586
172	0x3cfef5c9	0.031123059
173	0xbd88249c	-0.06647608
174	0x3d99bab2	0.075063124
175	0x3d1106fb	0.035407048
176	0xbcb50c0b	-0.02210047
177	0xbcafb965	-0.021450708
178	0x3dea62e2	0.11444642
179	0x3cdfde37	0.02732764
180	0x3e1a832b	0.15089099
181	0xbe042297	-0.1290382
182	0xbcdc9adb	-0.02692931
183	0xbe3e2bca	-0.18571392
184	0xbd5e179e	-0.05422174
185	0xbc6e3440	-0.014538825
186	0x3e92f966	0.287059
187	0xbe298ac8	-0.16556847
188	0xbd665228	-0.056230694
189	0xbe26fe5d	-0.1630797
190	0xbebfbe5e	-0.37449926
191	0xbcb636f1	-0.022242995
192	0x3e9ae782	0.3025475
193	0xbd3b617a	-0.045747258
194	0xbe544bd9	-0.20732059
195	0xbe5123dd	-0.20423837
196	0x3e668a43	0.2251368
197	0x3e6297f7	0.22128282
198	0x3f22dcd8	0.6361823
199	0x3f066cda	0.52509844
200	0x3db87891	0.09007371
201	0x3e5e2bb2	0.21696356
202	0xbe9d225b	-0.30690274
203	0x3c4fa4e1	0.012673588
204	0xbe638ad6	-0.2222093
205	0xbde4b6e9	-0.111677
206	0xbe482a0e	-0.19547293
207	0xbee4fdd8	-0.44724917
208	0xbe575cec	-0.2103154
209	0xbe2ecf0b	-0.17071168
210	0x3e84b46a	0.25918895
211	0xbc09472e	-0.008378787
212	0x3e8fd941	0.2809544
213	0xbe9901a3	-0.2988406
214	0x3c67a58e	0.014138592
215	0xbe31abfc	-0.17350763
216	0x3d20c07b	0.039246064
217	0xbd8bf4f2	-0.06833829
218	0x3d2503d7	0.040286865
219	0xbe20ab44	-0.15690333
220	0x3d71eac8	0.059061795
221	0x3d3ab3d1	0.045581643
222	0xbde2ee84	-0.110806495
223	0x3d6b39e8	0.05742827
224	0x3d3d1c01	0.046169285
225	0xbcba1f3b	-0.02271997
226	0xbd4f3352	-0.050586052
227	0x3c791b3e	0.015204249
228	0x3e087709	0.13326658
229	0x3e627e05	0.22118385
230	0xbdbd088b	-0.09230145
231	0xbe56ae44	-0.20964915
232	0xbdd688d2	-0.10475315
233	0x3d8a7757	0.067610435
234	0x3c37d038	0.011219077
235	0x3d9d02ff	0.07666587
236	0xbdd654e0	-0.10465407
237	0xbe5cd8d6	-0.21567091
238	0x3d7ec794	0.06220205
239	0x3ecf92e1	0.40541747
240	0xbe21ee98	-0.15813673
241	0x3dd5c8b9	0.104386754
242	0xbebadd73	-0.36497077
243	0x3e4f1470	0.2022264
244	0xbd3c18cf	-0.045922097
245	0x3e9a2296	0.30104512
246	0x3cb0a5a4	0.021563359
247	0xbe032035	-0.12805255
248	0xbcf2a688	-0.029620424
249	0x3d3766b6	0.044775687
250	0xbec2fedf	-0.38085076
251	0x3d2b8d44	0.04188277
252	0x3e702c85	0.23454483
253	0x3f1a729e	0.6033114
254	0xbdaac135	-0.083376326
255	0x3d4ec366	0.050479315

actor.0.bias f4 [128]
0	0xbe4a7e9c	-0.1977486
1	0xbde98929	-0.11403114
2	0x3da8993b	0.082323514
3	0x3c1d257e	0.009591458
4	0x3e1ac0c2	0.15112594
5	0x3d96bd9b	0.07360383
6	0xbd9694c0	-0.073525906
7	0x3d298bb8	0.04139301
8	0x3c394e75	0.0113102095
9	0x3d112ea7	0.03544488
10	0xbd62d0cf	-0.055374917
11	0x3c390fdd	0.011295286
12	0xbd8473f8	-0.06467432
13	0xbd9953c5	-0.07486681
14	0xbd03489f	-0.03205168
15	0xbce184df	-0.027529178
16	0x3d6d53d8	0.057941288
17	0xbde318c2	-0.110887066
18	0xbc8e464e	-0.017367508
19	0xbd164e44	-0.036695734
20	0xbd05729f	-0.032580014
21	0x3d361e31	0.044462387
22	0xbdad2e3c	-0.08456084
23	0xbe7e6034	-0.24841386
24	0xbdb37401	-0.0876236
25	0xbd64b19f	-0.055833455
26	0x3d35459d	0.04425584
27	0x3d1135c7	0.035451677
28	0xbdfcba70	-0.12340248
29	0x3c6b1997	0.014349363
30	0x3bad0e90	0.005281277
31	0xbc099ba2	-0.008398922
32	0x3e3cab42	0.18424705
33	0x3de6ee41	0.11275912
34	0xbc2e7616	-0.010648271
35	0x3d388fc3	0.045058977
36	0x3d6ae2ef	0.057345327
37	0xbd7bc19a	-0.06146393
38	0xbdf1df8a	-0.11810215
39	0xbdb5d1ef	-0.08877932
40	0x3d00d314	0.0314513
41	0xbd07797b	-0.033074837
42	0x3d61c6e1	0.055121306
43	0x3da2c615	0.079479374
44	0xbd09f240	-0.033678293
45	0x3d41e5e4	0.04733838
46	0xbd4e4ca1	-0.050366048
47	0x3db55dcc	0.08855781
48	0xbe3bcd46	-0.18340024
49	0x3db0e981	0.08638287
50	0xbc11d0a8	-0.008899845
51	0xbd938176	-0.07202427
52	0x3da60a0c	0.08107385
53	0x3d231e3b	0.039823752
54	0xbe0a344b	-0.1349651
55	0xbcd1e823	-0.025623387
56	0x3cf15e7b	0.029463997
57	0xbe4632a2	-0.19355252
58	0x3d0ec145	0.034852285
59	0xbcd4410e	-0.025909927
60	0xbd7fdd65	-0.062466998
61	0x3d4dce29	0.050245438
62	0xbe682d78	-0.22673595
63	0x3ddca532	0.10773696
64	0xbe6b6e86	-0.2299138
65	0xbe21e5f5	-0.15810378
66	0xbdc48277	-0.09595197
67	0xbe66b1d8	-0.2252878
68	0xbde3ed7e	-0.111292824
69	0x3b42d329	0.0029727912
70	0xbd1563d7	-0.036472168
71	0xbd52540a	-0.051349677
72	0x3bbccd2f	0.0057617645
73	0xbd001977	-0.031274285
74	0x3ad18ab5	0.0015986772
75	0x3cce4de5	0.025183627
76	0x3e009912	0.12558392
77	0xbddca7b6	-0.10774176
78	0xbde99310	-0.11405003
79	0xbd798f62	-0.060927756
80	0xbcfd4678	-0.030917391
81	0xbc2c6964	-0.010523174
82	0x3d9c1760	0.07621646
83	0xbd9ebcc6	-0.077508494
84	0xbe293967	-0.16525804
85	0xbe15077d	-0.14553638
86	0x3d84b083	0.064789794
87	0xbd232d2c	-0.039838
88	0x3cfb8a09	0.030705469
89	0x3e08162a	0.13289705
90	0xbd762fbd	-0.06010412
91	0xbda29433	-0.07938423
92	0xbd9f44c8	-0.07776791
93	0xbca73d71	-0.02041504
94	0xbcdb6dc9	-0.026785748
95	0x3d8b48e7	0.068010144
96	0xbe440a9f	-0.19144677
97	0xbde7575d	-0.1129596
98	0xbe16d1b4	-0.14728433
99	0xbd6ed506	-0.058308624
100	0x3c144c7f	0.009051441
101	0xbd1d6729	-0.03842846
102	0xbd9b7af8	-0.07591814
103	0x3e38c4ab	0.18043773
104	0x3d7f55cb	0.062337678
105	0xbd780ee2	-0.06056107
106	0xbdbd8f6c	-0.09255871
107	0x3da5919b	0.08084413
108	0x3df99adf	0.121877424
109	0xbdfa783a	-0.12229963
110	0x3d55a712	0.052161284
111	0xbdaf5b8c	-0.08562383
112	0x3e0d9c0a	0.13829055
113	0xbe14aaa6	-0.14518222
114	0xbe162d1f	-0.1466565
115	0xbb209876	-0.0024504936
116	0xbdef344a	-0.11679895
117	0xbe2e62c0	-0.17029858
118	0x3c015f43	0.007896247
119	0xbd2b8946	-0.04187896
120	0x3e3623a6	0.17787036
121	0x3c9d2334	0.019181825
122	0xbd7b74e7	-0.061390784
123	0xbc22447f	-0.009904026
124	0x380a85e2	3.3026452e-05
125	0xbda6cc54	-0.08144441
126	0x3c0e7a63	0.008696171
127	0x3cf63992	0.030056749

actor.2.weight f4 [128, 128]
0	0x3dfa821c	0.12231848
1	0x3dde37e8	0.10850507
2	0x3d8f38da	0.069932655
3	0xbd601740	-0.054709673
4	0x3dd28056	0.102783844
5	0xbca729d5	-0.02040569
6	0xbc76601f	-0.0150375655
7	0x3d84fb56	0.06493251
8	0x3da53062	0.08065869
9	0xbe2257a0	-0.15853739
10	0x3e633569	0.22188343
11	0x3db23982	0.08702375
12	0xbdba1fff	-0.09088134
13	0xbcd8b63e	-0.026454087
14	0x3e0279f3	0.12741832
15	0x3db981a2	0.090579286
16	0x3c02eb4e	0.007990671
17	0x3da2d2f3	0.079503916
18	0xbc7e8c91	-0.015536443
19	0xbc813f09	-0.015777128
20	0xbdb14684	-0.08656028
21	0x3d37b764	0.04485263
22	0xbe0d21a6	-0.13782367
23	0x3e3da984	0.18521696
24	0x3d2e3897	0.042534437
25	0x3d822ed4	0.06356588
26	0x3d8899de	0.06669973
27	0x3d091cab	0.033474606
28	0xbdb8e441	-0.09027911
29	0xbc82f4a5	-0.015985796
30	0xbd5ea085	-0.054352302
31	0x3da761bc	0.08172938
32	0xbe099af7	-0.1343802
33	0x3c85bb12	0.016324554
34	0x3cb32c6a	0.021871764
35	0xbd982188	-0.074282706
36	0x3cbb6e5c	0.022879772
37	0x3db0af99	0.086272426
38	0xbbdcf7fb	-0.0067434288
39	0x3d6a4e14	0.057203367
40	0xbb4ebefb	-0.0031546939
41	0xbcee96fa	-0.029124726
42	0x3df4c668	0.119519055
43	0x3dc28231	0.09497488
44	0x3d8e7830	0.06956518
45	0xbe29510d	-0.16534825
46	0xbdc5cf81	-0.09658719
47	0xbd54cb1b	-0.05195151
48	0xbc94f8e1	-0.018185081
49	0xbca099c3	-0.01960457
50	0x3cc2c338	0.023774728
51	0xb9cb3bfd	-0.00038763872
52	0xbb7562ec	-0.0037442995
53	0xbdb9e5b6	-0.09077017
54	0x3ca28c7d	0.01984238
55	0xbdabc1cb	-0.083865725
56	0xbddbbe8f	-0.107297055
57	0x3db5dcb1	0.08879984
58	0x3bfd15f3	0.007723564
59	0x3d5142cc	0.051089093
60	0xbe4aa098	-0.19787824
61	0xbde0de48	-0.10979897
62	0x3e007129	0.12543167
63	0xbde12a5a	-0.10994406
64	0x3dcee1b7	0.101016454
65	0x3e25ed4d	0.16203804
66	0xbdfa6eff	-0.12228202
67	0x3d8dea5d	0.06929467
68	0x3dc120dc	0.094300956
69	0x3d922046	0.07135062
70	0xbd4067bf	-0.04697394
71	0xbd73f4cf	-0.05955964
72	0x3d0ac2cf	0.03387719
73	0xbdf425ef	-0.11921298
74	0x3d9548af	0.07289254
75	0x3db381e9	0.08765013
76	0x3ba4fa54	0.0050347243
77	0xbd94b28b	-0.07260617
78	0xbde4ee33	-0.111782454
79	0x3d531484	0.051533237
80	0xbe1dd906	-0.15414819
81	0x3de76728	0.11298972
82	0xbd96f859	-0.07371587
83	0x3e14be56	0.14525732
84	0x3cab8ce0	0.020941198
85	0xbdbdb4ba	-0.092629865
86	0x3d30c478	0.043156117
87	0x3db50dd1	0.08840526
88	0x3daf0287	0.08545404
89	0x3d2e4656	0.042547546
90	0xbd3d6f85	-0.04624893
91	0xbd918c51	-0.07106841
92	0x3d85ad67	0.065272145
93	0xbb0fe536	-0.0021956689
94	0x3d11d089	0.035599265
95	0x3e302375	0.17201026
96	0xbd739b5f	-0.059474345
97	0xbd5293c0	-0.051410437
98	0x3de7513b	0.1129479
99	0xbd3551b0	-0.044267356
100	0x3d3981fa	0.04528997
101	0x3d8f26ea	0.06989844
102	0xbdaeab6a	-0.085287884
103	0x3b8fa141	0.0043832366
104	0x3c4d1f69	0.012519696
105	0xbd184511	-0.03717524
106	0x3d36b2b1	0.044604007
107	0x3d519ed2	0.051176853
108	0xbc9f510b	-0.019447824
109	0x3e3c2e39	0.18377008
110	0x3d8b51b3	0.06802692
111	0x3e138376	0.14405617
112	0xbd14a686	-0.03629162
113	0x3d13e01f	0.03610241
114	0xbe405483	-0.18782239
115	0xbd5df05e	-0.05418431
116	0x3e44ebbb	0.19230549
117	0xbd53e90c	-0.051735923
118	0xbc5d8d31	-0.013522432
119	0x3e2d3a88	0.16916859
120	0x3c4b1729	0.0123956585
121	0xbdc4aee4	-0.0960367
122	0x3e0efa8e	0.13962767
123	0xbe82aa03	-0.25520334
124	0x3e195d09	0.14976896
125	0xbd8d2acc	-0.068929285
126	0xbd3058da	-0.043053485
127	0x3ce52579	0.02797197
128	0x3e176b66	0.14787063
129	0x3d0d591e	0.034508817
130	0xbd1e77f0	-0.0386886
131	0x3b845eb6	0.0040396107
132	0x3dfdcb38	0.123922765
133	0x3da8499c	0.08217165
134	0x3b63798f	0.0034709906
135	0x3df3c549	0.119028635
136	0xbe118fb0	-0.14214969
137	0x3d5ddba3	0.05416454
138	0xbdab5a79	-0.08366866
139	0xbe174ec8	-0.14776146
140	0x3d478972	0.048715062
141	0xbdafa788	-0.08576876
142	0xbde587c5	-0.112075366
143	0x3d2ce9e0	0.042215228
144	0x3d92f73e	0.07176064
145	0xbdf02e1e	-0.11727546
146	0xbd51836e	-0.05115073
147	0x3de3d949	0.11125428
148	0xbd9ba0d0	-0.07599032
149	0xbe6e05e6	-0.23244438
150	0x3e01baf3	0.12668972
151	0xbdb84bb3	-0.089988135
152	0x3d356314	0.04428394
153	0xbdbe5652	-0.09293808
154	0x3d55c944	0.052193895
155	0xbdf310be	-0.11868428
156	0xbb0612f4	-0.0020458074
157	0xbe20d197	-0.15704952
158	0xbcfea756	-0.031085651
159	0xbbc6fd22	-0.0060726563
160	0x3e434df3	0.19072704
161	0x3ce158d7	0.027508182
162	0xbdeda9cb	-0.11604651
163	0xbe8102ed	-0.25197545
164	0x3c36e3e9	0.011162736
165	0x3d6b7fa4	0.057494774
166	0xbd946fb7	-0.072478704
167	0xbbe10535	-0.006867076
168	0x3ce57af5	0.028012732
169	0xbdd61b2a	-0.104544
170	0x3de43155	0.11142222
171	0x3da2cfaa	0.07949765
172	0x3d7a9356	0.061175667
173	0xbe3bf56d	-0.18355341
174	0xbdc55ec5	-0.096372165
175	0x3ceb523f	0.028725741
176	0xbdd1e053	-0.102478646
177	0xbc84a1dd	-0.016190464
178	0x3d5407ff	0.05176544
179	0x3b68b8c2	0.0035510515
180	0xbdc93751	-0.09825004
181	0xb9f5232a	-0.0004675624
182	0x3dce8e0c	0.10085687
183	0xbd19c98d	-0.03754573
184	0x3df3ff8e	0.119139776
185	0xbd6c3c95	-0.057674963
186	0xbe1c1df7	-0.15245806
187	0x3d08390d	0.033257533
188	0x3b395f86	0.0028285696
189	0x3d409a5d	0.047022212
190	0xbc349bc3	-0.011023465
191	0x3d94a796	0.07258527
192	0x3da93c37	0.08263438
193	0xbdc129f3	-0.09431829
194	0xbd289ce2	-0.04116524
195	0xbdcec841	-0.10096789
196	0xbc7fd6e9	-0.015615203
197	0xbd202127	-0.039094117
198	0x3d545870	0.051842153
199	0xbc8007e8	-0.01562877
200	0xbd8e9eaf	-0.0696386
201	0x3ddfef40	0.10934305
202	0xbdce6311	-0.10077489
203	0xbdcd902e	-0.10037266
204	0xbdd0a68c	-0.10188016
205	0x3d890d7a	0.066920236
206	0x3dce4cb9	0.100732274
207	0xbd9c4560	-0.0763042
208	0x3c498558	0.012299858
209	0xbd0a0334	-0.03369446
210	0x3dfc47f1	0.12318409
211	0xbe01b1e0	-0.1266551
212	0xbdd079b4	-0.10179463
213	0x3d0ed11b	0.034867387
214	0xbd398f3a	-0.045302607
215	0x3dbd159b	0.092326365
216	0xbdd88e79	-0.105740495
217	0x3df88c2d	0.121361114
218	0x3daee377	0.08539479
219	0x3e2752da	0.16340199
220	0x3d33ae25	0.04386725
221	0xbdebf490	-0.11521256
222	0xbc346665	-0.011010741
223	0x3d5b49f0	0.05353731
224	0xbca512d7	-0.020150585
225	0xbe0df809	-0.13864149
226	0x3dfe7c94	0.12426105
227	0xbcdb0e4d	-0.026740218
228	0x3dbaf617	0.09128969
229	0xbd939298	-0.07205695
230	0xbd513a92	-0.051081248
231	0x3dc71bc6	0.09722094
232	0xbdb2f8d5	-0.08738867
233	0xbd959f99	-0.073058315
234	0xbdf524d1	-0.11969913
235	0xbddd11b9	-0.10794396
236	0xbc4f66fe	-0.012658833
237	0xbdda1be7	-0.10649853
238	0x3c98cdc3	0.018652802
239	0x3dddad8e	0.108241186
240	0x3d8662a5	0.06561784
241	0xbd4a4106	-0.049378417
242	0xbc8e79dc	-0.017392091
243	0x3d7a7ff6	0.06115719
244	0xbe02556f	-0.12727903
245	0xbc45a325	-0.0120628225
246	0xbb5775d2	-0.0032876623
247	0x3ccfdb6f	0.025373189
248	0x3d06fae9	0.03295413
249	0xbdee2c9a	-0.11629601
250	0xbcf1551b	-0.029459527
251	0xbe07a5ac	-0.13246793
252	0xbdcc80e5	-0.09985522
253	0xbdf8a9c9	-0.12141759
254	0xbda91b14	-0.08257118
255	0x3cd6454f	0.026156096

actor.2.bias f4 [128]
0	0xbe22c068	-0.1589371
1	0x3c18e14a	0.009331057
2	0xbe1bb9fb	-0.15207665
3	0xbdde9f2f	-0.108702056
4	0x3cc4dfb7	0.024032457
5	0xbdb20734	-0.0869278
6	0x3c59dab9	0.013296776
7	0xbdc45386	-0.09586243
8	0xbd0be66e	-0.0341553
9	0x3d053cea	0.032528795
10	0xbe20cb3c	-0.15702528
11	0xbdbb4ce5	-0.09145526
12	0xbd42bf16	-0.047545515
13	0xbcdf6930	-0.027271837
14	0xbd962c50	-0.07332671
15	0xbde42a84	-0.11140922
16	0xbdd333b4	-0.10312596
17	0xbd15a925	-0.036538262
18	0xbc340303	-0.010987046
19	0xbdc01ad9	-0.09380121
20	0xbc5339bb	-0.012892182
21	0xbd1ea1d3	-0.038728546
22	0xbd26256b	-0.04056303
23	0xbdf56bde	-0.11983465
24	0xbdd2d136	-0.1029381
25	0xbe39678a	-0.18105903
26	0xbdaa3f90	-0.08312905
27	0xbda686af	-0.081311576
28	0xbc88f0d1	-0.016716393
29	0xbe4f7c37	-0.20262228
30	0xbd0c97cf	-0.034324463
31	0x3a096fa9	0.0005242774
32	0x3b9990f4	0.004686469
33	0xbde51bbe	-0.11186932
34	0x3b137a09	0.0022503159
35	0xbe20b9c3	-0.15695862
36	0xbd2827da	-0.04105363
37	0xbd55d727	-0.05220714
38	0x3d8bf855	0.06834475
39	0xbd507b38	-0.05089876
40	0xbe2f06d0	-0.17092443
41	0x3b27a3f8	0.002557991
42	0xbbffbaba	-0.007804242
43	0xbdb9f28c	-0.09079465
44	0xbde76366	-0.112982556
45	0xbd2adc4d	-0.041714
46	0xbd3464ad	-0.044041324
47	0xbe59e86d	-0.2128007
48	0xbd36e851	-0.044655148
49	0xbd43b473	-0.04777951
50	0xbdba4d72	-0.09096803
51	0xbe2fb5e6	-0.17159232
52	0xbdf4996f	-0.11943328
53	0xbd1db67d	-0.038504113
54	0xbd6242be	-0.05523943
55	0xbe4c9fa3	-0.19982772
56	0xbce0c0e6	-0.027435731
57	0xbe07045c	-0.13185257
58	0xbda538ba	-0.0806746
59	0xbd21deca	-0.03951911
60	0x3d4941bd	0.04913496
61	0xbd7d1412	-0.06178672
62	0x3d7aadb3	0.06120081
63	0x3d5eb466	0.05437126
64	0x3b118b36	0.002220822
65	0xbe41ab3b	-0.18912975
66	0xbb823ac8	-0.0039742924
67	0xbde9aa4a	-0.11409433
68	0xbe097347	-0.13422881
69	0x3d846fa1	0.06466604
70	0xbc849384	-0.016183622
71	0x3db10832	0.08644141
72	0xbd94c059	-0.0726325
73	0xbd043897	-0.03228053
74	0xbd74241d	-0.059604753
75	0xbd4067fd	-0.04697417
76	0x3dee14f9	0.11625094
77	0xbdae41e5	-0.08508662
78	0xbce5bd97	-0.028044505
79	0xbe1feed6	-0.15618452
80	0xbd2915c2	-0.041280515
81	0x3d638101	0.05554295
82	0xbda41eef	-0.080137126
83	0xbdf2ede3	-0.118617795
84	0x3caa645f	0.020799814
85	0xbd88d882	-0.066819206
86	0xbda589dc	-0.08082935
87	0xbc9afe77	-0.018920166
88	0xbc93338c	-0.017968915
89	0xbd9054c5	-0.070474185
90	0x3cd2bcf0	0.025724858
91	0x3dcc03e8	0.099616826
92	0x3bd25759	0.006419104
93	0xbb62a249	-0.0034581593
94	0xbd89e662	-0.06733395
95	0xbdb21a2a	-0.08696397
96	0xbdba6fde	-0.09103368
97	0xbdb24ce8	-0.08706075
98	0x3db74e2e	0.089504585
99	0x3d350574	0.044194654
100	0xbe2247c6	-0.15847692
101	0xbd380007	-0.0449219
102	0xbd4330c6	-0.047653936
103	0x3ca62c09	0.02028467
104	0xbdd5eca3	-0.104455255
105	0xbda05068	-0.07827836
106	0xbe1c0ff7	-0.15240465
107	0xbbef6c0d	-0.007306582
108	0xbd7b40ea	-0.061341204
109	0x3c2b0206	0.010437494
110	0xbe1de7ff	-0.1542053
111	0xbdaf1f71	-0.08550919
112	0xbd76e0a9	-0.060272846
113	0x3bb08ef4	0.005388135
114	0xbce62610	-0.028094321
115	0xbd02b815	-0.031913836
116	0xbd8b4c2d	-0.06801639
117	0x3a9f223b	0.0012140939
118	0xbb0aae2b	-0.002116094
119	0xbe598db6	-0.21245465
120	0xbdedfdba	-0.1162066
121	0xbbfa7936	-0.007643844
122	0xbe0a7582	-0.13521388
123	0xbdfea216	-0.12433259
124	0x3d93d562	0.07218434
125	0x3db78f45	0.08962873
126	0xbe2d1a22	-0.169045
127	0xbd33a47e	-0.043858044

actor.4.weight f4 [128, 128]
0	0xbc608721	-0.013704092
1	0xbd1a03a8	-0.037601143
2	0xbc3f7383	-0.011685255
3	0x3d252105	0.040314693
4	0x3d1d67d5	0.0384291
5	0x3e92a112	0.28638512
6	0x3cadf26d	0.021233762
7	0xbe434e0f	-0.19072746
8	0xbd40d32d	-0.047076393
9	0x3deddf17	0.11614817
10	0x3d2d0233	0.042238425
11	0x3de5e371	0.11225022
12	0x3dd58a65	0.10426787
13	0xbe008cc8	-0.12553704
14	0xbd84ab2b	-0.0647796
15	0x3d2b816e	0.04187148
16	0xbd140999	-0.036141966
17	0x3ca02c82	0.019552473
18	0x3dc6d5d1	0.09708751
19	0xbe015d79	-0.12633313
20	0x3e435460	0.19075155
21	0xbe9f8fc9	-0.31164387
22	0xbd8e0bf1	-0.069358714
23	0x3cce3f39	0.025176631
24	0xbcef55ba	-0.029215682
25	0xbe3f0cc1	-0.18657209
26	0x3dc318e3	0.09526231
27	0xbd2fad37	-0.0428898
28	0x3b00af42	0.0019635712
29	0xbd163abe	-0.036677115
30	0x3db948fc	0.09047124
31	0xbde48ac9	-0.11159284
32	0x3dc3a8dd	0.095536925
33	0x3e05dff7	0.13073717
34	0xbe42b1ef	-0.19013189
35	0x3d5b17d8	0.053489536
36	0x3e3d200b	0.18469255
37	0xbdde51a9	-0.10855419
38	0xbd388d9e	-0.04505693
39	0x3d389ba8	0.04507032
40	0x3dcba6a0	0.099438906
41	0xbe9da23c	-0.30787838
42	0xbe2eee9b	-0.17083208
43	0xbe37adde	-0.17937419
44	0xbe660a41	-0.22464849
45	0x3db732a6	0.08945207
46	0xbda44b4a	-0.08022173
47	0xbce65d8b	-0.028120777
48	0x3d8a8867	0.06764298
49	0xbd4c9b83	-0.049952995
50	0x3c1bdbb5	0.009512831
51	0xbdef2c04	-0.11678317
52	0xbe5fab9e	-0.2184281
53	0xbd3cd93e	-0.046105616
54	0xbd84ea97	-0.06490057
55	0xbda3a2fb	-0.079900704
56	0xbd9aa963	-0.07551839
57	0x3d37104c	0.044693276
58	0xbdc11ede	-0.094297156
59	0x3a5e3626	0.00084766967
60	0xbd120983	-0.035653602
61	0xbe08e56e	-0.1336877
62	0x3d6d65c0	0.057958364
63	0xbc2c7711	-0.0105264345
64	0x3dafe9cf	0.08589517
65	0xb99a8148	-0.0002946949
66	0xbb8954fb	-0.0041910387
67	0x3c2a82e4	0.010407183
68	0x3e83ada8	0.25718427
69	0x3e20d815	0.15707429
70	0x3deedbfe	0.11663054
71	0xbcca911b	-0.024727395
72	0xbe25e727	-0.16201459
73	0xbe0cb8e0	-0.13742399
74	0xba1f210d	-0.00060702936
75	0x3dbc7817	0.09202593
76	0x3cd99b85	0.026563415
77	0x3d0a624c	0.03378515
78	0xbc97f167	-0.018547727
79	0x3c18d491	0.0093280235
80	0x3e0097fb	0.12557976
81	0x3cdadbd1	0.026716145
82	0x3de58d7d	0.112086274
83	0x3cc42b45	0.023946414
84	0x3dde5774	0.10856524
85	0x3e34c226	0.17652187
86	0x3e261d4f	0.16222118
87	0xbd02d1cc	-0.03193836
88	0x3dddb0d4	0.10824743
89	0xbdca8e7b	-0.09890457
90	0xbd31d27a	-0.043413617
91	0xbd45d6cd	-0.048300553
92	0xbd07a53d	-0.033116568
93	0xbe71732b	-0.2357909
94	0x3c5a924f	0.013340547
95	0xbd1770a2	-0.03697265
96	0x3d1e879a	0.03870354
97	0x3cd9085f	0.02649325
98	0xbe06b3e6	-0.13154563
99	0xbb97443e	-0.0046162894
100	0x3e190d80	0.14946556
101	0xbe357c10	-0.17723107
102	0xbd92afdf	-0.07162451
103	0xbc9d48be	-0.019199725
104	0x3ce47ab4	0.02789054
105	0x3d13ef2a	0.036116756
106	0x3d1ddc65	0.038540263
107	0x3c801a2b	0.015637478
108	0xbdac4852	-0.084122315
109	0xbd6020f9	-0.054718945
110	0xbda56b00	-0.08077049
111	0xbd8b0a70	-0.067891
112	0xbde0606c	-0.10955891
113	0xbd80df28	-0.06292564
114	0xbbb7c269	-0.0056078923
115	0xbbf72ac2	-0.007542939
116	0xbe2413b4	-0.16023141
117	0xbbd6ee30	-0.006559156
118	0x3e0baa26	0.13639125
119	0x3da6d024	0.081451684
120	0x3dcf8c44	0.101341754
121	0xbd0baab5	-0.034098346
122	0xbde36ee5	-0.11105136
123	0x3dde11b8	0.10843223
124	0xbe0307cd	-0.12795945
125	0xbe839c28	-0.25705075
126	0x3d87e4da	0.06635447
127	0x3e4c44bf	0.199481
128	0xbd0737bb	-0.033012133
129	0xbcc1a991	-0.023640426
130	0x3c65b039	0.014019066
131	0xbd977197	-0.073947124
132	0xbd8b3a35	-0.067982115
133	0xbe9d4e1f	-0.30723664
134	0xbe033140	-0.12811756
135	0xbd2f4e82	-0.04279948
136	0x3c8c013d	0.017090434
137	0x3d9ea831	0.07746924
138	0xbc95a705	-0.018268118
139	0x3cae947b	0.021311035
140	0x3dbb2ed5	0.09139792
141	0x3d7c6444	0.06161906
142	0xbb6b7542	-0.0035928045
143	0x3d96b47c	0.073586434
144	0x3dbe0f75	0.09280292
145	0x3ce4fb40	0.027951837
146	0x3d2830a9	0.04106203
147	0xbe03dcf3	-0.12877254
148	0xbd77cadc	-0.060496196
149	0xbd6f20fb	-0.058381062
150	0xbd2b7248	-0.041857034
151	0xbcece67a	-0.028918494
152	0xbc9f3332	-0.019433592
153	0x3daf081d	0.08546469
154	0xbe92a11e	-0.28638548
155	0xbd61ea2f	-0.055154976
156	0xbe036cbe	-0.1283445
157	0x3d7cd335	0.06172486
158	0x3bde6eca	0.0067881094
159	0x3d865c3e	0.065605626
160	0xbd2bd4bf	-0.041950937
161	0xbdf2abc0	-0.11849165
162	0xbd8a5779	-0.06754965
163	0x3e4e8568	0.20168078
164	0xbe2a047d	-0.16603275
165	0xbda07e90	-0.0783664
166	0xbcc5cd5a	-0.02414577
167	0xbd6b5d07	-0.057461765
168	0x3d21c9d6	0.039499126
169	0xbd3c2a7a	-0.045938946
170	0x3d4fa07b	0.050690155
171	0xbc55dd9c	-0.013053324
172	0xbdc9ed1b	-0.098596774
173	0x3cabcf95	0.020973006
174	0x3d8e6c2e	0.069542274
175	0x3e03ac2e	0.1285865
176	0x3d83232c	0.06403193
177	0xbc7720c8	-0.015083499
178	0x3c9615f6	0.018321019
179	0x3da85f03	0.08221247
180	0xbcac5a91	-0.02103928
181	0x3e236ab7	0.15958677
182	0xbdc39033	-0.09548988
183	0x3b4ae5e8	0.0030959789
184	0xbd295f54	-0.041350678
185	0x3ded07ef	0.11573779
186	0xbd160982	-0.03663016
187	0x3d35b6f3	0.044363927
188	0xbde216b1	-0.11039484
189	0xbe005cbc	-0.12535375
190	0x3e2c1e20	0.16808367
191	0x3dc92495	0.098214306
192	0x3db44e15	0.088039555
193	0xbbf9c022	-0.007621781
194	0xbd94ced6	-0.07266013
195	0x3e43e93b	0.19131939
196	0x3d9c9038	0.07644695
197	0xbe1c4504	-0.15260702
198	0x3d08a68d	0.03336196
199	0x3ddf9880	0.10917759
200	0x3daaea5b	0.08345481
201	0xbd7f4038	-0.062317103
202	0xbd857a1b	-0.065174304
203	0xbccbe023	-0.02488715
204	0xbdbf7a83	-0.09349539
205	0xbd49ded4	-0.04928477
206	0x3d233721	0.039847497
207	0x3d9fc0b3	0.07800426
208	0xbddf79fd	-0.10911939
209	0xbe3e1825	-0.18563898
210	0x3dbf7c7d	0.09349916
211	0x3d525b04	0.05135633
212	0xbd69094f	-0.056893643
213	0xbe0b6598	-0.13612974
214	0xbbbcb8e0	-0.0057593435
215	0xbd800f29	-0.062528916
216	0x3d99950e	0.07499133
217	0x3e13c4ad	0.14430495
218	0xbd9c5ba7	-0.07634669
219	0x3be13883	0.006873192
220	0x3cf4c459	0.029878782
221	0x3de97af2	0.11400403
222	0xbd866371	-0.06561936
223	0x3d4c2dfa	0.049848534
224	0x3dd494cf	0.103799455
225	0xbcb8740e	-0.022516277
226	0xbd50a23f	-0.05093598
227	0xbd1930d6	-0.03740009
228	0xbd7470f6	-0.05967804
229	0xbdd7a117	-0.10528772
230	0xbe1f1b80	-0.15537834
231	0xbdbe795f	-0.093004934
232	0xbd17723b	-0.036974173
233	0x3d841d3a	0.06450887
234	0x3e06505b	0.1311659
235	0x3bf67e58	0.0075223856
236	0xbdffb7ec	-0.12486252
237	0xbc8b6b62	-0.017018978
238	0xbd86f31c	-0.06589338
239	0x3bc62a97	0.0060475576
240	0x3d861e2f	0.06548726
241	0xbe145204	-0.14484411
242	0xbdfe0f7b	-0.124052964
243	0x3e05129f	0.12995385
244	0xbe66db44	-0.2254458
245	0xbda4c275	-0.08044902
246	0xbdeb365e	-0.11484979
247	0x3d39c329	0.045352135
248	0xbdca567b	-0.09879776
249	0xbc4a7a70	-0.012358293
250	0x3d941601	0.072307594
251	0xbceb6df8	-0.02873896
252	0xbe79cb55	-0.24393971
253	0xbbe1b583	-0.006888093
254	0x3de554ab	0.1119779
255	0x3d823a2d	0.063587524

actor.4.bias f4 [128]
0	0xbdc615b0	-0.09672105
1	0x3c93b731	0.018031688
2	0xbe1c1650	-0.15242887
3	0xbe32b60a	-0.17452255
4	0xbd479c97	-0.04873332
5	0xbe22e934	-0.15909272
6	0x3d23b58f	0.03996807
7	0xbdde4c2d	-0.10854373
8	0xbc44b703	-0.012006524
9	0xbe408913	-0.1880229
10	0xbe857efb	-0.2607344
11	0xbe3a8a59	-0.18216838
12	0xbc4b2e63	-0.012401196
13	0x3e04ffe1	0.12988235
14	0x3c6af55d	0.014340726
15	0x3e11c58e	0.14235517
16	0xbd467ee4	-0.048460856
17	0x3e060377	0.13087259
18	0x3e199a37	0.15000235
19	0xbe36a9ec	-0.17838258
20	0x3d1d7192	0.038438387
21	0xbd0a70a1	-0.033798818
22	0xbd4783f7	-0.048709836
23	0x3d388de7	0.045057204
24	0xbda097b9	-0.07841439
25	0xbc3ec8af	-0.011644526
26	0xbd9a9b36	-0.075491354
27	0xbe0f6686	-0.14003953
28	0x3e1414d3	0.14461069
29	0xbc5d94b2	-0.013524221
30	0x3d8d3be2	0.06896187
31	0xbd2dc589	-0.042424712
32	0xbdd813b2	-0.105506316
33	0x3cf932b0	0.030419677
34	0x3a124ffb	0.0005581376
35	0xbda31d2d	-0.07964549
36	0xbe36308d	-0.17791958
37	0xbe662e14	-0.22478515
38	0x3ca4d1b1	0.02011952
39	0xbde51a50	-0.11186659
40	0x3d562dff	0.05228996
41	0x3d736e08	0.059431106
42	0xbe50b531	-0.20381619
43	0xbd995c05	-0.074882545
44	0xbe4afb01	-0.19822313
45	0xbda2f2b6	-0.0795645
46	0x3d0b8a61	0.034067515
47	0xbd661a27	-0.056177285
48	0x3da24292	0.079228535
49	0xbe55ddce	-0.20885393
50	0xbd4d1a9e	-0.050074212
51	0x3cec69e6	0.02885909
52	0x3d92efb0	0.07174623
53	0xbd88e0ff	-0.066835396
54	0xbbd0e513	-0.006374964
55	0x3deb619c	0.11493227
56	0x3c5c6cd4	0.013453681
57	0x3dcf03c6	0.101081416
58	0xbc3c6525	-0.011498724
59	0xbdd1176f	-0.10209548
60	0xbe34f3dd	-0.17671151
61	0xbd55328d	-0.052050162
62	0xbd960bee	-0.07326494
63	0xbd3de32f	-0.046359237
64	0x3cfd1f55	0.03089873
65	0xbdc01939	-0.09379811
66	0xbd47ae41	-0.048750166
67	0xbd18ceba	-0.037306525
68	0xbc70ecda	-0.014704907
69	0x3d320db5	0.043470103
70	0x3becbf11	0.0072249253
71	0xbe34fcb0	-0.17674518
72	0xbdfa3144	-0.12216428
73	0x3d3274a3	0.043568265
74	0xbda2f98e	-0.07957755
75	0xbdd3fa3b	-0.10350462
76	0x3d8d33f3	0.06894674
77	0xbccd4568	-0.02505751
78	0xbdb93a91	-0.09044374
79	0xbcdf023b	-0.027222743
80	0xbd9e3d4f	-0.077265374
81	0x3d383448	0.044971734
82	0x3caa4487	0.02078463
83	0xb90f8e08	-0.00013690453
84	0xbd572857	-0.052528705
85	0xbe21e284	-0.15809065
86	0xbc929309	-0.017892377
87	0x3da7eaad	0.08199058
88	0x3d7d5f6f	0.06185859
89	0xbcee2250	-0.029069096
90	0x3de48d7c	0.111597985
91	0xbc45b179	-0.012066239
92	0xbe32bf4e	-0.1745579
93	0xbd94bc7b	-0.07262512
94	0xbe74d588	-0.2390958
95	0xbe1e0163	-0.15430216
96	0x3da3ba73	0.07994547
97	0x3cfcb0b1	0.030845972
98	0xbc7b0a9e	-0.015322356
99	0x3de7c5f8	0.113170564
100	0xbe435292	-0.19074467
101	0xbd862468	-0.06549913
102	0xbdd98fda	-0.10623141
103	0xbdc7a131	-0.09747542
104	0xbd2424e1	-0.040074233
105	0xbd8b4a45	-0.06801275
106	0xbdb4c16c	-0.08825955
107	0xbaa2dd51	-0.0012425577
108	0xbdd44a96	-0.10365789
109	0x3c2e2cee	0.010630829
110	0xbe4acfe6	-0.1980587
111	0xbd55e668	-0.052221686
112	0x3e359098	0.1773094
113	0xbe3d87a3	-0.18508773
114	0x3dcf8f59	0.10134763
115	0xbde7a6ce	-0.11311112
116	0xbe6e10ec	-0.23248643
117	0xbe06bd98	-0.13158262
118	0xbe4683a2	-0.19386151
119	0xbe152d34	-0.14568025
120	0xbe20f955	-0.15720113
121	0xbe4617c5	-0.19345005
122	0x3dfb10dc	0.12259075
123	0x3c612d06	0.013743645
124	0xbb93cde5	-0.0045106285
125	0x3e3725bf	0.17885493
126	0xbe51e357	-0.2049688
127	0xbdd7ea01	-0.105426796

actor.6.weight f4 [12, 128]
0	0x3dd59b5b	0.10430022
1	0xbd7fa909	-0.062417064
2	0x3d60fa97	0.05492648
3	0xbda86523	-0.08222415
4	0xbc82e589	-0.015978592
5	0x3b431fe0	0.0029773638
6	0xbd3d99ab	-0.046289127
7	0x3b777acb	0.00377624
8	0xbd2e1e8d	-0.042509604
9	0x3ded34c3	0.11582329
10	0x3b53b44e	0.0032303515
11	0x3c31123b	0.010807569
12	0xbcbb7d5b	-0.022886923
13	0xbdc424e2	-0.09577347
14	0xbd57e656	-0.0527099
15	0x3d12f52b	0.03587834
16	0xbbd83174	-0.006597692
17	0xbd44aa56	-0.048014008
18	0xbd231812	-0.039817877
19	0x3c9ac41e	0.018892344
20	0xbcf39a4b	-0.029736659
21	0x3d79ede4	0.061017886
22	0xbc8bf219	-0.017083215
23	0xbb4d8e20	-0.003136523
24	0xbcfb4bca	-0.030675787
25	0xbb96fc21	-0.004607693
26	0xbcb84a89	-0.022496479
27	0x3d4f5f72	0.050628133
28	0x3cef5559	0.029215502
29	0x3ca26071	0.019821377
30	0xbc34e528	-0.011040963
31	0x3bf45eea	0.0074576037
32	0xbc2eba3b	-0.010664518
33	0x3bbd1fd2	0.0057716155
34	0xbd98efac	-0.07467589
35	0x3bbce42a	0.005764504
36	0xbd19871a	-0.03748236
37	0xba0ede0e	-0.0005449959
38	0xbd60b495	-0.054859716
39	0xbcdf9801	-0.02729416
40	0xbb993254	-0.004675189
41	0x3b4a3dd0	0.0030859597
42	0xbe6e3670	-0.23262954
43	0xbcb643e5	-0.022249172
44	0xbd487187	-0.048936393
45	0xbcaf0185	-0.02136303
46	0xbc6d5831	-0.0144863585
47	0x3c62fd03	0.013854268
48	0xbd126a4f	-0.035745915
49	0x3de2fb62	0.11083104
50	0xbb6fddf7	-0.0036600807
51	0xb8990e70	-7.298298e-05
52	0xbd0729e3	-0.03299893
53	0x3c9b3bda	0.018949438
54	0xbd0068c4	-0.031349912
55	0xbc23e6a4	-0.0100037195
56	0xbb381c81	-0.0028093162
57	0xbd9d451f	-0.076791994
58	0x3ce186f0	0.027530164
59	0xbcf4ed47	-0.029898299
60	0x3ca07367	0.019586278
61	0x3d3b47c7	0.04572275
62	0x3ba84c36	0.005136038
63	0xbdce4855	-0.1007239
64	0x3cda9354	0.02668158
65	0xbcd9ee87	-0.026602997
66	0x3d5306d4	0.051520184
67	0xbcb437ed	-0.021999324
68	0x3d92104b	0.07132014
69	0x3cb9b299	0.02266817
70	0xbad34edd	-0.0016121526
71	0x3d825713	0.06364264
72	0x3d092648	0.033483773
73	0xbd50dccc	-0.05099182
74	0xbcc87aef	-0.024472682
75	0x3c8e9018	0.017402694
76	0xbca7e569	-0.020495133
77	0x3d5c4bc3	0.05378319
78	0x3dabcefc	0.083890885
79	0xbd26dfd9	-0.04074082
80	0x3d4824bd	0.04886316
81	0xbca2ced2	-0.01987401
82	0xbba09d61	-0.0049015735
83	0xbd334bb0	-0.043773353
84	0xbcc3679a	-0.023853112
85	0x3d06753c	0.032826647
86	0x3da01235	0.07815973
87	0xbce1309c	-0.027489
88	0xbbc1da96	-0.00591595
89	0xbc9a57fd	-0.018840784
90	0xbce2ca2a	-0.02768429
91	0xbba7ea28	-0.005124349
92	0x3c837762	0.016048137
93	0x3c908aad	0.01764425
94	0x3dd11406	0.10208897
95	0xbc065502	-0.008198978
96	0xbd4b78c3	-0.049675714
97	0xbd33a9f5	-0.043863256
98	0x3d5b7898	0.053581804
99	0xbd93ba2c	-0.07213244
100	0xbc8f1e23	-0.017470425
101	0xbdb54a2d	-0.088520385
102	0xbd22264d	-0.039587308
103	0xbd16a4cd	-0.03677826
104	0x3c556c96	0.013026377
105	0x3d8a7634	0.06760827
106	0xbcac8774	-0.021060683
107	0xbd01abd4	-0.03165801
108	0x3e0c4407	0.13697825
109	0x3d2b630f	0.041842517
110	0xbcced393	-0.02524737
111	0x3c447fc0	0.011993349
112	0xbd0050fe	-0.03132724
113	0xbcafad1c	-0.02144485
114	0xbd0a3c7b	-0.033749085
115	0xbd92d019	-0.07168598
116	0x3ddc4ac3	0.10756447
117	0x3cef6cbf	0.029226659
118	0x3d138644	0.036016718
119	0xbb8c0b75	-0.0042738267
120	0x3c97d897	0.018535895
121	0x3d3decf3	0.04636855
122	0xbd1b97ab	-0.03798644
123	0xbd698716	-0.057013594
124	0xbd4856b0	-0.048910797
125	0xbd0d8f40	-0.034560442
126	0x3d978798	0.07398909
127	0x3d195681	0.037436012
128	0xbcc1688e	-0.023609426
129	0x3c88e039	0.01670848
130	0x3c33b786	0.010969048
131	0x3d45d16f	0.048295435
132	0x3d838c4b	0.06423243
133	0x3d300bac	0.04297988
134	0x3d5965f8	0.05307576
135	0x3db4d5e0	0.08829856
136	0x3c44b866	0.012006855
137	0x3d86d85e	0.065842375
138	0x3ddc3bc0	0.10753584
139	0x3d0372ba	0.032091834
140	0x3c7812cc	0.0151412
141	0xbd86dc1c	-0.06584951
142	0xbb6e5beb	-0.0036370705
143	0xbd986c1d	-0.07442496
144	0xbca3e965	-0.020008752
145	0xbb25a0c6	-0.002527283
146	0xbd600311	-0.054690424
147	0xbe277a1c	-0.16355175
148	0xbc8d0378	-0.017213568
149	0xbd0dff86	-0.034667514
150	0x3d2f0602	0.04273034
151	0xbd254577	-0.04034945
152	0x3d0b7dd3	0.034055542
153	0xbbb2c82b	-0.005455991
154	0x3c9f50e8	0.019447759
155	0xbc79cc0a	-0.015246401
156	0xbd8e1484	-0.06937507
157	0xbd27cd83	-0.040967476
158	0x3c1bfc27	0.009520567
159	0xbb85542f	-0.0040688734
160	0xbb0cc6a1	-0.0021480697
161	0x39bda417	0.00036171146
162	0x3db0b3e0	0.086280584
163	0xbc3fa24b	-0.0116964085
164	0x3cb84955	0.022495905
165	0x3dab4cdf	0.083642714
166	0xbdc1b89e	-0.09459041
167	0x3d099e59	0.033598278
168	0x3c8857dc	0.016643457
169	0xbc999c5a	-0.018751312
170	0x3d8f6087	0.07000833
171	0xba50fc50	-0.0007972168
172	0x3ad350df	0.0016122124
173	0x3d1334c9	0.03593901
174	0x3c0505e6	0.008119082
175	0xbcc5c3c4	-0.0241412
176	0x3c9fe724	0.019519396
177	0x3dc6589f	0.09684872
178	0xbd65542c	-0.055988476
179	0xbc9ca905	-0.019123564
180	0x3d27367e	0.040823452
181	0x3d1490fe	0.036271088
182	0x3ab0c77e	0.0013487188
183	0xbd51ee2a	-0.05125252
184	0xbd344f30	-0.04402083
185	0xbd86590f	-0.06559955
186	0xbba55a6c	-0.0050461795
187	0x3da5ded8	0.08099145
188	0xbcf579a9	-0.029965239
189	0xbd04d5d5	-0.03243049
190	0x3c51f9ed	0.012815935
191	0x3d76efd3	0.060287308
192	0xbd2e47f9	-0.042549107
193	0xbb8480b4	-0.004043663
194	0xbd748e77	-0.059706178
195	0x3c602213	0.013679999
196	0xbdc1e54c	-0.09467563
197	0xbca0c3f8	-0.019624695
198	0x3b9f58c9	0.004862879
199	0x3da86e15	0.082241215
200	0xbd15f9b7	-0.0366151
201	0x3d4f0bec	0.05054848
202	0x3ca6687e	0.020313498
203	0x3cc1cd6d	0.023657525
204	0x3d082654	0.033239678
205	0xbcbc9d1e	-0.023024138
206	0xbbef5cb2	-0.0073047513
207	0x3d8818be	0.06645344
208	0x3c43bdad	0.011947078
209	0x3c885189	0.016640441
210	0xbd1b1e57	-0.03787073
211	0xbb8846d7	-0.0041588354
212	0x3ccee441	0.025255324
213	0x3d2a7c78	0.04162261
214	0xbc4e5bd1	-0.012595133
215	0x3cd62d0b	0.026144525
216	0x3c4b5fd6	0.012412986
217	0xbb4a3bb7	-0.0030858347
218	0x3bb4fcc6	0.005523297
219	0xbba7857a	-0.005112347
220	0x3d66c567	0.0563406
221	0xbde180b0	-0.11010873
222	0x3c2ccb01	0.010546447
223	0x3d617d3d	0.055051077
224	0x3b0b05ef	0.0021213253
225	0x3c34c380	0.011032939
226	0x3cc37a14	0.023861922
227	0x3c414770	0.011796817
228	0x3d4d78de	0.050164096
229	0xbbac1c38	-0.0052523874
230	0x3c4f3e84	0.012649182
231	0x3d80e857	0.06294315
232	0xbceee820	-0.02916342
233	0xbd647fb5	-0.055785853
234	0x3c4c4c13	0.012469309
235	0xbc585919	-0.013204836
236	0xbb4e68a4	-0.0031495476
237	0xbd5700cd	-0.052490998
238	0xba4ea4f4	-0.00078828563
239	0xbc291c30	-0.010321662
240	0xbd513f1e	-0.051085584
241	0xbce19bec	-0.02754017
242	0xbd3e5f17	-0.046477403
243	0xbe0acd17	-0.13554798
244	0xbd386b40	-0.045024157
245	0x3d381e9e	0.044951074
246	0x3df898d5	0.121385254
247	0xbd93555b	-0.07194015
248	0x3e1e6afd	0.154705
249	0x3d3c54d4	0.045979336
250	0xbc3a6f63	-0.011379096
251	0x3ca77dc3	0.02044571
252	0x3dc1b623	0.09458568
253	0xbcf9d3b7	-0.030496461
254	0x3d8105d9	0.062999435
255	0xbda3657b	-0.0797834

actor.6.bias f4 [12]
0	0xbdcd1693	-0.10014071
1	0xbe7d45a9	-0.24733604
2	0x3d85ccb6	0.06533186
3	0x3d1e2919	0.038613413
4	0x3d587c15	0.05285271
5	0xbd1e0974	-0.038583234
6	0x3c0c5023	0.008564028
7	0x3c420a74	0.0118433125
8	0x3d469e85	0.04849102
9	0xbd357219	-0.044298265
10	0x3dad911f	0.08474945
11	0xbe06e937	-0.13174902

critic.0.weight f4 [128, 48]
0	0x3eadbd5a	0.33933526
1	0x3b03aa27	0.0020090432
2	0xbde7d05a	-0.11319037
3	0x3b67a272	0.0035344628
4	0x3c74d712	0.014943855
5	0xbe5a7054	-0.21331912
6	0x3e8f052a	0.27933627
7	0xbe7820e9	-0.24231304
8	0x3db54590	0.088511586
9	0xbef1a0a9	-0.47192886
10	0xbf35040c	-0.707093
11	0xbebc51df	-0.36781213
12	0x3dd27277	0.10275739
13	0xbb435bc9	-0.0029809347
14	0x3e34b10f	0.17645667
15	0xbbbbd512	-0.005732187
16	0x3d586756	0.052832924
17	0xbcf75c64	-0.030195422
18	0x3e4c0db7	0.19927107
19	0x3cdf40cb	0.027252575
20	0x3d685bb8	0.056728095
21	0xbe142688	-0.14467824
22	0xbd93c2a3	-0.072148584
23	0x3d5dc0ed	0.054139066
24	0x3daa65b6	0.08320181
25	0xbce2cc8f	-0.027685432
26	0xbd6e20d1	-0.058136765
27	0x3bc115e6	0.005892503
28	0x3d4ae981	0.049539093
29	0x3c901807	0.017589582
30	0x3cb3f7f2	0.021968815
31	0xbd26ef68	-0.04075566
32	0xbc9f7686	-0.019465696
33	0x3c41f9d1	0.011839346
34	0x3d319b05	0.04336073
35	0x3b34fd10	0.0027616657
36	0xbd246ad1	-0.04014093
37	0xbd083dcc	-0.03326206
38	0xbbac7851	-0.0052633663
39	0xbcc10be8	-0.023565248
40	0x3ded8d2b	0.11599191
41	0xbc6e2de9	-0.014537313
42	0x3d28515c	0.041093215
43	0x3d4cc656	0.049993835
44	0xbc652ade	-0.013987271
45	0xbdb199a0	-0.0867188
46	0xbcad8f00	-0.021186352
47	0xbcc80249	-0.024415152
48	0xbeaaae8e	-0.333363
49	0xbe0873a3	-0.13325362
50	0xbe177afa	-0.14793006
51	0x3ddd09d8	0.10792893
52	0x3da81d3a	0.082086995
53	0x3dcd0bfb	0.10012051
54	0x3faa8acb	1.3323606
55	0xbf896ea4	-1.073689
56	0xbbe2c15e	-0.006920024
57	0x3e8ecb9a	0.2788971
58	0x3e160e3f	0.14653872
59	0xbd7bfb44	-0.061518922
60	0x3cce3a61	0.025174322
61	0x3ea723cd	0.326445
62	0x3df7147f	0.12064456
63	0x3c3e3fbd	0.011611876
64	0x3e921250	0.28529596
65	0xbd4b0227	-0.0495626
66	0x3ecca486	0.3996927
67	0x3de50bdb	0.11183902
68	0x3e07b215	0.13251527
69	0x3e5e33db	0.21699469
70	0x3f140c38	0.57831144
71	0x3c4fdffc	0.012687679
72	0x3dbec94c	0.09315738
73	0xbe086097	-0.13318096
74	0xbcd973df	-0.02654451
75	0x3d694069	0.056946192
76	0x3d6670be	0.056259863
77	0xbbd3d6bc	-0.0064648073
78	0x3dc4cbbc	0.09609172
79	0xbd5f8544	-0.05457045
80	0x3c5ded41	0.013545335
81	0xbb1503df	-0.0022737903
82	0x3cb9946d	0.022653783
83	0xbcea8758	-0.02862899
84	0x3c8102cb	0.015748402
85	0x3c9e3434	0.019312002
86	0x3988f67a	0.0002612358
87	0x3e01d804	0.1268006
88	0x3ca4bcd8	0.020109579
89	0xbd9cc85f	-0.07655405
90	0xbcee09a0	-0.029057324
91	0x3d10be0d	0.035337497
92	0x3bcd1ad5	0.006259302
93	0x3d0db332	0.034594722
94	0xbd3a7f50	-0.04553157
95	0x3cd9ab84	0.026571043
96	0xbda9918e	-0.082797155
97	0x3ddff7e1	0.10935951
98	0xbcff6600	-0.031176567
99	0xbde943df	-0.113898985
100	0xbe1367d0	-0.1439507
101	0x3e8693a3	0.26284513
102	0xbef7e722	-0.48418528
103	0x3fd12778	1.634017
104	0x3e4a083c	0.19729704
105	0x3e69edb2	0.2284458
106	0xbdd9fa2d	-0.1064342
107	0xbe68341c	-0.22676128
108	0xbdeadc9c	-0.11467859
109	0xbe8cb0ed	-0.27478734
110	0xbe23d3bc	-0.15998739
111	0xbea3d244	-0.31996357
112	0x3e45d6e0	0.1932025
113	0xbe804719	-0.25054243
114	0x3e2c883e	0.16848847
115	0x3d874a5c	0.0660598
116	0x3e336b2c	0.17521352
117	0xbe2ebf12	-0.17065075
118	0xbe7cd5c1	-0.24690916
119	0x3d9c9c03	0.076469444
120	0xbca0415b	-0.019562414
121	0xbd38966f	-0.04506534
122	0x3cd0ff9f	0.025512515
123	0xbd08990c	-0.033349082
124	0x3bbe9c54	0.0058169756
125	0xbce5a1e8	-0.028031304
126	0x3bb40352	0.00549356
127	0x3c8d0a7c	0.017216913
128	0xbadb649c	-0.0016738358
129	0xbbcde052	-0.0062828446
130	0xbcbf174f	-0.023326544
131	0x3c859dea	0.01631065
132	0x3d68411c	0.05670272
133	0x3c363065	0.011119937
134	0x3d19f91a	0.037591077
135	0x3d948e76	0.07253735
136	0x3dc7db29	0.09758598
137	0x3d0f75c7	0.03502443
138	0xbc55408d	-0.013015878
139	0xbd8a1d0a	-0.0674382
140	0x3c905afb	0.017621508
141	0xbc9f525a	-0.019448448
142	0xbca46969	-0.020069795
143	0xbd84a057	-0.06475895
144	0xbdee3eb8	-0.116330564
145	0xbea9b888	-0.331486
146	0xbd39e457	-0.045383777
147	0xbc7fbe28	-0.015609302
148	0x3bac2ce3	0.0052543744
149	0xbe19896c	-0.14993829
150	0xc00917b5	-2.142072
151	0xbef385e5	-0.4756309
152	0xbd129393	-0.03578527
153	0x3dd7d506	0.10538678
154	0x3ec65e5f	0.38743874
155	0x3e8efce6	0.2792732
156	0x3e9bfae3	0.3046485
157	0x3cdd84b6	0.02704082
158	0xbd42868e	-0.047491603
159	0xbd07779c	-0.033073053
160	0xbd7dd103	-0.061966907
161	0xbe3aedf3	-0.18254833
162	0x3cd4cfb2	0.025977943
163	0x3e33523d	0.1751184
164	0xbeb833f1	-0.35977128
165	0xbc8d6440	-0.017259717
166	0xbe9fd9a6	-0.3122074
167	0xbdfa58b5	-0.12223951
168	0x3d9d8e43	0.0769315
169	0xbbc63739	-0.0060490635
170	0xbce4789b	-0.02788954
171	0x3d0bede3	0.034162413
172	0x3bcab0c6	0.006185624
173	0xbd8317e6	-0.06401043
174	0x3d23d498	0.039997667
175	0x3d366cda	0.044537403
176	0xbc8bf741	-0.017085673
177	0xbd0e77ad	-0.0347821
178	0x3c0c1aee	0.008551342
179	0x3b702f7e	0.0036649401
180	0xbd93b10a	-0.07211502
181	0x3d99b770	0.07505691
182	0x3df4ac78	0.11946958
183	0x3d840d33	0.0644783
184	0xbd1cd8d7	-0.038292732
185	0xbbfad501	-0.0076547866
186	0x3e1064f5	0.14101012
187	0x3d709902	0.05873967
188	0x3e046fc7	0.12933265
189	0xbd95ebd9	-0.07320375
190	0xbe07b36e	-0.1325204
191	0xbcf9e6c8	-0.030505553
192	0xbeb4150c	-0.35172307
193	0xbeaf56de	-0.34245962
194	0x3e1a0488	0.15040791
195	0xbe35bc41	-0.17747594
196	0x3da6a139	0.081362195
197	0xbbd4dbfe	-0.0064959517
198	0x3f52acec	0.8229511
199	0xbf53c273	-0.8271858
200	0xbd9d7481	-0.07688237
201	0x3c16ee5b	0.009212102
202	0xbe9227ec	-0.28546083
203	0xbec6fe9a	-0.3886612
204	0xbc3f3b5a	-0.011671865
205	0x3e2a3b1c	0.16624111
206	0x3e189355	0.14899953
207	0x3df3bda1	0.11901403
208	0x3e3018fd	0.17197032
209	0xbcdea36a	-0.027177531
210	0x3c24ba19	0.010054135
211	0xbe3e468f	-0.18581603
212	0xbd348405	-0.044071216
213	0xbd2208bd	-0.039559115
214	0xbd00926b	-0.031389635
215	0xbe225e4e	-0.15856287
216	0xbda60cf0	-0.081079364
217	0x3d41352e	0.047169857
218	0xbd3c61ff	-0.045991894
219	0x3ceef4ce	0.029169466
220	0x3d67dc2b	0.056606453
221	0x3cfc4069	0.030792432
222	0xbde410a0	-0.111359835
223	0xbd9d6b35	-0.07686464
224	0xbd42e3b2	-0.04758043
225	0xbafd6f44	-0.0019335528
226	0xbd0a06f2	-0.03369803
227	0x3c08dfb7	0.008354119
228	0x3de2a707	0.11067014
229	0xbd258278	-0.040407628
230	0xbd9f3550	-0.077738404
231	0x3d44eb79	0.048076127
232	0x3cb9323a	0.022606958
233	0x3d454815	0.048164446
234	0xbd87adc0	-0.06624937
235	0xbd8c29c2	-0.06843902
236	0xbbf5b4b8	-0.00749835
237	0x3d860758	0.065443695
238	0xbe2b1397	-0.16706692
239	0xbdbfe992	-0.09370722
240	0xbeacdd6d	-0.33762684
241	0xbd81ffb6	-0.06347601
242	0x3dd3fb64	0.10350683
243	0x3ce72af2	0.02821872
244	0xbe0af811	-0.13571192
245	0x3e6ece51	0.23320891
246	0xbf534667	-0.825293
247	0xbf815090	-1.0102711
248	0x3d89f17d	0.06735513
249	0x3deba82e	0.11506687
250	0x3c6934c1	0.014233769
251	0x3e203784	0.15646178
252	0xbd4292bb	-0.047503214
253	0x3de9c86d	0.11415181
254	0x3e2e6c40	0.17033482
255	0x3e75bf2e	0.2399871

critic.0.bias f4 [128]
0	0xbd251e85	-0.04031231
1	0x3e667c6f	0.22508405
2	0xbd994c2b	-0.07485231
3	0xbe14e944	-0.14542109
4	0x3db05b40	0.086111546
5	0x3db78291	0.089604504
6	0xbd6d2de7	-0.057905104
7	0x3e32b889	0.17453207
8	0x3e343903	0.17599873
9	0xbd460a99	-0.04834995
10	0x3de0b905	0.1097279
11	0xbead3e84	-0.33836758
12	0xbe2d63c8	-0.16932595
13	0xbe48ba9a	-0.19602433
14	0x3c88ae79	0.016684758
15	0xbe189a7f	-0.14902686
16	0xbe33eb63	-0.17570262
17	0x3d316ae5	0.043314833
18	0xbe36392f	-0.17795251
19	0xbd8d01f4	-0.06885138
20	0xbe14448d	-0.14479275
21	0xbe09af2d	-0.1344573
22	0xbdd8aa48	-0.105793536
23	0xbdab6849	-0.083695
24	0xbe133e25	-0.14379175
25	0x3dba3fd0	0.090942025
26	0xbe41b417	-0.18916355
27	0xbdeb828f	-0.114995115
28	0x3e40b389	0.18818487
29	0x3b7efe38	0.003890885
30	0x3d2ddaa6	0.042444848
31	0x3dbe0317	0.09277933
32	0xbb8d45a3	-0.00431128
33	0xbe36fc33	-0.17869644
34	0xbe685a7a	-0.22690764
35	0xbe234dfe	-0.1594772
36	0xbe5602b0	-0.20899463
37	0x3c43d37e	0.011952279
38	0x3e4be3c9	0.19911112
39	0x3c07c885	0.008287554
40	0xbe22fe9b	-0.15917437
41	0xbc9060b6	-0.01762424
42	0xbe85b826	-0.26117057
43	0xbcc9afe6	-0.024620008
44	0xbe997ad2	-0.29976517
45	0xbe48e17f	-0.1961727
46	0xbd460f6a	-0.048354544
47	0xbbb7f103	-0.0056134476
48	0xbe43a926	-0.19107494
49	0x3cecbaff	0.02889776
50	0x3d963fa8	0.0733636
51	0x3b2e8723	0.002663084
52	0x3c521d21	0.012824328
53	0xbcbb7df9	-0.022887217
54	0xbe10b0ed	-0.14129992
55	0x3e55a7e9	0.20864834
56	0x3c56a754	0.013101418
57	0xbe6deb4b	-0.23234288
58	0xbe0eccea	-0.13945356
59	0x3d8a6727	0.06757956
60	0xbcb1e7c1	-0.021716954
61	0xbdb940f1	-0.0904559
62	0x3d3b5246	0.04573276
63	0xbdcb9432	-0.099403754
64	0x3e1f72aa	0.15571085
65	0x3e6d425b	0.23169844
66	0x3c76928a	0.015049586
67	0x3e579bb0	0.21055484
68	0x3d7398f2	0.059472032
69	0x3e21b687	0.15792285
70	0xbd969dd3	-0.07354321
71	0xbe025fe9	-0.127319
72	0xbe21ccbd	-0.15800758
73	0xbd9bf9e6	-0.07616024
74	0xbb031e51	-0.0020007084
75	0xbcebac49	-0.028768675
76	0xbd6ce214	-0.057832792
77	0x3e703fb7	0.23461805
78	0x3db17dab	0.086665474
79	0xbe2679ca	-0.16257396
80	0x3e2ce55a	0.16884366
81	0xbe31ba11	-0.17356135
82	0xbca2c515	-0.019869367
83	0x3ba0929a	0.004900289
84	0x3e542b08	0.2071954
85	0x3c865dde	0.016402181
86	0xbe18b1af	-0.14911531
87	0x3e381531	0.17976834
88	0x3bf61482	0.007509769
89	0xbe1bc9c0	-0.1521368
90	0x3ccb54e8	0.02482076
91	0xbdce577b	-0.10075279
92	0xbe5b3fdd	-0.2141108
93	0xbda8b7c0	-0.082381725
94	0xbe31cbd3	-0.17362909
95	0xbe0a8900	-0.13528824
96	0x3e1dafb1	0.15399052
97	0x3dc8e9e5	0.09810237
98	0x3e1cbd5e	0.15306613
99	0x3d721187	0.059098747
100	0xbda77d70	-0.08178222
101	0x3bf62dec	0.0075127985
102	0x3e420fbf	0.18951319
103	0xbe1ab0c0	-0.15106487
104	0x3d5ed3d1	0.054401223
105	0xbdabe876	-0.08393948
106	0x3d395b3c	0.045253024
107	0xbdac1ed8	-0.084043205
108	0x3dde3d52	0.1085154
109	0x3e79dacf	0.24399875
110	0x3daff9ca	0.08592565
111	0xbdc9508c	-0.09829816
112	0xbe343934	-0.17599946
113	0xbcc56f29	-0.024100857
114	0xbd5f0300	-0.05444622
115	0x3da772bf	0.08176183
116	0xbe2990e2	-0.16559175
117	0xbe2d63bb	-0.16932575
118	0xbdd53a73	-0.10411539
119	0xbe8e0762	-0.27740008
120	0x3d34d35c	0.04414688
121	0x3e67dffc	0.22644037
122	0xbce19439	-0.027536498
123	0x3d8e5c61	0.06951214
124	0x3dc0f00a	0.09420784
125	0x3d8435a6	0.06455545
126	0xbe531530	-0.20613551
127	0x3ce79284	0.028268106
