logs/rsl_rl/anymal_c_flat_direct/2025-04-24_12-25-01/model_100.pt (torch, 983322 bytes, 48 tensors)

std f4 [12]
00000000: c16d a13e 0965 9d3e 34dc 9c3e dfba 9e3e
00000010: 6e60 c23e 5e9f c13e f500 c63e 7a3d c03e
00000020: 9a84 8c3e ff13 a33e fbec 923e 9e09 9a3e
0.31529048 0.30741146 0.30636752 0.31001946 0.37964195 0.378169 0.38672605 0.37546903
0.27444917 0.31851193 0.28696427 0.30085462

actor.0.weight f4 [128, 48]
00000000: 4f6d 4e3e 7825 8abc bd45 eabd 8485 04be
00000010: 341b 933e 5dc3 b5be d603 083e 40f8 6a3d
00000020: 9148 e53d 8961 48bd e840 c53e a7db 7e3e
00000030: c08a eebc 1432 8bbe bff1 75be 9da8 03bf
00000040: 6c76 70bd a4b1 703e 5d2e feba 5cee 11be
00000050: 7317 133d 1984 993e 17ff d83e 0760 d1bd
00000060: ea13 81bd d595 f83c d688 8a3c 6389 37bd
00000070: d1d3 833d 3c07 3e3e a0db 6dbd f178 f9bc
00000080: 6795 943d 62cb 6f3d 888b 9fbd 33bc 293c
00000090: 026f f33c 72fb 54be 181c 3a3e 9250 eabd
000000a0: 5eef df3b 7741 21be 2ca8 253e 492b d5bd
000000b0: 8684 29be 1281 21be a5aa 163e 7136 bd3d
000000c0: 2a4c fbbe b8df d6be a831 583d 352f 15be
000000d0: d2e1 80be d013 9c3d d411 81bd ce2f 9f3e
000000e0: b843 213e 12b6 0cbe f30d fc3e 2686 94be
000000f0: fcfe 223d a2da 27bd fdf1 d33d 3911 26be
00000100: 0ba0 a0bd 12b2 eabd 1880 b1be 1477 1c3d
00000110: 2370 2f3d ded2 bf3d 4e5f 133d c692 6c3e
00000120: acc5 583d 19c4 283c a7d8 febc b8d3 10bd
00000130: e32b bbbc 8896 88bc edf9 8bbd df59 93bd
00000140: 9f6d 0cbd 3cbe b3bc bd9c 85bb d3bc 8f3c
00000150: e2d3 20bd 45e3 b63d 288a 3b3c 6084 39bd
00000160: acd9 f8bb 9f32 e5bc c04d 5cbc 4ec3 09be
00000170: 7cec 3abe 065a 27be 82fc 123d cdeb 36be
00000180: d4a4 1dbe de16 43bd 7c60 893e 04b4 da3d
00000190: 26b4 1b3e 9eb9 72be 0179 c2be f6bb 53bf
000001a0: 0e58 173e f39b b23e cf6c 4f3c ec66 b53e
000001b0: 7d8e 963e 1eda ca3d a576 0b3e 5a3a 913e
000001c0: 4a4f f3bc 5548 89be 02b8 6d3e 8ec3 aa3e
000001d0: d494 753e 21fa fcbb aec7 93bd e083 633d
000001e0: 94d6 b0bd 9253 873d 9a31 543c 21f4 71bb
000001f0: fc49 afbd 26d4 9cbd 04fb d73c 25cd 883d
00000200: 36fc 983b 734f 3d3d 2db6 e23c cd59 b6bb
00000210: 2644 313e 43b4 0f3e 7a5d 223e 1780 abbd
00000220: 877c d83d 2e37 3fbe efba 45bd 01c3 07be
00000230: b757 4ebe bcd6 0abd 6570 09be 080c 18be
00000240: 643f 1dbe 1cd0 823e 4552 013f 0caa 703e
00000250: 1157 5fbe bb74 b93d 3535 983d 32ee ff3e
00000260: 20fd 9fb9 f7e8 aabd 6951 16be 4a17 be3e
00000270: ec9a 7cbe 484b 983e 3d6d d23d 113e 213e
00000280: b6ec 033e 6b07 87be 2bcc 363e e258 03bf
00000290: acf2 d53d 8826 6e3d 98c4 353f 82ac 6cbe
000002a0: 8c57 013e 1aa2 edbc c67a 1d3e 02e1 dfbd
000002b0: 8049 323d 634d 8bbd f5a9 023e 37cf 543d
000002c0: b8fe 2fbc 0e20 9cbc a84e b03d acf4 2e3d
000002d0: e9e7 033e 027b f6bd 452f 65bc cc9e 3fbe
000002e0: a902 7bbd 522a 49bc 0237 a13e aece 3bbe
000002f0: c8db 89bd e7f5 21be 8bbf bdbe 16ca a9bc
00000300: 2b80 7c3e 752c 3fbb 5a82 67be 2c4e 4fbe
00000310: 49ab 2c3e 0e30 633e 6cae 003f 1b48 da3e
00000320: d40a a53d f93d 2a3e eda6 8cbe c36a 333c
00000330: 89ed 5cbe 4b98 e5bd 0497 2abe 745a c6be
00000340: 42bf 10be a0c2 00be 0e3c 7e3e 9a19 c8bc
00000350: 3fb9 903e 4443 97be bfcd 2c3d 2e4d 19be
00000360: a455 be3d f64d b6bd 6391 7f3c e923 1cbe
00000370: 6ccf 273d 08ef 813d a291 cebd 6730 1e3d
00000380: 56dc a73d c522 1dbd 8d71 61bd d19b f7bb
00000390: f0de 173e afbc 613e 47f8 eabd 5fe0 1abe
000003a0: e317 aabd b31b 5e3d 647c 2fbc 588f 593d
000003b0: 10ec 90bd 642d 33be b2d2 463d 032c c73e
000003c0: 8a39 28be 25c6 b53d 909c b9be 2a7f 503e
000003d0: 3a7e 8fbd a7b4 803e 919c 90bd 2bf4 11bd
000003e0: 7707 15bd 0510 e83c 5da6 c8be 3cf9 6cbc
000003f0: a047 353e 62c5 133f 7ae0 34bd 3a2f e93d
0.20158885 -0.01686357 -0.11439083 -0.12941557 0.28731692 -0.35500613 0.13282713 0.057365656
0.111954816 -0.04892114 0.38526082 0.24888478 -0.029118896 -0.27186644 -0.24018 -0.5142916
-0.058706686 0.23505265 -0.001939248 -0.14251083 0.035911035 0.29983595 0.42382118 -0.10223394
-0.063026264 0.030344883 0.016910952 -0.044808757 0.06436885 0.18557447 -0.05807078 -0.030453177
0.07255059 0.05854357 -0.07790285 0.010359812 0.029716019 -0.20799044 0.1817478 -0.11441149
0.0068339547 -0.15747629 0.16177434 -0.104086466 -0.1655446 -0.15771893 0.14713533 0.092388995
-0.49081546 -0.4196756 0.05278173 -0.1456879 -0.25172287 0.076209664 -0.063022286 0.3109116
0.15748489 -0.1374133 0.49229392 -0.29008597 0.039793953 -0.04097999 0.1034889 -0.16217507
-0.07843026 -0.114597455 -0.3466804 0.0381995 0.04283155 0.093663916 0.03597956 0.23102865
0.05292289 0.01030066 -0.031109167 -0.03535816 -0.022848075 -0.016673341 -0.06834779 -0.07194876
-0.03428423 -0.021941297 -0.0040775225 0.017546093 -0.039264567 0.08930067 0.011446513 -0.04529226
-0.007594308 -0.02797824 -0.013446271 -0.13453409 -0.18254274 -0.16342935 0.03588534 -0.17863388
-0.15394908 -0.04762923 0.26831424 0.106788665 0.1520544 -0.2370362 -0.37982944 -0.8270868
0.14779684 0.34884605 0.012660219 0.35430086 0.29405585 0.09904884 0.13619478 0.2836483
-0.029700894 -0.26812997 0.23214725 0.3335232 0.23982555 -0.0077202474 -0.0721582 0.055545688
-0.086346775 0.06607737 0.012951279 -0.0036919194 -0.08559033 -0.076576516 0.02636481 0.06679753
0.0046687378 0.046218347 0.027674759 -0.0055649043 0.17311153 0.14033608 0.15855971 -0.083740406
0.10570627 -0.18673393 -0.048273977 -0.13257982 -0.20150648 -0.033896193 -0.13421781 -0.1484834
-0.15356213 0.255494 0.5051616 0.23502368 -0.21810557 0.09055468 0.074320234 0.49986416
-0.00030515436 -0.08345216 -0.14679493 0.37127143 -0.24668473 0.29744935 0.10274742 0.15746333
0.12883267 -0.26372847 0.17851321 -0.513075 0.104466766 0.058142215 0.71003103 -0.23112682
0.12631053 -0.02900796 0.15378866 -0.10931589 0.043527126 -0.0680187 0.12760146 0.051955428
-0.010741882 -0.019058254 0.086087525 0.042713806 0.12881435 -0.12035181 -0.013988321 -0.1871292
-0.061281834 -0.012278156 0.3148728 -0.18340561 -0.06731373 -0.1581646 -0.37060198 -0.020726245
0.24658267 -0.0029170786 -0.22608319 -0.20244664 0.16862215 0.221863 0.50266147 0.42633137
0.08058706 0.16625203 -0.27471104 0.010950747 -0.21574987 -0.11210688 -0.1665917 -0.38740885
-0.14135459 -0.12574244 0.24827597 -0.02442627 0.28266332 -0.29543507 0.042188402 -0.14970848
0.092936784 -0.089015886 0.015598628 -0.15248074 0.040969297 0.0634442 -0.10086371 0.03862038
0.081963226 -0.038363237 -0.05503993 -0.0075564166 0.14831138 0.22044633 -0.114731364 -0.15124653
-0.08305337 0.054225635 -0.010710809 0.05311522 -0.07076275 -0.17497784 0.04854078 0.38900766
-0.164282 0.08875684 -0.3625226 0.20361009 -0.07006498 0.25137827 -0.07061113 -0.035633247
-0.036384072 0.028327951 -0.39189425 -0.014463719 0.17703104 0.5772306 -0.04415939 0.11385961

actor.0.bias f4 [128]
00000000: 5d1e 49be 41d7 bcbd 5114 ae3d f5b5 833c
00000010: d2d7 243e 9bce a33d 5de8 6bbd 7d52 5a3d
00000020: f705 ca3c 9b2d 063d fa29 14bd c458 493c
00000030: ead6 44bd e474 81bd 8e91 1abc bf1f ecbc
00000040: 3d50 7b3d f95b e6bd 26c2 96bc 1d20 65bc
00000050: 45a5 76bc 90b7 203d 3a78 84bd 9536 7cbe
00000060: 2bf2 adbd f5cf fbbc 236a 723d 683c af3c
00000070: bf96 ffbd eb1a d83b 00f0 45bc 9556 08bb
00000080: c58b 303e 1991 f03d dc86 b6bc 03e8 fd3c
00000090: f6fd 8d3d fc5c 88bd 4527 ecbd 0ed7 aebd
000000a0: 4d5f 623d 521a d4bc fb30 1c3d a8f7 913d
000000b0: fd3c 33bd 7754 1d3d 614c 80bd 10a2 ae3d
000000c0: c9f7 23be 9935 8c3d c6a4 a03b 5947 42bd
000000d0: 75c7 aa3d a6ee 9e3d 4935 f5bd dab3 56bc
000000e0: f92d 0a3d 0177 33be b79d ac3c d370 873c
000000f0: a461 1fbd 3f22 9a3d 02fe 69be 5ba8 e83d
00000100: 0769 60be 353d 00be 4b5c b8bd 8b11 62be
00000110: 28da e9bd 2db5 2fbc b405 56bd 36b0 72bd
00000120: bebe febb cd59 e8bc ff92 b7bb e440 b23c
00000130: 2c4e d83d 31bf bcbd 6506 eabd a859 17bd
00000140: c6c6 0dbd 5884 feba 7a4e b13d 6453 5cbd
00000150: a2c3 14be 9627 1dbe efd7 6d3d db3b 20bd
00000160: 37ff da3c b73d 0a3e bc73 5bbd bebb 6cbd
00000170: d2db b4bd 685e 18bc 986c 32bd 0e7f 763d
00000180: 4e24 39be 3f2b d7bd f619 1dbe 283b 2dbd
00000190: 8d29 b4bc 7c51 adbc ae0d 51bd a02e 293e
000001a0: de81 823d f84f 4dbd 8d2e 99bd 833f a03d
000001b0: 1ee2 073e acc9 fbbd 21f4 4a3d d8a0 a5bd
000001c0: e01d 1c3e 44d5 e9bd bb29 0bbe 47c8 2cbc
000001d0: 3cdd e3bd d7c8 20be 13b1 2b3c 458c 83bd
000001e0: fe79 1c3e 769c cb3c a602 6abd 010e b93b
000001f0: dd4d dd3b ac3a 92bd 072d 1fbc f0de 703c
-0.19640489 -0.09220744 0.08499969 0.016077975 0.16097954 0.07998391 -0.057594646 0.053301323
0.024661047 0.032758337 -0.036172844 0.01228923 -0.04805652 -0.06321123 -0.009434117 -0.028823731
0.061355818 -0.11248011 -0.018403124 -0.013984707 -0.015054052 0.03923756 -0.06468244 -0.24630196
-0.084934555 -0.03073881 0.05918325 0.021391109 -0.124799244 0.0065950057 -0.012081146 -0.002080356
0.17240818 0.11746425 -0.022281103 0.03099442 0.06933205 -0.0665836 -0.115309276 -0.08537112
0.055266667 -0.025891457 0.03813265 0.07127315 -0.043759335 0.03841063 -0.06264568 0.08527005
-0.16012491 0.068461604 0.004902455 -0.047431324 0.08338825 0.07760362 -0.11973054 -0.013104403
0.03373525 -0.17525865 0.021071298 0.016533291 -0.038911477 0.07526063 -0.22850803 0.11360236
-0.21915065 -0.12523349 -0.090019785 -0.22077005 -0.11418563 -0.010724348 -0.052251533 -0.05925008
-0.007774203 -0.028363133 -0.00560224 0.021759458 0.10561785 -0.09216154 -0.11427001 -0.036950737
-0.034613393 -0.0019418104 0.08657546 -0.053790465 -0.14527753 -0.15347132 0.05806726 -0.039119583
0.026733024 0.13500105 -0.05357717 -0.057796232 -0.0883099 -0.009299852 -0.043560594 0.060179763
-0.18080255 -0.105062954 -0.15341935 -0.042292744 -0.02199247 -0.021157019 -0.051038437 0.16521692
0.063724265 -0.050125092 -0.07479582 0.07824614 0.1326985 -0.12294325 0.049549226 -0.08087319
0.15245771 -0.1141763 -0.13590138 -0.010545797 -0.111261815 -0.15701614 0.0104792295 -0.06423239
0.15280911 0.02485488 -0.057131432 0.0056474213 0.006753667 -0.07140097 -0.009715325 0.01470159

actor.2.weight f4 [128, 128]
00000000: 13d1 8f3d 9f78 b93d bfbf 713d 7b7c b5bd
00000010: 3ed8 183d 0ccd adbc 168a 13bd 34b2 6d3d
00000020: 29c1 5d3d 8a20 24be 12d4 3f3e cecd ab3d
00000030: 6398 e9bd 417f 62bd 9dc4 aa3d b6ee 183d
00000040: 3d16 74bd c0ee 7f3d 6192 adbb 640c 98bd
00000050: 89e4 88bd 81ba 893d f237 16be 2f2d 343e
00000060: 3e51 38bc 9103 853d de0b 143d 66a7 423d
00000070: f92f aabd 62b1 2cbc 5386 73bd 57b2 bf3d
00000080: fa74 cdbd 9190 06bc 3b82 143d 706a 42bd
00000090: 0c46 223d 5677 913d 453d 70bc 8a8a b53c
000000a0: 7bb5 f53a 1157 0abd 0d3c d93d 41da 613d
000000b0: 4884 ab3d 4ecb 2fbe da1e e3bd 5eac 8cbd
000000c0: 4b3d 34bc 3cde d4bb 7bf1 933c 05bb cf3c
000000d0: a5dc 543c 8521 babd 8a73 95bb 69b4 9bbd
000000e0: b27a e3bd 680b c13d a52b 213b 5136 683d
000000f0: 9f68 2cbe 5fe5 cfbd b759 dc3d 0a80 85bd
00000100: 0834 913d 12de 173e 43bd 8ebd ef9c f23c
00000110: d021 403d 8b1b 753d 3c8d 12bd 2754 2bbd
00000120: 35b8 813d f099 e8bd 744a 793d e3dd 983d
00000130: e11e 4e3c d8b5 88bd c342 f8bd f85a 633d
00000140: 20bf 27be ffe2 d63d 069c 21bd 4859 143e
00000150: 8c0d 94bb a110 edbd 8ed8 233d 2eff 813d
00000160: 4270 313d f4a6 1ebc 13b6 4cbd e733 9abd
00000170: 52e3 953d af3d 3d3b 9eb0 bc3c f1ac 333e
00000180: b8a2 1fbd 60ce 18bd fd7f cd3d 5611 2abd
00000190: ab91 c53c 8aea 813d 74b3 8cbd 9b4d 483b
000001a0: 2d87 273c 10f8 88bd d09b 063d 0213 4f3d
000001b0: 3727 75bc cbe7 0c3e e158 b83d 33ca d73d
000001c0: 967f ea3c bffc 1c3d 9271 4fbe 7939 4fbd
000001d0: 4e62 4c3e 82b0 8dbd 58d1 efbb d9a0 183e
000001e0: 540f 163d 9acf b0bd d89d 093e ec70 82be
000001f0: 0b51 0d3e 7446 92bd 5c42 35bd 5bd6 da3c
00000200: 0994 233e 20df 5abb 045f 8dbc c394 d9bb
00000210: 9125 033e ba91 af3d a7dc b7bb a377 b33d
00000220: cab2 16be 613b 4d3d 77f3 adbd ea2e 39be
00000230: 98f2 543d 6fa1 57bd 3903 ddbd bc3f 923c
00000240: 6474 893d 5018 f1bd 7510 94bd 4b78 e73d
00000250: ddbd 8dbd 354f 54be cf85 c33d dfc6 aabd
00000260: c3d0 6d3d 7601 cbbd 5a43 653d 71fa cbbd
00000270: f8ac 7ebc 48dc 04be b71d 84bc 2625 66bb
00000280: b444 333e 736c be3b 342a c4bd f44e 7dbe
00000290: 3a08 fc3c 8106 203d 4b38 babd cdd0 a13a
000002a0: ccd8 bb3b 8665 d1bd e8d3 cb3d d2ac 9e3d
000002b0: 916b 3a3d 0688 27be e3d2 b3bd ee6f cd3c
000002c0: 23d7 f0bd f0ca 3abd 534b a53d 0029 873c
000002d0: 89f2 c1bd 7f47 bfbc f8ab cb3d fd17 4fbd
000002e0: 2c1a a63d b34d 26bd b778 15be 7f7e db3c
000002f0: 520a ec3b 05fc 493d 6cd4 70bc 98ba 283d
00000300: eea4 7f3d f1c8 93bd 3970 95bd ab9a 96bd
00000310: dac2 a6bb d7db 37bd 797e b43c b1b8 18bc
00000320: 624d cabd ea59 013e a17b ecbd aab1 cdbd
00000330: e521 e1bd 102d 223d a837 be3d 1a45 cdbd
00000340: e549 c43c 0460 c0bc 0455 103e 8fa1 07be
00000350: 380d aebd 903f 3d3d 021a 0ebd 525f be3d
00000360: cfa1 65bd 1012 133e 2e16 bf3d f780 073e
00000370: 2cc7 2f3d 0335 02be 098e f1bc a975 2a3d
00000380: c971 73bc aed4 ebbd ea2a 003e e78e bbbc
00000390: 192a 9e3d 5a68 a2bd c8b6 b8bd f7da c03d
000003a0: eef4 d1bd 04b0 09bd bde5 fbbd cc75 06be
000003b0: 2a30 fdbb 2c47 c4bd d0a2 00bc 9ffa e03d
000003c0: 34b7 743d b708 bfbc e336 03bd 4815 093c
000003d0: fa39 0dbe e41f acba 98b9 d03c 2f2d ef3c
000003e0: feb8 eb3c d43b debd b035 adbc e79e 1cbe
000003f0: b9b0 d0bd 8541 d0bd 3068 c0bd d8ed bd3c
0.070222996 0.0905621 0.059020754 -0.088616334 0.0373156 -0.021215938 -0.03602036 0.058031276
0.05413929 -0.16028038 0.18733242 0.083888635 -0.114060186 -0.05529714 0.08338282 0.037337027
-0.05959152 0.06248355 -0.0052969907 -0.07424238 -0.066842146 0.06725026 -0.14669779 0.17595361
-0.011249838 0.06494821 0.03614413 0.047522925 -0.08309931 -0.010540338 -0.059454273 0.093601875
-0.10032077 -0.008213178 0.03625701 -0.047464788 0.039617583 0.0710284 -0.014663045 0.022160787
0.0018746102 -0.03377444 0.10607157 0.055139784 0.0837484 -0.17167398 -0.11089869 -0.06868814
-0.0110009415 -0.006496219 0.018059483 0.025357733 0.012992059 -0.090884246 -0.0045608925 -0.0760277
-0.11107387 0.09426004 0.0024592665 0.056692425 -0.16836785 -0.10151171 0.10759299 -0.06518562
0.07090002 0.14830807 -0.069696926 0.029615847 0.046907246 0.05984072 -0.035779223 -0.0418283
0.06333963 -0.11357486 0.06086202 0.074641965 0.012580604 -0.06675309 -0.12122109 0.055506676
-0.16381502 0.10492515 -0.039455436 0.14487183 -0.0045182165 -0.11575437 0.040001445 0.063475
0.043319948 -0.009683359 -0.049978327 -0.07529431 0.073187485 0.0028875878 0.023033436 0.1754644
-0.03897354 -0.03730619 0.100341775 -0.04152044 0.024117311 0.06343563 -0.068701655 0.0030563835
0.0102250995 -0.06687939 0.032863438 0.050555237 -0.014962963 0.13760297 0.09001327 0.10536613
0.02862529 0.038326975 -0.20258167 -0.05059192 0.19959375 -0.06918432 -0.007318657 0.14905109
0.03663571 -0.08633347 0.13439119 -0.25476778 0.13800447 -0.07142344 -0.04425274 0.02671354
0.1597444 -0.0033397153 -0.017257221 -0.006640048 0.12807299 0.08572717 -0.0056110206 0.08763053
-0.1471664 0.050105456 -0.08493703 -0.18084303 0.051989168 -0.05264419 -0.1079163 0.017852657
0.06711653 -0.11772215 -0.072297014 0.11302241 -0.06920979 -0.2073334 0.09547006 -0.08338713
0.05806042 -0.09912388 0.055972435 -0.09959877 -0.015544169 -0.12974656 -0.01612745 -0.0035117357
0.17506677 0.005811268 -0.09578362 -0.2473715 0.030765641 0.039068703 -0.09092768 0.0012345553
0.0057326313 -0.10224442 0.09952527 0.077478066 0.04551274 -0.16360483 -0.08780458 0.025077786
-0.11759784 -0.045603693 0.080710076 0.016499043 -0.09470088 -0.023349522 0.0994491 -0.050559986
0.08110461 -0.040601443 -0.1459683 0.026793716 0.0072033787 0.04931261 -0.014699083 0.041193575
0.06241315 -0.07216061 -0.072967954 -0.07353719 -0.005089146 -0.04488739 0.022032963 -0.009321378
-0.09878041 0.12631956 -0.11547018 -0.10043652 -0.10992793 0.039593756 0.09287959 -0.10022946
0.023961017 -0.023483284 0.14094931 -0.13245223 -0.08498615 0.046203196 -0.03469277 0.09295525
-0.056062516 0.14362359 0.09330402 0.1323279 0.042914554 -0.12715535 -0.029486673 0.041616116
-0.014858671 -0.11515175 0.1251637 -0.02289529 0.07722873 -0.0793006 -0.09019238 0.09416764
-0.10251795 -0.033615127 -0.122996785 -0.13130873 -0.007726689 -0.095838875 -0.0078513175 0.10985302
0.05974503 -0.023319585 -0.032034766 0.00836689 -0.13791648 -0.0013132063 0.025479123 0.02919635
0.028774735 -0.10851255 -0.021143764 -0.15294991 -0.10189957 -0.10168747 -0.09394872 0.023184702

actor.2.bias f4 [128]
00000000: 6466 12be 0e8b 5d3b f104 20be be0c bebd
00000010: 0d84 db3c 3bc4 c7bd 0ece 933c 3274 b1bd
00000020: 8a74 88bc 3349 583d 94ed 1bbe 9019 c3bd
00000030: 2251 58bd 128c 1ebd 52ec 8fbd d00b ecbd
00000040: c221 e7bd 6fe1 d7bb f37f a8bc c1c3 9abd
00000050: f530 3cbd df32 a0bb 4a33 77bc 5de8 b3bd
00000060: e9c8 cebd 1e5f 1fbe c5c1 9fbd 1439 9fbd
00000070: 91ff b3bc 453a 48be 1dab 2fbc 4cf7 75bc
00000080: 1a7e ed37 68cb cabd 4d3e 143c 4947 00be
00000090: b9f7 81bd c6cf e3bc 18ae 753d ee02 91bd
000000a0: fff5 0dbe f887 e1bb 247d 06bc 0b1f c2bd
000000b0: 19bf cabd 316d 7abc adbc 08bd 7471 46be
000000c0: dba6 27bd f11c 72bd 4b7b d5bd 3d08 13be
000000d0: 0db3 cfbd 3316 61bd 5c63 efbc 3d71 32be
000000e0: 22b1 91bc 9084 0cbe db11 b0bd d262 d0bc
000000f0: 9595 773d cd1e 51bd 2ce6 963d b8bd 583d
00000100: 23b4 1b3c cea8 43be 5fe4 c5bc cd4c e1bd
00000110: 288f 14be 1134 263d a64b afbc 4cc2 a43d
00000120: 7a85 42bd 082e 9abc 575e 8fbd 0eab f1bc
00000130: 708a de3d a843 86bd 4620 05bc 791f 14be
00000140: a51f 54bd c126 9b3c a96c 69bd a61a d3bd
00000150: f348 8e3c aa63 75bd 55c2 aebd af0a b2bc
00000160: 1266 93bb 185a 8cbd 6514 043d 18fd 8a3d
00000170: f3fc b3bb d5ba c93b e279 6dbd 3d54 85bd
00000180: 8849 b1bd d2b1 94bd a705 623d 042b df3c
00000190: 6aae 2ebe 6d89 3abd 6562 06bd 93d5 0e3d
000001a0: 98d6 b8bd fe60 9cbd ea1d 21be c1d7 96bc
000001b0: f092 3cbd 9a06 8a3c a675 0abe f207 9abd
000001c0: 5d34 61bd 63dc 483b 1215 a73b 6948 6fbc
000001d0: 9e41 6fbd 844c 09bc e980 ebbc 9411 53be
000001e0: a325 09be 2163 78bb 7a83 f1bd 369b d7bd
000001f0: 548d 573d bb39 973d 0819 1fbe 6d49 03bc
-0.14296871 0.0033804807 -0.15626885 -0.09279774 0.026796365 -0.09754225 0.01804259 -0.086647406
-0.016657133 0.052804183 -0.15227348 -0.0952636 -0.05281175 -0.0387078 -0.070274964 -0.115256906
-0.11285736 -0.006588153 -0.020568823 -0.07556868 -0.045945127 -0.004888877 -0.015087912 -0.08784554
-0.10096914 -0.15563628 -0.078006305 -0.07774559 -0.02197245 -0.19553478 -0.010721949 -0.015012573
2.8311322e-05 -0.09902078 0.009048057 -0.12527193 -0.063460775 -0.027809035 0.059980482 -0.07080637
-0.13863371 -0.006882664 -0.008208547 -0.09478577 -0.0989973 -0.015284822 -0.03338306 -0.19379216
-0.04093061 -0.059109632 -0.10423907 -0.14358611 -0.10141573 -0.05495281 -0.029222183 -0.1742601
-0.017784659 -0.13722444 -0.08597156 -0.025437746 0.060445387 -0.051054765 0.073681206 0.052915305
0.009503397 -0.19107363 -0.024156747 -0.11000977 -0.14507735 0.040577 -0.021398377 0.08044872
-0.047490574 -0.018820778 -0.07000416 -0.02950051 0.108662486 -0.06555873 -0.00812537 -0.14465131
-0.05178799 0.018939378 -0.056988392 -0.10307817 0.01736877 -0.0599095 -0.0853316 -0.02173361
-0.0044982517 -0.068531215 0.032246012 0.06786555 -0.0054928004 0.0061563053 -0.057977565 -0.06510208
-0.08656603 -0.07260479 0.05518117 0.027242191 -0.17058721 -0.045541216 -0.03280868 0.03487165
-0.090253055 -0.07635687 -0.15734068 -0.018413426 -0.046038568 0.016848851 -0.13521442 -0.07521047
-0.05498158 0.003064894 0.0050989473 -0.014604666 -0.058412187 -0.008380059 -0.028747993 -0.20612174
-0.13393264 -0.0037900882 -0.11792655 -0.10527651 0.052625015 0.07384058 -0.15536892 -0.008013112

actor.4.weight f4 [128, 128]
00000000: 6050 39bc e5cf 12bd bea7 893c 1345 6e3d
00000010: 09f3 993c e15b 793e 866c d33c 74a7 48be
00000020: b060 e8bc dfb9 a63d ed71 583d 146c 9a3d
00000030: ade8 b33d ba89 a9bd b075 95bd 9a1d ea3c
00000040: 5156 36bd 4dbb 4a3d 71fc 853d f0e8 fdbd
00000050: d97e 403e 74fc 91be e2b4 87bd e2aa 063d
00000060: f116 ccb9 cdcf 4dbe ca41 d93d 9230 a6bc
00000070: d3c1 2c39 6481 cbbc f9a0 a63d 4ceb cfbd
00000080: 7046 d73d a2f7 033e e1c7 29be 3a2d 4d3d
00000090: 2f3c 313e c48e a9bd c1a2 cebc 182b 5e3d
000000a0: 33ad 883d 9248 7dbe 4e23 36be c2fe 13be
000000b0: 1db9 4fbe 5ce5 6d3d 45f3 92bd bef6 00bc
000000c0: e5db 4a3d a92f 2bbd bb1e 41bc acef d0bd
000000d0: af03 37be 4a69 68bd f7da 7abd 646b 19bd
000000e0: d6c1 b6bd 263b 833d c105 b9bd 01b8 59bc
000000f0: b309 60bd 3a39 0cbe 073f 853d c722 7dbd
00000100: 2b4e 8f3d af97 9c3b fb60 e3bc 2a17 18bc
00000110: c9dc 8e3e d88a 1c3e 0d33 023e 4aa3 2bbc
00000120: 5bba e5bd 1ca8 e4bd d435 b03c 7add ed3d
00000130: b146 b33c 9442 343c df14 31bd 3364 9c3c
00000140: 0e81 f43d b9be 403c f1e4 b53d de41 323d
00000150: 143e af3d dd4e 173e 3fab 1e3e f719 32bd
00000160: 55dc f73d 5494 cdbd 9193 d0bc 088a 46bd
00000170: 8505 1abd dbec 3cbe 7da3 053d 3399 7abc
00000180: 9a7c 113d 1099 f23c 4fcd edbd c6e4 773c
00000190: 0e25 223e 3dd7 13be 2904 92bd f59d cabc
000001a0: eb00 703d 1bcc 093d 92a5 373d 6c44 fb3c
000001b0: 6e01 8bbd 19eb 73bd a7c8 65bd edf3 7bbd
000001c0: 1e92 96bd ce11 91bd 77d2 4f3c 3a90 753c
000001d0: ceec 1dbe 6c58 803c e7c0 fc3d 975c c13d
000001e0: 460e c43d d077 d23b 74a7 8bbd 5056 1c3e
000001f0: 0dcb bcbd 7c24 5dbe 4101 8f3d c1ce 583e
00000200: 72a6 39bd 5e42 d1bc 736b ba3c c6c4 c7bd
00000210: e157 50bd e0ac 96be f19f efbd 3297 07bd
00000220: 6078 9f3c e676 983d e97e 7ebc eb5e 0b3d
00000230: aada d13d 5dbd 293d fe89 fabc 9bb1 833d
00000240: a580 a63d c3f2 5ebc 7152 643d e290 ebbd
00000250: e71a 76bd 7f98 66bd 0024 15bd f2ad 07bd
00000260: 72e0 2cbd 5b78 863d 8458 92be 9ed3 7abd
00000270: 1307 04be 4601 863d bcda a13b a939 803d
00000280: 443c 34bd 21e3 d9bd 3e75 b2bd 75fe 3e3e
00000290: b3f4 14be 869a 58bd 56e9 afbc ed97 9cbd
000002a0: 511c c639 109b 40bd 87a3 e43c 3e09 5d3b
000002b0: bc2e e3bd c022 2e3d 3fb7 a23d 3d24 b63d
000002c0: 9550 be3d ffbc 56bc a4e1 c83c 67cf 5f3d
000002d0: 1ff8 18bd e1eb 223e 1591 b5bd ddb0 eebb
000002e0: 26fa 22bd 502b e33d 657a 56bd 532a 5a3d
000002f0: 92b6 b0bd c4fc 02be 3921 2b3e 1cfc af3d
00000300: db99 b03d 6749 18bd 0b07 aabd 01ab 1c3e
00000310: b9ed aa3d eb94 11be 08ca bc3c db50 ec3d
00000320: e13d 9c3d 3675 8fbd 9ea6 48bd 1abe e5bc
00000330: 3e88 d9bd 459f 5dbd d9bf 9a3c fccc 6f3d
00000340: 733f cabd a8e9 20be c846 c53d 3f47 3c3d
00000350: 19e9 95bd 86d9 c4bd 0fcc 7b3b 2f78 a9bc
00000360: 9ac7 813d 6a4a 003e 868a cfbd d4c7 f73b
00000370: 6e94 2b3d 2ace f53d d3c0 7bbd a2d5 603d
00000380: cd97 bc3d ad2a 56bd 25a8 1cbd eb57 4dbc
00000390: 02f5 61bd 666f d3bd 44ec 2fbe 017e d0bd
000003a0: 1e8f 44bd d2a4 433d f359 c63d 5086 d83c
000003b0: b1c0 f5bd a119 9ebc 3d6d 81bd 184e 83bb
000003c0: b13e 743d c9eb 15be 45df e2bd 1687 0f3e
000003d0: 5afe 6cbe c0bd b1bd 827b e5bd 43c8 053d
000003e0: f520 b4bd c153 49bc d2f2 883d 7fa4 0abd
000003f0: 2e6c 81be 0622 083c eb9c c53d 1de3 9e3d
-0.011310667 -0.035842795 0.016803619 0.058171343 0.018792646 0.24351455 0.025808584 -0.19595128
-0.028366417 0.08140921 0.052843023 0.075401455 0.08784614 -0.082782224 -0.07297838 0.028578568
-0.04451591 0.04949503 0.0654229 -0.12397945 0.18798389 -0.2851292 -0.066262975 0.03287781
-0.00038927005 -0.20098801 0.106082514 -0.020286832 0.00016475403 -0.024841972 0.08136172 -0.10152301
0.10511482 0.12887433 -0.16580154 0.05009196 0.17308114 -0.082791835 -0.025224091 0.054240316
0.0667366 -0.24734715 -0.17786905 -0.14452651 -0.20285459 0.058080062 -0.07175306 -0.007871328
0.049526114 -0.0417935 -0.011787112 -0.10201964 -0.17872499 -0.056741036 -0.061243977 -0.03745593
-0.0892369 0.06407766 -0.090343006 -0.013288499 -0.05469675 -0.13693705 0.06506162 -0.061800744
0.06997331 0.0047788243 -0.027756205 -0.0092828665 0.2790282 0.1528734 0.12714787 -0.010475943
-0.11217185 -0.11164877 0.021510042 0.11614509 0.021884294 0.011002202 -0.043232795 0.019090747
0.11938678 0.011764222 0.08881558 0.043519847 0.08556762 0.14776178 0.15495013 -0.043481793
0.12102572 -0.10038057 -0.02546099 -0.04847148 -0.03760292 -0.18449728 0.032626618 -0.015295315
0.03551922 0.029614002 -0.11611425 0.015130227 0.15834448 -0.14437576 -0.071297 -0.024733523
0.058594625 0.033641916 0.044835635 0.030672275 -0.06787382 -0.05955038 -0.05609956 -0.061511923
-0.073520884 -0.07083474 0.012684456 0.014988 -0.15422365 0.015667163 0.12341481 0.09441488
0.09573035 0.006422974 -0.068190485 0.152673 -0.09218416 -0.21595949 0.06982661 0.2117262
-0.04532475 -0.025544342 0.022756314 -0.097543284 -0.050865058 -0.29428768 -0.11700428 -0.033103175
0.019466579 0.07444553 -0.015533187 0.034026068 0.10246785 0.041440357 -0.030583378 0.0643036
0.08130006 -0.013607684 0.055742685 -0.115022436 -0.06008425 -0.056297775 -0.036411285 -0.03312487
-0.042206235 0.06565925 -0.28583157 -0.06123697 -0.12893324 0.06543212 0.0049394052 0.06260998
-0.044002786 -0.106390245 -0.087137684 0.18651755 -0.1454647 -0.05288174 -0.021473568 -0.07646165
0.000377866 -0.04702288 0.027910007 0.0033727433 -0.11092898 0.04251361 0.07945108 0.08893631
0.092927136 -0.013106584 0.024521656 0.054641154 -0.037346 0.15910293 -0.08865563 -0.0072842673
-0.03978934 0.110922456 -0.05236282 0.05326302 -0.086285725 -0.12791735 0.16711892 0.08593008
0.086230956 -0.037179377 -0.083021246 0.15299608 0.08346123 -0.14216964 0.023045555 0.115388595
0.0762899 -0.07004778 -0.048987024 -0.028044749 -0.10621689 -0.05410697 0.018890308 0.058545098
-0.09875383 -0.15714133 0.09632641 0.045966383 -0.073198505 -0.09611802 0.003842119 -0.02068719
0.06336899 0.12528387 -0.10133843 0.007561663 0.0418896 0.12002213 -0.06146319 0.054891236
0.09208641 -0.052286793 -0.038246293 -0.012533168 -0.0551653 -0.10323982 -0.17179972 -0.10180283
-0.04798805 0.047764607 0.09685125 0.026431233 -0.119996436 -0.01929933 -0.06319664 -0.0040071122
0.0596301 -0.14640726 -0.110777415 0.14016375 -0.23143902 -0.0867877 -0.11205198 0.032661688
-0.087953486 -0.012288035 0.06686939 -0.033848282 -0.25277847 0.008308893 0.0964907 0.07758162

actor.4.bias f4 [128]
00000000: a424 c5bd ecec fd3c d15a 1bbe 26fe 14be
00000010: 726f 0dbd 7b0b 02be c436 813d b0d5 e3bd
00000020: 5cc9 c5bc fc16 54be 1ae4 81be 6fb7 30be
00000030: 31c0 e0bc 4f14 063e bc68 503d 179c 1a3e
00000040: a0df 2cbd c48b e93d 44eb 143e 8812 3ebe
00000050: 9ac8 513d 1faf babc 1e50 c7bc eee6 a83d
00000060: d03f 92bd f5c6 aebb db24 94bd b19d 0cbe
00000070: cb43 143e f13d 25bc 1a6f c13d 549e 61bd
00000080: 83a8 e5bd eb26 3a3d 5504 c53c d833 b1bd
00000090: 01f3 27be b684 4fbe 678e c33b ef0f fabd
000000a0: 3907 3f3d 503f a33c b4c7 48be afdf d8bd
000000b0: 34ea 28be 77c7 89bd fba4 313d d8f8 12bd
000000c0: 84bc cd3d c7d5 50be 9e97 2cbd 5372 03bc
000000d0: a119 873d ed98 a8bd 2d86 4e3c 1699 073e
000000e0: 8672 f33c 59fd ec3d 9c42 ceb9 414e c5bd
000000f0: f2bf 1bbe 4395 40bd 9ada 63bd 3010 82bd
00000100: 96ef db3c 0940 90bd ac13 43bd 32b8 a9b9
00000110: 4a1b 82bc ad6f 843d ee37 a03c a8bd 3ebe
00000120: 4eb3 bbbd 317d 793d 6fb7 98bd ed9d 9cbd
00000130: d2e6 bd3d 706b 8abc 0e60 cabd 7b17 0abd
00000140: 18c9 abbd 3133 133d b896 c13c 88e5 7bba
00000150: 99ba 6cbd 9613 0abe aa18 bbbc 37aa 963d
00000160: 4cc7 153d a20f 5fbd 751c f33d bfa6 8a39
00000170: b286 21be cdbd 7fbd 7a46 70be 6176 00be
00000180: 5ef4 e73d 7490 043d b2fa 22bd 27c2 913d
00000190: be7b 42be 24ef 9bbd f692 cfbd 11b4 bfbd
000001a0: dbe1 c0bb fac8 77bd e9d8 bcbd 37e6 7a3c
000001b0: 50c6 dcbd c8e5 103d 10b7 29be bc31 9bbd
000001c0: a239 1e3e b243 39be 276b d93d 4ec7 e1bd
000001d0: 0664 4dbe e766 0cbe 7b83 53be 0295 0ebe
000001e0: 7c59 16be d928 60be fad6 f33d ef34 783b
000001f0: 4733 c7bc e14d 303e 2ead 43be dd03 b3bd
-0.09626129 0.030996762 -0.15171362 -0.14550075 -0.03453011 -0.12699692 0.06309274 -0.11124742
-0.024143867 -0.20711893 -0.2536934 -0.17257474 -0.027435394 0.13093685 0.050881132 0.15098606
-0.042205453 0.11403611 0.14542872 -0.18561757 0.0512167 -0.022788582 -0.024330195 0.08247171
-0.071410775 -0.005333776 -0.07233592 -0.1373203 0.14478986 -0.010085569 0.09445019 -0.055082634
-0.11213782 0.04544727 0.024049917 -0.086524665 -0.16401292 -0.20265469 0.0059679034 -0.1221007
0.046637747 0.01992765 -0.1960743 -0.10589539 -0.16495591 -0.06727498 0.04337023 -0.035881847
0.10045722 -0.2039405 -0.04213678 -0.0080228625 0.06596685 -0.08232293 0.012605232 0.13241991
0.029717695 0.1157176 -0.0003934101 -0.096340664 -0.1520994 -0.047017347 -0.055628397 -0.06350744
0.026847642 -0.07043464 -0.047626182 -0.00032371428 -0.015882153 0.06466613 0.01955792 -0.18627036
-0.09165059 0.060910407 -0.07456862 -0.076473095 0.09272541 -0.016896933 -0.09881602 -0.0337138
-0.08387965 0.03593749 0.023631439 -0.0009609093 -0.05779514 -0.13484034 -0.02283891 0.07356685
0.036567017 -0.054458268 0.11870662 0.00026445647 -0.15774038 -0.062436868 -0.23464385 -0.12545158
0.11325906 0.032364324 -0.039789863 0.0711711 -0.18992516 -0.07613972 -0.101354524 -0.09360517
-0.005886299 -0.0604944 -0.0922106 0.015313677 -0.107800126 0.035375386 -0.16573739 -0.075778455
0.15451673 -0.1809223 0.10616141 -0.110243425 -0.20057687 -0.13711129 -0.20655625 -0.1392403
-0.14682573 -0.21890582 0.11906238 0.0037873348 -0.024316443 0.17217208 -0.19109032 -0.08740971

actor.6.weight f4 [12, 128]
00000000: ad0b c43d 374a 72bd 5192 4d3d fcf9 89bd
00000010: 7b2a efbc c40c 2c3c f2f6 f2bc 8239 7e3c
00000020: ba85 afbc e1c5 e43d 4440 573c f142 9b3c
00000030: 5c39 e33b b71b eabd 6a58 31bd 35c9 c43c
00000040: 26f0 9ebc ea03 3fbd 1151 b5bc ebe0 13bc
00000050: 7e93 0bbd 159b 113d bfed 79bc 346f 42bc
00000060: 76e6 3cbd ad4a 883c 52a9 73bc 1729 313d
00000070: 2fc1 e63c 74d0 663c 43a7 a2bc e509 87bc
00000080: c95b 4fbc f67c a4ba ec8d 55bd d64f 4cbb
00000090: 8619 43bd 156e a33a 177c 97bd 34fa 893b
000000a0: 614f 9cbc b9a8 8b3c 74ed 65be 7f25 cb3b
000000b0: 0887 66bd f984 92bc 7b61 36bc 40c5 a63c
000000c0: 1eb0 07bd bab5 f03d 1fa2 63bc 992c 693c
000000d0: f715 22bd 629b d5b8 d8c0 6cbc d606 c4bc
000000e0: 2bc2 7e3b c371 9dbd d8c9 0bba 307a 2abd
000000f0: f205 a53c 153e c03b 4669 443c aa83 b3bd
00000100: a828 bf3b 8459 75bc c7a4 f73c 1440 8fbc
00000110: ff70 803d 7c76 0e3d f695 dfbc 1f26 a53d
00000120: 4dbb 883c c700 08bd 62b2 46bc ff7f a43c
00000130: 7d0d 9fbc 2374 153d f6a3 bd3d 55c0 7dbc
00000140: 554f 273d 7636 6cbb 56b8 8fbb 00d4 47bd
00000150: e4be 50bc 9fbd 5e3d 8775 5d3d a81d 95bc
00000160: 3503 043b c0bf 5d3a 4805 2abd b6eb 663c
00000170: dbec 5abb 8bfd 4f3c 4024 c13d 6766 483c
00000180: a168 01bd 008c 4ebd 56c7 543d c9ee b3bd
00000190: 6c3b 733c 2bb2 a0bd e52b 45bc 468c 45bd
000001a0: 0fe5 ca3b 8749 2b3d a76c 2dbb c124 1abd
000001b0: 9ca2 103e fd66 c43c 9368 d1bc dde6 ff3b
000001c0: a473 fdbc cc77 25bd e9ed 57bd aaeb abbd
000001d0: 3538 dd3d 8d9c 983c b89a 4d3d f9e0 f03b
000001e0: ad26 8b3a 71e1 203d 2f49 58bd e95c 2bbd
000001f0: d15d 76bd dcd8 12bd d7f1 823d 17eb 513d
00000200: 6008 cdbb 7eb9 083c 2405 443c 445e f73c
00000210: ab4b 933d 30c3 133d b47a 133c a234 b73d
00000220: 82a4 143d 2f4c 433d 9a45 c33d ec4d ab3c
00000230: ce5c 6a3c e289 75bd df0f cfbb 6cf6 b4bd
00000240: d3f9 db3b 7403 a63b f547 5abd ea5a 11be
00000250: 0221 28bd 74d9 66bd 1df1 8e3c 1ca8 8bbb
00000260: 56c5 303d 8b73 02bc 3737 c33c 5aa4 1ebc
00000270: adea a9bd d4d6 04bd f368 4d3b 4c3d 573c
00000280: d730 9fbb ba1c f0bb be7b 783d 13f2 f9b9
00000290: d100 c93c aa0e b83d 9add cabd 05b6 1f3d
000002a0: 56f1 1f3d 10e2 0bbc 30ab 973d 7bfb 503c
000002b0: 0ff4 043d 1965 f63c ae43 dcbc 4e3b 72bc
000002c0: ad7d c13c 763b d43d be92 6ebd 0b46 55ba
000002d0: c3da 793d c017 e13c 6842 633b 4116 5fbd
000002e0: e3bb febc 7b6a 91bd 9e61 1b3a 24b0 b23d
000002f0: b1f0 a2bc 989c d8bb 0760 4c3c 7206 173d
00000300: 9d9e 15bd f4d0 cdbc 8cff ebbc 8619 d53c
00000310: bf01 aebd 0b13 56bc cd41 923c 7002 df3d
00000320: a86e 22bd e57c 3e3d 96e7 b63c 3ca5 893c
00000330: 1321 763c b663 99b9 caf9 18bc bb17 a13d
00000340: 2a22 a23c 92c1 d63c 2f15 21bd 68e8 183c
00000350: 1483 933c b42d 9e3c e94c 80bc 7725 11bc
00000360: d1b7 0c3c 9ad9 7e3b 899d 493c 98a2 c4bb
00000370: 469e 373d 7dd0 d5bd 0bd2 4a3c e8a5 d83c
00000380: 182f 00bc f34c 103c 19e1 eb3c 8561 f63b
00000390: 5a03 5d3d 011b f2ba 1f41 9d3c 268f 863d
000003a0: bdfa 06bc f18f 4abd ca2a 053d 63cf 9dbc
000003b0: cc3c 82bc bcda 58bd e443 a8bc e81f 873b
000003c0: 1326 48bd 989d afbc 4162 16bd b9b0 1ebe
000003d0: 0f96 00bd e530 813d 19df ee3d 2fcc 9ebd
000003e0: 41ef 103e 2941 3c3d a02a e2bc 7968 163d
000003f0: fc45 b93d be9e 21bd 13ac 2e3d 8136 96bd
0.095725395 -0.059152808 0.050188366 -0.06737134 -0.029195061 0.01050109 -0.029658768 0.015516641
-0.02142607 0.11170555 0.013137881 0.018952819 0.006934328 -0.114310674 -0.04329721 0.024021724
-0.019401621 -0.046634592 -0.022133382 -0.009025793 -0.034076206 0.03554829 -0.015254437 -0.011867333
-0.046118222 0.01663717 -0.014871912 0.043252077 0.028168289 0.014087785 -0.019855147 -0.01648421
-0.012656161 -0.0012549448 -0.0521373 -0.0031175516 -0.047631763 0.001246872 -0.07396715 0.0042107347
-0.01908082 0.017048227 -0.22453862 0.0061995382 -0.05628112 -0.017885672 -0.01113164 0.020357728
-0.033126943 0.117534116 -0.013893633 0.014231824 -0.03957173 -0.00010185574 -0.014450274 -0.02392904
0.0038873057 -0.07687714 -0.0005332506 -0.041620433 0.020144437 0.0058667758 0.01198799 -0.08765347
0.005833704 -0.0149749555 0.03022994 -0.01748661 0.06271552 0.034780964 -0.027293187 0.08063912
0.016690874 -0.033203866 -0.012127491 0.020080565 -0.019415611 0.03648771 0.09259789 -0.01548775
0.04084714 -0.0036043203 -0.004385988 -0.048786163 -0.012740824 0.054380056 0.05406716 -0.018202618
0.0020143513 0.0008459054 -0.041508943 0.014094284 -0.0033405337 0.012694727 0.09430742 0.012231446
-0.031593923 -0.050426483 0.051947914 -0.08785779 0.01484571 -0.07846483 -0.012034391 -0.04822948
0.0061918567 0.041818168 -0.0026462467 -0.037632708 0.1412453 0.02397489 -0.02556256 0.0078095035
-0.03093893 -0.04039745 -0.052717123 -0.08394559 0.10801736 0.018629337 0.05019638 0.0073510376
0.0010616385 0.039277498 -0.05280417 -0.041836653 -0.060148064 -0.035851344 0.063937835 0.05124959
-0.006257102 0.008345006 0.011964116 0.030196317 0.07192167 0.036074817 0.009001423 0.08945586
0.0362897 0.047680076 0.0953476 0.02091118 0.014304353 -0.05994595 -0.0063190307 -0.08836064
0.006713131 0.0050663296 -0.05329128 -0.14194837 -0.041047104 -0.056359723 0.017448956 -0.0042619836
0.043156944 -0.007962118 0.02383004 -0.009682739 -0.08296714 -0.03243144 0.0031343072 0.013137173
-0.004858117 -0.007327643 0.060664885 -0.0004767334 0.024536522 0.08987172 -0.099055484 0.038991947
0.039048515 -0.008537784 0.07405698 0.01275527 0.032459315 0.030077504 -0.026887741 -0.014784647
0.023619497 0.10362904 -0.058245413 -0.00081357424 0.060999643 0.027477145 0.0034677032 -0.054464582
-0.03109545 -0.07100388 0.0005927327 0.087250024 -0.019890161 -0.0066104643 0.012474067 0.03687138
-0.03652822 -0.02512405 -0.028808378 0.026013147 -0.08496427 -0.013066064 0.017853642 0.10889137
-0.03965631 0.046505827 0.022327226 0.016802423 0.015022534 -0.00029256725 -0.009336898 0.07865854
0.019791681 0.026215348 -0.039326843 0.009332754 0.018006839 0.019308902 -0.015661674 -0.00885903
0.008588747 0.0038887025 0.012305626 -0.006000828 0.044828676 -0.104401566 0.01237918 0.026446298
-0.007823728 0.008807409 0.028793858 0.0075189495 0.053958274 -0.0018471183 0.019196091 0.06570272
-0.008238492 -0.04945368 0.03251151 -0.019263929 -0.01589813 -0.052942976 -0.020540185 0.0041236766
-0.048864435 -0.021437451 -0.036714796 -0.15497102 -0.031393107 0.06308154 0.11663646 -0.07753789
0.14153768 0.04596058 -0.027608216 0.036720727 0.090465516 -0.03945803 0.04264457 -0.073346145

actor.6.bias f4 [12]
00000000: 5f36 bebd d8a2 7cbe 1a4c 603d e18c e63c
00000010: 4652 923d ce1d 86bd 428b dc3c 0986 37bc
00000020: 208b 053d 4a05 c7bc b8ac 843d 73ea e9bd
-0.09287714 -0.24671495 0.054760076 0.028143348 0.07144599 -0.065486535 0.026921872 -0.01120139
0.032603383 -0.024294514 0.06478256 -0.11421671

critic.0.weight f4 [128, 48]
00000000: bdad bc3e 9fa2 39bd 8e15 f4bd 04c4 04bc
00000010: d0fe 1d3d e5d1 3cbe b9d0 7b3e 1c53 19be
00000020: 4cef aa3d 12d7 f3be 59a5 37bf 64fd b1be
00000030: 0a8d d83d ba6b edbb becd f63d 94c1 30bd
00000040: cdd1 39bd 8a53 87bd 478a 1c3e 9763 753d
00000050: 4b36 8f3d ff29 06be 1b87 5cbd 1b2a 093d
00000060: 69c4 9c3d 41ef 97bc 1ad1 52bd 0a2f f13a
00000070: c382 553c 3aad 02bc e0b6 363d 0c50 ac3c
00000080: 6171 70bc c839 fe3c 1c7e 303d 50c0 a13b
00000090: cf0e 69bd df5b c4bc 2a88 b3bc 06d0 1fbd
000000a0: a05c d43b 2624 ffbc a8e8 963c aac1 403d
000000b0: afb5 33bb 6372 8abd 883e 003d c249 b3bc
000000c0: 780f 6bbe b8dc 31be d4f7 23be fe60 aa3d
000000d0: 7abb 723d c572 193d 5b94 863f 6a04 6ebf
000000e0: 4914 d13b e982 a23e 9222 de3d 6a56 ecbd
000000f0: f467 493d eea1 813e b18e 8e3d 61ac f4bc
00000100: 54d3 2b3e 246b 39bd fff1 9a3e 878d 9b3d
00000110: 177b eb3d d493 3e3e 3a45 023f bbd3 fbbc
00000120: 9440 a73d 01ea a5bd 794e b3bc 4986 883d
00000130: 406d 903d ee03 a1bb c816 593d c4d2 c3bd
00000140: 66b3 b43c 6281 84bb 9ce5 5b3d 61d5 67bc
00000150: 06fc 53bc cefd a93c f665 be3c 5af8 153e
00000160: 7f4d 4ebd 6e0a c3bd d6ea 71bd d942 013d
00000170: 29b9 0f3c eed4 483d 9a28 63bd 3b2e 5f3d
00000180: 1e8c 95bd 65c7 3d3e 4138 0a3d f760 f2bd
00000190: 4afa 22be 068d 5f3e 33f5 02bf 4c82 ac3f
000001a0: f5a5 3e3e 5d5d 4b3e 4c01 a7bd c8d9 64be
000001b0: 9985 bbbd d8d6 61be f06e 1cbe 2c3b 88be
000001c0: 1f09 0e3e cea7 8ebe 8f76 e93d 23e3 633d
000001d0: 0196 2e3e 4694 28be f585 6abe 8ac8 853d
000001e0: 5301 a3bc a913 20bd 2182 a23c 53b2 01bd
000001f0: 18bf 28bc 8769 11bd 2b22 49bc 2d0f 0a3c
00000200: aa81 0a3c d8d6 06bc 80cf 03bd 96e0 ba3c
00000210: 2d8f 493d 536d 7d3c b4cd fc3c 9267 a23d
00000220: bc03 c93d 6f47 aa3c 5de5 d4bb 1a1a 58bd
00000230: fdc5 8f3c d587 20bc aedd afbb 3495 98bd
00000240: de95 84be df90 a4be 8621 88bb 6e6b 35bc
00000250: a1aa 113c 9077 fdbd c291 d4bf 2f1a e3be
00000260: d330 0fbd 6794 a43d f0e0 dc3e 8183 ad3e
00000270: a488 5d3e b724 ea3c f4da cebc 0b98 16bd
00000280: f408 f7bc 9eb1 39be 468c a03d e090 103e
00000290: 4b71 a0be 5827 b13c d7a8 80be 873a d6bd
000002a0: 83a8 a03d 9397 7fbd 0ec4 5ebd 1c5e 243d
000002b0: 9c2d 3b3c d5b0 16bd 0cf0 123c 93b1 d83c
000002c0: 5818 0e3a f3db 10bd 8245 833c 1a55 533c
000002d0: 19f6 8dbd 0408 8a3d d7b4 b53d 0d5b 303d
000002e0: 3bdf 90bd 8471 85bb 064c ce3d 7bbb 663d
000002f0: 3df3 063e aba2 99bd ce3e 16be e199 273c
00000300: 71af 86be b421 cfbe 865a 093e 188a 19be
00000310: 2296 3d3c c7d6 16bd 3440 103f 0a19 21bf
00000320: 4c3c 7cbd 9ba9 f73c 5782 90be 255f d4be
00000330: fd76 f8bc 74ce 083e c754 ab3d e0a7 473d
00000340: e619 0b3e 5dd2 82bd aa01 04bd d006 66be
00000350: 9b22 50bd fc30 36bd e239 0cbd 937f 47be
00000360: 8cc4 b8bd bee8 933d a2a3 31bd bada 8ebc
00000370: c5f5 3b3d 94bf 183d b0db c2bd 2e02 84bd
00000380: 860d 23bd 04c0 973b 7f79 ecbc 2370 b93c
00000390: 0e57 e43d c5b0 28bd 14db a7bd cc15 a43c
000003a0: 1573 c73b 306f 963c 12b9 b6bd 42f1 92bd
000003b0: c74a d7bb fc2b 5d3d 23dd 1cbe 13b1 ccbd
000003c0: 9ebe 97be 439e bdbd 0d19 e63b e803 2e3d
000003d0: 405f aabc 4e99 f23d c9ca dfbe e46a 1abf
000003e0: fe49 793d a26c 6c3e 4b1c 343d 7efe e13d
000003f0: eb2f 1fbe a829 433d a755 683d ad5e 1c3e
0.36851302 -0.045321103 -0.11918174 -0.008103374 0.038573086 -0.18439443 0.2459134 -0.1497311
0.083464235 -0.47625023 -0.71736676 -0.34763634 0.10573776 -0.007245508 0.12050961 -0.04315336
-0.045366097 -0.06607731 0.15287124 0.05990943 0.069927774 -0.13101958 -0.053839784 0.03348742
0.0765465 -0.018546702 -0.051468946 0.001840086 0.013031664 -0.007975871 0.044607997 0.021034263
-0.014675469 0.031033412 0.043089017 0.0049362555 -0.05689889 -0.023969589 -0.021915514 -0.039016746
0.0064807683 -0.031145167 0.018421486 0.047059692 -0.0027421524 -0.06760099 0.031309634 -0.021885756
-0.2295512 -0.17369354 -0.16012508 0.08319281 0.059260823 0.03746297 1.0514024 -0.92975485
0.006380592 0.31740502 0.108464375 -0.1153992 0.049171403 0.25318855 0.0696081 -0.029867353
0.16779834 -0.045268193 0.30262753 0.075953536 0.11498087 0.1861108 0.5088688 -0.03074061
0.08166614 -0.08101273 -0.021888005 0.06666238 0.07052088 -0.0049137985 0.05300024 -0.09561685
0.0220582 -0.004043744 0.05368577 -0.014149995 -0.012938505 0.020750906 0.023241978 0.1464552
-0.050366875 -0.09523474 -0.059061848 0.03155789 0.008772173 0.04903119 -0.055458643 0.05448745
-0.07302116 0.18533094 0.033745054 -0.11834901 -0.1591579 0.2183114 -0.51155394 1.3477263
0.18617995 0.19859834 -0.08154544 -0.22348702 -0.09156341 -0.22054613 -0.15276694 -0.26607645
0.13870667 -0.278624 0.113995664 0.055636536 0.1704941 -0.16462812 -0.22902663 0.065323904
-0.019898092 -0.03908125 0.01983744 -0.031664204 -0.010299467 -0.03550103 -0.012276213 0.00842647
0.008453766 -0.008229934 -0.03218031 0.022812169 0.04920881 0.015467959 0.030859806 0.07929911
0.098151654 0.020786015 -0.006497069 -0.052759267 0.017550463 -0.00979801 -0.0053670024 -0.07450333
-0.2589559 -0.32141778 -0.004154387 -0.0110729765 0.008890779 -0.1237632 -1.6606982 -0.44355914
-0.03495867 0.08036118 0.43140364 0.33889392 0.21634156 0.02858196 -0.02525089 -0.036766093
-0.030155636 -0.18134162 0.07839255 0.14117765 -0.31336436 0.021625206 -0.25128815 -0.10460382
0.07844641 -0.06240041 -0.05438619 0.040128812 0.011424448 -0.036789734 0.008968364 0.026451861
0.00054204976 -0.03536601 0.016024355 0.012898708 -0.06931705 0.0673981 0.08872383 0.043055583
-0.07073828 -0.00407237 0.10073094 0.05633114 0.13178726 -0.075017296 -0.14672396 0.010229559
-0.26305726 -0.404554 0.13413438 -0.14994085 0.011571439 -0.03682592 0.56347966 -0.6292883
-0.06158094 0.030232241 -0.2822444 -0.4147884 -0.030330176 0.13360006 0.08365779 0.048744082
0.13584098 -0.0638778 -0.03222815 -0.22463536 -0.050814252 -0.04448031 -0.03423489 -0.1948226
-0.09021863 0.072221264 -0.043368943 -0.017438281 0.04588868 0.03729208 -0.09514558 -0.06445728
-0.03980782 0.0046310443 -0.028866528 0.022636479 0.11149417 -0.041184206 -0.08196083 0.020029925
0.006086717 0.018363565 -0.08922018 -0.071749225 -0.0065701935 0.053997025 -0.15318732 -0.09994712
-0.29637617 -0.09258702 0.0070220293 0.042484194 -0.020797372 0.11845647 -0.437094 -0.6031935
0.06086158 0.23088315 0.043972295 0.11034869 -0.15545623 0.04764715 0.05672231 0.15270491

critic.0.bias f4 [128]
00000000: 6191 15bd 9deb 573e 9fba 84bd 0357 17be
00000010: f113 913d d224 c73d aa58 46bd adb2 2a3e
00000020: e631 2e3e 6d5f 29bd b777 cd3d cfbf a9be
00000030: c0c8 12be db2d 3cbe 7b79 02bd 711b 13be
00000040: 0b8d 24be b63b 303d 5bc0 1ebe bb4e 54bd
00000050: c2df 04be ecbe 08be ec48 c3bd a773 91bd
00000060: df29 03be 8487 a33d dccc 33be be55 dbbd
00000070: 72ef 283e 7d0e 6eba b386 023d 7069 bc3d
00000080: a90c 313b 016a 2fbe c94b 5fbe f369 1abe
00000090: 1896 4dbe 59f2 233c 9abb 413e b0c1 713c
000000a0: 159a 1cbe 109d c6bc 4567 74be 6bb5 ecbb
000000b0: d994 96be 3d18 41be f63b 34bd 5030 ba3b
000000c0: 5178 34be a6b6 bb3c 968a 093d 0881 303c
000000d0: 9d3c c53c 225c 09bc 074d 04be ae05 4b3e
000000e0: 6dc4 0abc 45fd 56be 3f84 04be a6b9 513d
000000f0: 60cd 2dbd 117d a8bd e246 3d3d 01af c6bd
00000100: 26fb 123e 456d 683e f97f 943c 675e 3a3e
00000110: 8aa8 813d 26c6 103e 0542 a0bd 6bf6 f5bd
00000120: 2ed5 1bbe aefe 71bd d682 57bb f765 eebc
00000130: 069b f6bc 9502 643e 1d5c 8e3d 39ea 1dbe
00000140: c2fb 233e 8584 27be 5e98 cbba 8629 c9bb
00000150: 1319 4b3e 76da bd3b 93a6 10be e86e 2d3e
00000160: 5d92 a13c da50 0abe 3d3a a23c 25a1 f3bd
00000170: aa93 44be 152d 9ebd fbb1 21be 2afd 06be
00000180: b833 033e dc9e 763d da59 153e b3d6 5d3d
00000190: 12ca 91bd f7dd a03c 06af 363e bc8a 08be
000001a0: a5e2 4a3d 0615 93bd a559 0f3d 6d70 9fbd
000001b0: f128 bb3d 7483 6c3e 93b5 9a3d ffda bcbd
000001c0: ea2c 29be 541e 12bd e97e 5abd 0609 913d
000001d0: 994d 1abe bb54 24be b712 ccbd d0cf 87be
000001e0: df36 d33c 2c2c 423e 11f8 f0bc 3627 4a3d
000001f0: 68b2 be3d b906 743d dd78 45be 7c72 ba3c
-0.036515597 0.21085973 -0.06480908 -0.14779286 0.07083882 0.0972382 -0.0484244 0.16669722
0.17011222 -0.04135077 0.100325994 -0.3315415 -0.14334393 -0.18376867 -0.031854134 -0.14365937
-0.16069429 0.043025695 -0.15503065 -0.051832896 -0.12975982 -0.13354081 -0.09535393 -0.07102137
-0.12808941 0.07984832 -0.17558616 -0.107097134 0.16497591 -0.00090811384 0.03186674 0.09199798
0.0027015603 -0.17130281 -0.21806253 -0.15079479 -0.20076787 0.010006511 0.1891922 0.014755651
-0.15293153 -0.024244815 -0.23867519 -0.007223775 -0.29410437 -0.18856902 -0.044002496 0.005682029
-0.17624022 0.022914242 0.03357943 0.010772951 0.024076754 -0.008383783 -0.12920009 0.19826385
-0.008469683 -0.20995052 -0.12941073 0.05120244 -0.04243219 -0.082269795 0.046210177 -0.09701348
0.14353618 0.22697933 0.018127428 0.18200074 0.063309744 0.14138088 -0.07825092 -0.12009891
-0.1521804 -0.059080772 -0.003288438 -0.029101355 -0.030103218 0.2226661 0.06951163 -0.1542138
0.16014007 -0.16359146 -0.001553308 -0.006138983 0.19833784 0.005793865 -0.14126043 0.16936839
0.019723112 -0.13507405 0.01980316 -0.1189597 -0.19196954 -0.077234425 -0.1579055 -0.13182512
0.12812698 0.060210094 0.14585057 0.05415983 -0.0711862 0.019637091 0.17840204 -0.13334173
0.04953255 -0.07181744 0.0349976 -0.077851154 0.09138668 0.2309702 0.07554164 -0.09221458
-0.1652104 -0.035673454 -0.053343687 0.07081799 -0.15068664 -0.16047947 -0.09964507 -0.26525736
0.025783 0.18962163 -0.029415162 0.0493538 0.09311372 0.059576724 -0.19284387 0.022759669
