logs/rsl_rl/anymal_c_flat_direct/2025-04-24_12-25-01/model_499.pt (torch, 983322 bytes, 48 tensors)

std f4 [12]
0.102228634 0.10353594 0.101682045 0.10375755 0.12568937 0.12841819 0.12785779 0.13429117
0.0789823 0.090655 0.07441062 0.08163909
00000000: 3f5d d13d a70a d43d ad3e d03d d77e d43d
00000010: b7b4 003e 0f80 033e 27ed 023e a083 093e
00000020: 79c1 a13d 54a9 b93d 9864 983d 6532 a73d

actor.0.weight f4 [128, 48]
0.22619246 -0.038051177 -0.16823095 -0.1312654 0.34913573 -0.35003787 0.30200633 0.06964424
0.11617978 -0.03237518 0.3744178 0.25993878 0.038581945 -0.28298917 -0.3143684 -0.5717335
-0.11999592 0.20932421 -0.005424859 -0.19363715 0.0020111513 0.33423445 0.40254828 -0.049180828
-0.04735467 0.04547231 0.04871814 -0.035157748 0.07011976 0.17791554 -0.060630046 -0.0068061375
0.05894684 0.039627228 -0.06630895 -0.008675256 0.039387103 -0.22295043 0.22723308 -0.13960242
0.002608223 -0.16503532 0.1588762 -0.114064924 -0.18443462 -0.18051225 0.13636395 0.12064298
-0.50446606 -0.43853694 0.13086656 -0.107646786 -0.19100973 0.045428596 -0.07097265 0.3597854
0.18299766 -0.13873917 0.5008436 -0.312235 0.077209234 -0.014371445 0.06474257 -0.16553807
-0.10838371 -0.109011754 -0.350617 0.0668038 0.017775204 0.10597161 -0.0008858366 0.23338205
0.035262424 0.011628334 -0.024549752 -0.05911835 -0.030098086 -0.018385535 -0.084128 -0.090407595
-0.02759575 -0.02763077 -0.005463794 0.017282167 -0.024448635 0.096019596 -0.016448228 -0.04384269
-0.0017440472 -0.007422911 -0.0025008067 -0.12562867 -0.2148315 -0.14293173 0.030699266 -0.17635205
-0.13316792 -0.058447644 0.23096338 0.07477232 0.14088823 -0.2690695 -0.28897017 -0.9519961
0.14887741 0.36909902 0.0018199357 0.33483598 0.32335463 0.07761533 0.12119445 0.31077024
-0.05921757 -0.33019137 0.22083448 0.40099433 0.22034632 -0.0032250122 -0.07936905 0.092796184
-0.077581376 0.06216371 -0.009446871 0.0016759534 -0.09104223 -0.09095116 0.009750374 0.06671037
-0.015909176 0.053550888 0.030608078 -0.0035178976 0.15758477 0.15190881 0.14746006 -0.08676143
0.069394045 -0.18703689 -0.035854623 -0.13137302 -0.22384636 -0.025974834 -0.12943739 -0.16758703
-0.21043232 0.3005492 0.45152006 0.20673002 -0.113154836 0.073525414 0.14636451 0.41103607
0.0070141903 -0.15029061 -0.10114004 0.36754438 -0.29484996 0.34615216 0.20338926 0.12333698
0.12857553 -0.2147656 0.22015162 -0.57189626 0.081391186 0.056352917 0.7085013 -0.23603031
0.14903016 -0.05055712 0.11826457 -0.08449162 0.03725766 -0.06906332 0.070975676 0.030140178
-0.020183431 -0.021013087 0.11739012 0.023328546 0.15224257 -0.13201639 -0.027914865 -0.18948568
-0.0568617 -0.02243547 0.2821264 -0.15726572 -0.054117367 -0.1685821 -0.37261143 -0.022365825
0.30011883 -0.051726334 -0.20328686 -0.20262049 0.2299081 0.20730816 0.67137915 0.53891397
0.091018625 0.21315888 -0.31155446 0.0011750851 -0.22118299 -0.11381421 -0.20623781 -0.4607765
-0.21269295 -0.17840204 0.25604203 0.0019448758 0.26812607 -0.31205717 0.01856241 -0.18926881
0.042498708 -0.06001827 0.046111993 -0.15215072 0.055100847 0.053465143 -0.10738059 0.053838637
0.042777434 -0.01125226 -0.057743788 0.020429233 0.14080113 0.21861899 -0.0947354 -0.21545137
-0.106147796 0.06992387 0.01241768 0.07460687 -0.11999525 -0.22108772 0.066293314 0.4043854
-0.15165529 0.104223534 -0.3555585 0.20268857 -0.04491941 0.29927343 0.046386186 -0.14193985
-0.028864587 0.047818623 -0.38204262 0.035276264 0.24664637 0.613645 -0.10351267 0.040710382
00000000: ff9e 673e 8ddb 1bbd bc44 2cbe 706a 06be
00000010: ebc1 b23e 2a38 b3be 93a0 9a3e a4a1 8e3d
00000020: aaef ed3d d69b 04bd b1b3 bf3e b216 853e
00000030: 1a08 1e3d f5e3 90be e5f4 a0be 205d 12bf
00000040: 6cc0 f5bd 1659 563e 04c3 b1bb d148 46be
00000050: 85cd 033b c720 ab3e cf1a ce3e d671 49bd
00000060: f8f6 41bd 2c41 3a3d ac8c 473d 9201 10bd
00000070: f39a 8f3d 7e2f 363e 3657 78bd 0506 dfbb
00000080: 3e72 713d 2950 223d fdcc 87bd a922 0ebc
00000090: 5f54 213d 1e4d 64be caaf 683e f0f3 0ebe
000000a0: b8ee 2a3b 05ff 28be 71b0 223e df9a e9bd
000000b0: 6edc 3cbe 34d8 38be fea2 0b3e ab13 f73d
000000c0: b024 01bf ea87 e0be e201 063e eb75 dcbd
000000d0: 0e98 43be 5613 3a3d 1c5a 91bd cb35 b83e
000000e0: bd63 3b3e a411 0ebe 4937 003f 44dd 9fbe
000000f0: e01f 9e3d 3676 6bbc c197 843d d082 29be
00000100: 47f8 ddbd 8e41 dfbd 1284 b3be 6ed0 883d
00000110: 4e9d 913c a507 d93d 7d37 68ba b4fb 6e3e
00000120: 556f 103d c584 3e3c 901c c9bc 1526 72bd
00000130: 4390 f6bc 439d 96bc 4d4b acbd 9e27 b9bd
00000140: 7b10 e2bc ed59 e2bc a009 b3bb 5593 8d3c
00000150: 8148 c8bc eca5 c43d 6fbe 86bc 6494 33bd
00000160: 8398 e4ba e43b f3bb 93e4 23bb cda4 00be
00000170: cafc 5bbe b25c 12be 077d fb3c a295 34be
00000180: 2c5d 08be cc66 6fbd aa81 6c3e 3b22 993d
00000190: 0145 103e 7ac3 89be e6f3 93be 04b6 73bf
000001a0: 5273 183e 8cfa bc3e e98a ee3a 9f6f ab3e
000001b0: bd8e a53e c9f4 9e3d cc34 f83d 471d 9f3e
000001c0: 1f8e 72bd d80e a9be 6f22 623e 214f cd3e
000001d0: 77a2 613e ba5a 53bb 3e8c a2bd ed0b be3d
000001e0: fce2 9ebd 609f 7e3d 0cc7 1abc aaab db3a
000001f0: 5974 babd 9a44 babd 08c0 1f3c 729f 883d
00000200: f653 82bc 2d58 5b3d cbbd fa3c 878c 66bb
00000210: e75d 213e fc8d 1b3e c5ff 163e faaf b1bd
00000220: 771e 8e3d 9986 3fbe 4cdc 12bd a686 06be
00000230: fb37 65be 2dc9 d4bc 3c8b 04be ef9b 2bbe
00000240: 927b 57be 96e1 993e a32d e73e 09b1 533e
00000250: b9bd e7bd 7e94 963d 94e0 153e 5273 d23e
00000260: 4bd7 e53b c8e5 19be 8222 cfbd c72e bc3e
00000270: 93f6 96be db3a b13e 4645 503e 1998 fc3d
00000280: 4ea9 033e 83eb 5bbe 6d6f 613e cb67 12bf
00000290: 6cb0 a63d 51d2 663d 5760 353f eeb1 71be
000002a0: 5d9b 183e fc14 4fbd b234 f23d f109 adbd
000002b0: 7d9b 183d 1271 8dbd b25b 913d 89e8 f63c
000002c0: b957 a5bc a323 acbc 3b6a f03d 821b bf3c
000002d0: 7ae5 1b3e 4e2f 07be b7ad e4bc 8908 42be
000002e0: d0e7 68bd 97ca b7bc df72 903e 440a 21be
000002f0: 2caa 5dbd c9a0 2cbe edc6 bebe 8938 b7bc
00000300: 2da9 993e fede 53bd 6e2a 50be bf7b 4fbe
00000310: 076d 6b3e 9748 543e 81df 2b3f 44f6 093f
00000320: f967 ba3d 5246 5a3e 1184 9fbe 5005 9a3a
00000330: cb7d 62be 6d17 e9bd 0130 53be e6ea ebbe
00000340: 2ecc 59be 06af 36be f117 833e 34eb fe3a
00000350: d247 893e f5c5 9fbe 3210 983c afcf 41be
00000360: 2013 2e3d b8d5 75bd eedf 3c3d 66cd 1bbe
00000370: 6db1 613d 44fe 5a3d 5bea dbbd e785 5c3d
00000380: 6437 2f3d 665b 38bc c084 6cbd 355b a73c
00000390: 2c2e 103e a8dd 5f3e a204 c2bd 499f 5cbe
000003a0: 0464 d9bd 3f34 8f3d 8673 4b3c 7dcb 983d
000003b0: 12c0 f5bd d264 62be cac4 873d 9a0b cf3e
000003c0: 864b 1bbe 2673 d53d c40b b6be 988d 4f3e
000003d0: 6afd 37bd 5e3a 993e 71ff 3d3d ae58 11be
000003e0: 6d75 ecbc 76dd 433d 179b c3be d87d 103d
000003f0: de90 7c3e d717 1d3f 73fe d3bd eebf 263d

actor.0.bias f4 [128]
-0.20027311 -0.117441684 0.084194876 0.008608648 0.15023732 0.072813824 -0.07234173 0.03935393
0.010677109 0.038882133 -0.05876238 0.012190441 -0.063312955 -0.07680804 -0.034986358 -0.029945094
0.058966972 -0.1120675 -0.01931911 -0.03691649 -0.03452808 0.04950918 -0.088311225 -0.25105307
-0.0882006 -0.05638553 0.038375944 0.03255531 -0.12097065 0.013986049 0.0057428223 -0.010360814
0.185434 0.11101882 -0.009201044 0.04366638 0.056102674 -0.054948635 -0.12244664 -0.08930997
0.02756091 -0.03184254 0.058363933 0.08138763 -0.03651201 0.04524319 -0.04960706 0.0910686
-0.18598375 0.08519247 -0.012885371 -0.0724432 0.077559784 0.03792941 -0.13886495 -0.025833275
0.029611506 -0.19400012 0.03701011 -0.03332791 -0.06453437 0.049292378 -0.2244061 0.10748194
-0.22979379 -0.1630456 -0.097814746 -0.22303677 -0.11111844 0.0038025738 -0.037285756 -0.047829382
0.0053767404 -0.031030644 0.0042222016 0.026987012 0.12487804 -0.10503591 -0.11304496 -0.059166703
-0.032065358 -0.010493173 0.075431 -0.08000641 -0.17352639 -0.14334385 0.06571178 -0.0395299
0.030589947 0.13165854 -0.058638204 -0.08048615 -0.08086789 -0.020627836 -0.027994877 0.06805835
-0.19028127 -0.1138495 -0.14739354 -0.06025803 0.00995213 -0.03838821 -0.078415245 0.18114948
0.06554866 -0.060040843 -0.09526985 0.08389533 0.12210385 -0.12697282 0.053598184 -0.08896589
0.1411562 -0.145329 -0.14661394 -0.00422172 -0.11612949 -0.167793 0.0051420946 -0.04363698
0.17713842 0.019972354 -0.06295664 -0.008437286 -0.0024081343 -0.08089624 0.007920945 0.030225836
00000000: 6514 4dbe 4485 f0bd 5d6e ac3d 490b 0d3c
00000010: d0d7 193e 6a1f 953d e727 94bd 9631 213d
00000020: 0aef 2e3c df42 1f3d d2b0 70bd 6aba 473c
00000030: 39aa 81bd 894d 9dbd db4d 0fbd 6a4f f5bc
00000040: 5a87 713d a583 e5bd 1c43 9ebc bf35 17bd
00000050: 516d 0dbd 23ca 4a3d 84dc b4bd 078a 80be
00000060: 84a2 b4bd 83f4 66bd 1830 1d3d b758 053d
00000070: 76bf f7bd be25 653c 492e bc3b 67c0 29bc
00000080: 69e2 3d3e d65d e33d fabf 16bc 85db 323d
00000090: ebcb 653d d211 61bd 4ec5 fabd 25e8 b6bd
000000a0: 6bc7 e13c 536d 02bd 050f 6f3d 8fae a63d
000000b0: 9e8d 15bd ec50 393d c630 4bbd 2d82 ba3d
000000c0: 8672 3ebe 6479 ae3d 2a1d 53bc 1a5d 94bd
000000d0: aad7 9e3d de5b 1b3d 9d32 0ebe 4ea0 d3bc
000000e0: d493 f23c f8a7 46be ea97 173d d982 08bd
000000f0: 992a 84bd cee6 493d b6ca 65be 7e1f dc3d
00000100: 104f 6bbe 6df5 26be 1953 c8bd c063 64be
00000110: 1192 e3bd 9a34 793b f3b8 18bd bee8 43bd
00000120: 5e2f b03b fa33 febc 655a 8a3b de13 dd3c
00000130: 0fc0 ff3d 111d d7bd 1e84 e7bd c958 72bd
00000140: f756 03bd 8feb 2bbc 917b 9a3d 67da a3bd
00000150: e7b0 31be bbc8 12be e693 863d 1bea 21bd
00000160: c597 fa3c 7fd1 063e 9d2e 70bd ecd5 a4bd
00000170: 109e a5bd b5fb a8bc 8355 e5bc 2d62 8b3d
00000180: 18d9 42be ed29 e9bd 55ee 16be 20d1 76bd
00000190: 420e 233c f53c 1dbd 2c98 a0bd 407f 393e
000001a0: 603e 863d 63ed 75bd d71c c3bd 51d1 ab3d
000001b0: 9511 fa3d 2a05 02be c589 5b3d c033 b6bd
000001c0: 408b 103e 20d1 14be f721 16be 5b56 8abb
000001d0: 4cd5 edbd eed1 2bbe 047f a83b b1bc 32bd
000001e0: c663 353e 109d a33c 69ef 80bd 8b3c 0abc
000001f0: cad1 1dbb eeac a5bd dac6 013c 2c9c f73c

actor.2.weight f4 [128, 128]
0.12938192 0.113165274 0.07080653 -0.056546252 0.111900456 -0.028053332 -0.01375006 0.07398438
0.08830703 -0.15360409 0.21623829 0.08281482 -0.08897997 -0.027078837 0.12446626 0.093654536
0.020797076 0.080845535 -0.007581331 -0.018474815 -0.08166082 0.044740353 -0.13761592 0.19325133
0.043086607 0.07660506 0.05952856 0.023472134 -0.08723446 -0.02017536 -0.059895724 0.08010573
-0.14238277 0.027235148 0.028026331 -0.08017552 0.015298508 0.09195102 -0.005445834 0.05552245
0.002982206 -0.018873416 0.12184283 0.09700349 0.06471825 -0.16953649 -0.089223474 -0.05943773
-0.022658225 -0.019721031 0.020403361 -0.0068616653 -0.008660065 -0.09806991 0.022346435 -0.08339476
-0.10297551 0.09193451 0.013124674 0.05629103 -0.2077326 -0.11761194 0.12899989 -0.11258453
0.097940676 0.16063176 -0.12483467 0.07117719 0.10223191 0.06901475 -0.03704142 -0.061242495
0.028889986 -0.124097966 0.07591019 0.097894065 0.007812326 -0.073258154 -0.11898439 0.049430657
-0.1457669 0.12175364 -0.08778899 0.14809008 0.021283839 -0.09052014 0.040938802 0.08342782
0.086369365 0.031619094 -0.051501438 -0.07557632 0.06376613 -0.005576069 0.035060074 0.17044353
-0.05990656 -0.049287885 0.11178275 -0.040554248 0.042242307 0.06490386 -0.08123277 0.006137219
0.013962381 -0.04142036 0.05080898 0.049688686 -0.02323869 0.17769623 0.065648675 0.13931027
-0.044089146 0.04652562 -0.18442652 -0.045277644 0.19831575 -0.060257956 -0.017615443 0.1783213
0.0007374443 -0.08797815 0.14449123 -0.25421008 0.14642915 -0.06906217 -0.04447791 0.026245965
0.13814078 0.034155097 -0.0338349 -0.003881771 0.13007064 0.08623296 0.0016967485 0.114991516
-0.13538283 0.055875696 -0.08836656 -0.14670157 0.048839115 -0.078663036 -0.12066251 0.054638162
0.0714457 -0.120470636 -0.05140632 0.098291956 -0.07260451 -0.2367215 0.12741391 -0.0881628
0.044294517 -0.090920344 0.03865501 -0.12646636 -0.0020310893 -0.15503335 -0.029218085 -0.0047564902
0.18873459 0.02755612 -0.1142166 -0.25924137 0.010524053 0.054739587 -0.07133721 0.0042223297
0.028941875 -0.10651657 0.10797491 0.0833867 0.062203366 -0.1889494 -0.09366718 0.027832568
-0.10281689 -0.011870012 0.051109646 -0.0032024162 -0.10178269 -0.0064822016 0.09587226 -0.043395884
0.13000922 -0.05669887 -0.15022723 0.035058677 0.00063871115 0.044534087 -0.0069309524 0.07122423
0.07989251 -0.10088463 -0.041124325 -0.101957336 -0.012291084 -0.041795425 0.055853076 -0.011853514
-0.06379022 0.10268563 -0.09660323 -0.101614356 -0.10045515 0.05971497 0.0978107 -0.066676274
0.016535863 -0.03657717 0.12582211 -0.11878073 -0.10091113 0.028319582 -0.046658438 0.0902839
-0.10859334 0.12527357 0.08741599 0.16788806 0.038410176 -0.1122137 -0.016341152 0.052506335
-0.016431246 -0.13519678 0.12608244 -0.032767594 0.09291512 -0.06866734 -0.04547493 0.089687236
-0.08311086 -0.06915508 -0.113311 -0.104019366 -0.021657573 -0.11385715 0.026271721 0.09812024
0.05929687 -0.051910285 -0.024169382 0.060049936 -0.13541795 -0.014447338 -0.0064044893 0.026732538
0.034542903 -0.1198484 -0.023797523 -0.13511397 -0.1073691 -0.12658533 -0.07138619 0.028695058
00000000: b27c 043e 32c3 e73d 0403 913d 0b9d 67bd
00000010: 112c e53d 1ad0 e5bc ef47 61bc 1f85 973d
00000020: 51da b43d 644a 1dbe 926d 5d3e d19a a93d
00000030: 213b b6bd 70d4 ddbc 2be8 fe3d f3cd bf3d
00000040: a15e aa3c 5892 a53d d06c f8bb 7f58 97bc
00000050: ca3d a7bd a941 373d 30eb 0cbe ade3 453e
00000060: 957b 303d 1de3 9c3d 38d4 733d a248 c03c
00000070: fba7 b2bd cc46 a5bc 3855 75bd 790e a43d
00000080: cacc 11be 3f1c df3c 7a97 e53c 1033 a4bd
00000090: 98a6 7a3c d150 bc3d f772 b2bb 826b 633d
000000a0: 1d71 433b 6c9c 9abc bc88 f93d c4a9 c63d
000000b0: 008b 843d f99a 2dbe ccba b6bd fa74 73bd
000000c0: be9d b9bc 008e a1bc f324 a73c d2d7 e0bb
000000d0: f2e2 0dbc e1d8 c8bd df0f b73c dfca aabd
000000e0: d3e4 d2bd 2948 bc3d df08 573c 6c91 663d
000000f0: dbb7 54be 87de f0bd 8c18 043e b892 e6bd
00000100: 1f95 c83d a77c 243e 52a9 ffbd 59c5 913d
00000110: f75e d13d 9b57 8d3d beb8 17bd 69d9 7abd
00000120: b1aa ec3c 1327 febd cd76 9b3d af7c c83d
00000130: 8afe ff3b 5f08 96bd 16ae f3bd cd77 4a3d
00000140: eb43 15be f959 f93d b7ca b3bd eda4 173e
00000150: 725b ae3c a062 b9bd 72af 273d 34dc aa3d
00000160: 6ce2 b03d 0683 013d 2cf3 52bd c2c7 9abd
00000170: d197 823d 75b7 b6bb 279b 0f3d c088 2e3e
00000180: 9560 75bd 18e2 49bd 5bee e43d 361c 26bd
00000190: 4506 2d3d 51ec 843d 5e5d a6bd b91a c93b
000001a0: 78c2 643c 65a8 29bd 141d 503d 5d86 4b3d
000001b0: 115f bebc 00f6 353e d072 863d 5aa7 0e3e
000001c0: d296 34bd a691 3e3d 4eda 3cbe 0d75 39bd
000001d0: 4913 4b3e 0cd1 76bd 434e 90bc dc99 363e
000001e0: 0d51 413a e32d b4bd 82f5 133e d327 82be
000001f0: 86f1 153e 7870 8dbd 782e 36bd c701 d73c
00000200: c774 0d3e 37e6 0b3d 7796 0abd 4f65 7ebb
00000210: 3d31 053e e89a b03d 6f65 de3a ac80 eb3d
00000220: cca1 0abe eadd 643d 87f9 b4bd f038 16be
00000230: 860b 483d 161a a1bd e81d f7bd 44cc 5f3d
00000240: 2052 923d 4fb9 f6bd 6f8f 52bd 4b4d c93d
00000250: acb1 94bd 1f67 72be cb78 023e b38e b4bd
00000260: 2b6e 353d 7234 babd b754 1e3d 6680 01be
00000270: 061c 05bb 10c1 1ebe c45a efbc 55dc 9bbb
00000280: a443 413e 5fbd e13c 65ea e9bd 49bb 84be
00000290: 146d 2c3c 9e36 603d 3e19 92bd 785b 8a3b
000002a0: 8317 ed3c 5c25 dabd f321 dd3d a5c6 aa3d
000002b0: f5c8 7e3d f47b 41be 94d4 bfbd 2001 e43c
000002c0: a991 d2bd 707a 42bc 5958 513d a1df 51bb
000002d0: 7173 d0bd a668 d4bb ad58 c43d e2bf 31bd
000002e0: 2321 053e 133d 68bd 2bd5 19be b099 0f3d
000002f0: 2e6f 273a 6069 363d 0b1d e3bb 02de 913d
00000300: af9e a33d 9a9c cebd fb71 28bd 02cf d0bd
00000310: 8b60 49bc ae31 2bbd 32c6 643d 3e35 42bc
00000320: 72a4 82bd d84c d23d ead7 c5bd 301b d0bd
00000330: 6ebb cdbd af97 743d fa50 c83d 928d 88bd
00000340: 3876 873c f1d1 15bd 83d7 003e 5043 f3bd
00000350: 7faa cebd 78fe e73c eb1c 3fbd c4e6 b83d
00000360: 2f66 debd b747 003e 2807 b33d d9ea 2b3e
00000370: fd53 1d3d 4cd0 e5bd e1dd 85bc e210 573d
00000380: d29a 86bc 0671 0abe c11b 013e 5037 06bd
00000390: 484a be3d 76a1 8cbd ec43 3abd f1ad b73d
000003a0: 0736 aabd 2ea1 8dbd 990f e8bd 1b08 d5bd
000003b0: 396b b1bc f02d e9bd cb37 d73c 44f3 c83d
000003c0: 46e1 723d e19f 54bd defe c5bc ecf6 753d
000003d0: 01ab 0abe 87b4 6cbc c0dc d1bb 32fe da3c
000003e0: dc7c 0d3d 1473 f5bd 06f3 c2bc 515b 0abe
000003f0: 55e4 dbbd 969f 01be ec32 92bd e611 eb3c

actor.2.bias f4 [128]
-0.16280788 0.006423753 -0.15216267 -0.10870275 0.023277499 -0.088344306 0.013358367 -0.09595331
-0.033657733 0.032689672 -0.15827067 -0.08808943 -0.046721242 -0.023651911 -0.076261856 -0.1126032
-0.1049724 -0.04184861 -0.01016812 -0.092864245 -0.012930403 -0.040180612 -0.039508514 -0.1239821
-0.10214989 -0.18326922 -0.08317747 -0.077791706 -0.013137771 -0.20709075 -0.037911937 0.003235551
0.0031205108 -0.112373225 0.0013552652 -0.15941146 -0.03828708 -0.05450577 0.06857249 -0.051912043
-0.17083968 0.007117292 -0.0065196753 -0.09389251 -0.11058538 -0.04007379 -0.04974237 -0.21264169
-0.045995064 -0.041977666 -0.08953208 -0.17243807 -0.12086298 -0.03815191 -0.0542851 -0.20131226
-0.028887317 -0.12790638 -0.08333648 -0.043521143 0.045980413 -0.06329052 0.06374083 0.052636404
0.0018179346 -0.1869549 -0.002842241 -0.114682086 -0.13320445 0.061552886 -0.016521273 0.08804463
-0.07390143 -0.034908447 -0.05937308 -0.047682878 0.11195254 -0.086963825 -0.027535992 -0.15995939
-0.042623665 0.05742701 -0.08436327 -0.11950204 0.018065736 -0.06804797 -0.0774828 -0.020537771
-0.020237094 -0.07087532 0.025210114 0.10282507 0.006444655 -0.00018048695 -0.0702338 -0.08703342
-0.09163356 -0.090341404 0.09252512 0.050533246 -0.16275361 -0.042569418 -0.04720689 0.01918378
-0.10552719 -0.07633797 -0.15415826 -0.009448863 -0.05869216 0.008267298 -0.15461218 -0.08720887
-0.059108146 0.005607232 -0.028014936 -0.033361025 -0.0694185 0.0024623075 -0.00012519899 -0.20793079
-0.12145462 -0.009329533 -0.13582702 -0.12315021 0.07334286 0.09059943 -0.16823055 -0.047198217
00000000: 1cb7 26be 597e d23b 88d0 1bbe 8c9f debd
00000010: 74b0 be3c dced b4bd 0ddd 5a3c 2b83 c4bd
00000020: b1dc 09bd 9be5 053d b511 22be 3b68 b4bd
00000030: c65e 3fbd a7c1 c1bc 2d2f 9cbd 829c e6bd
00000040: c5fb d6bd 7369 2bbd 3098 26bc 9c2f bebd
00000050: 0bda 53bc 6d94 24bd aed3 21bd 54ea fdbd
00000060: f633 d1bd edaa 3bbe f358 aabd 4251 9fbd
00000070: ce3f 57bc 990f 54be 8c49 1bbd 8a0b 543b
00000080: 7c81 4c3b ef23 e6bd 27a3 b13a c23c 23be
00000090: ead2 1cbd 7141 5fbd bc6f 8c3d b9a1 54bd
000000a0: 99f0 2ebe 2c38 e93b 00a3 d5bb b74a c0bd
000000b0: 967a e2bd 6a24 24bd a8be 4bbd bebe 59be
000000c0: 5265 3cbd c6f0 2bbd 985c b7bd 9b93 30be
000000d0: 0387 f7bd 2d45 1cbd 0e5a 5ebd cd24 4ebe
000000e0: 18a5 ecbc e4f9 02be 51ac aabd 3a43 32bd
000000f0: f555 3c3d 769e 81bd 8d8a 823d 4599 573d
00000100: c347 ee3a 1b71 3fbe e444 3abb 71de eabd
00000110: bf66 08be e11e 7c3d 9f57 87bc be50 b43d
00000120: a259 97bd 29fc 0ebd 3031 73bd 1f4f 43bd
00000130: 6047 e53d 171a b2bd 2993 e1bc 65cc 23be
00000140: 2796 2ebd 9638 6b3d a6c6 acbd 7cbd f4bd
00000150: 98fe 933c bc5c 8bbd 4daf 9ebd d43e a8bc
00000160: 43c8 a5bc 1427 91bd 7185 ce3c f395 d23d
00000170: af2d d33b 1941 3db9 bdd6 8fbd 943e b2bd
00000180: 60aa bbbd ea04 b9bd cf7d bd3d f3fb 4e3d
00000190: e2a8 26be 455d 2ebd 035c 41bd 4d27 9d3c
000001a0: a41e d8bd 1557 9cbd aadb 1dbe 67cf 1abc
000001b0: 3167 70bd 9073 073c a852 1ebe 909a b2bd
000001c0: 621b 72bd dfbc b73b 947f e5bc 92a5 08bd
000001d0: 492b 8ebd aa5e 213b d947 03b9 cfeb 54be
000001e0: 33bd f8bd e6da 18bc 3d16 0bbe 2d36 fcbd
000001f0: c834 963d 328c b93d a144 2cbe eb52 41bd

actor.4.weight f4 [128, 128]
-0.014262479 -0.037335027 -0.018239524 0.03348219 0.042974304 0.289565 0.017668264 -0.19198716
-0.051529884 0.11724283 0.050847467 0.11851326 0.11229881 -0.12702894 -0.06547477 0.04439769
-0.027314397 0.016093874 0.10406426 -0.13218814 0.20277838 -0.3244732 -0.07132715 0.022628434
-0.03390848 -0.18659225 0.09000495 -0.042858265 0.013044498 -0.035456043 0.0912995 -0.1151414
0.09244732 0.12473824 -0.18996228 0.053365856 0.1854972 -0.10902969 -0.043076493 0.044727392
0.10150536 -0.3051234 -0.17188601 -0.17928314 -0.22087368 0.0872305 -0.083563186 -0.03028451
0.06592877 -0.056389377 0.01642404 -0.1119928 -0.2229104 -0.045253277 -0.06801981 -0.07795238
-0.0748984 0.037855748 -0.09258578 0.00036711572 -0.030624604 -0.14417309 0.055695374 -0.008141115
0.084915325 -0.0041853106 -0.0047510522 0.01345288 0.2657483 0.1579736 0.109067954 -0.027837368
-0.15936685 -0.13960887 -0.002371372 0.08736559 0.025442516 0.03535615 -0.023562262 0.015003667
0.13068679 0.026219409 0.106730975 0.023347365 0.1093308 0.17676812 0.1609236 -0.023537097
0.11001788 -0.09292122 -0.04785198 -0.044866156 -0.037237402 -0.23971102 0.0046309824 -0.03899149
0.044317886 0.023071013 -0.12928055 -0.007890528 0.14943093 -0.17929004 -0.07779814 -0.027365608
0.028919311 0.03144233 0.03827853 0.01031309 -0.08414723 -0.05198056 -0.07802099 -0.073089495
-0.106918976 -0.06209017 -0.0062140427 -0.018452713 -0.15568711 -0.012437577 0.1367004 0.084489524
0.105494864 -0.03290593 -0.11749198 0.10428843 -0.12473085 -0.25988922 0.06591045 0.19673093
-0.034945153 -0.024954742 0.009710196 -0.069626704 -0.06910002 -0.30773294 -0.13177346 -0.049223963
0.020932058 0.07550816 -0.020446626 0.020786796 0.0954633 0.05742402 0.00033281124 0.0684708
0.09241532 0.02239442 0.033150442 -0.13156658 -0.06524998 -0.064633705 -0.04334957 -0.028442852
-0.02128952 0.084502555 -0.285078 -0.055308133 -0.121444136 0.05604901 -0.00089676376 0.06662402
-0.050632976 -0.1184995 -0.06836735 0.20002475 -0.16051231 -0.0819814 -0.027923843 -0.05670672
0.040320426 -0.04800724 0.053043846 -0.014042534 -0.097513705 0.0250935 0.06853404 0.12377953
0.063801266 -0.015324847 0.017535556 0.08114632 -0.017223349 0.15950441 -0.09910529 0.002601306
-0.042982783 0.115855545 -0.03191836 0.04155113 -0.112347186 -0.12794073 0.16841984 0.10325831
0.08376688 -0.0066114855 -0.07690497 0.18598723 0.0754905 -0.14646772 0.03227973 0.10136911
0.080818616 -0.06758257 -0.06631761 -0.026765145 -0.09429191 -0.058034215 0.042773485 0.07360558
-0.1175419 -0.18994202 0.09167354 0.051820252 -0.058630988 -0.14373665 -0.010712095 -0.07381133
0.074523345 0.14192541 -0.079083994 0.006813791 0.027374666 0.112522386 -0.06757865 0.05082732
0.10377765 -0.02127612 -0.046173587 -0.037801716 -0.062414978 -0.10444351 -0.15077205 -0.09213587
-0.034704965 0.059611514 0.13109848 0.0043835114 -0.13081042 -0.016122002 -0.072203815 0.0064030555
0.062857375 -0.14401212 -0.12737525 0.12847605 -0.22591919 -0.08027387 -0.11859271 0.0410882
-0.10174847 -0.012327737 0.07184127 -0.0269403 -0.23875034 -0.009883465 0.10942049 0.056209333
00000000: 2cad 69bc 9dec 18bd 0e6b 95bc 9f24 093d
00000010: d305 303d dd41 943e 09bd 903c 4898 44be
00000020: 0011 53bd 021d f03d 6f45 503d 14b7 f23d
00000030: ebfc e53d e013 02be a317 86bd 5ada 353d
00000040: 71c2 dfbc 4dd7 833c a51f d53d 545c 07be
00000050: 23a5 4f3e 5a21 a6be f813 92bd 445f b93c
00000060: 9ee3 0abd 0a12 3fbe 8454 b83d 268c 2fbd
00000070: 97b8 553c 5b3a 11bd 3bfb ba3d 41cf ebbd
00000080: 0555 bd3d c376 ff3d 7985 42be 2896 5a3d
00000090: faf2 3d3e f54a dfbd fa70 30bd 1234 373d
000000a0: 0be2 cf3d 2239 9cbe e302 30be 0096 37be
000000b0: b62c 62be e8a5 b23d 2d23 abbd 3917 f8bc
000000c0: aa05 873d 8cf8 66bd b58b 863c 7b5c e5bd
000000d0: a042 64be 805b 39bd f84d 8bbd 7fa5 9fbd
000000e0: 5564 99bd a10e 1b3d 9d9d bdbd 7079 c039
000000f0: 73e0 fabc 1ca2 13be d520 643d 5062 05bc
00000100: 16e8 ad3d ee24 89bb b7ae 9bbb 7869 5c3c
00000110: 2910 883e d5c3 213e 055f df3d 310b e4bc
00000120: 1031 23be a1f5 0ebe 0569 1bbb bbec b23d
00000130: d36c d03c 9cd1 103d a505 c1bc f1d1 753c
00000140: c2d2 053e 16ca d63c c595 da3d f942 bf3c
00000150: d4e8 df3d b402 353e 28c9 243e dfd0 c0bc
00000160: 0e51 e13d 7b4d bebd 7000 44bd 93c5 37bd
00000170: 3f86 18bd ce76 75be 7fbf 973b 8ab5 1fbd
00000180: ac86 353d 6cff bc3c 1f62 04be 4647 01bc
00000190: 6c04 193e cf97 37be a254 9fbd d72d e0bc
000001a0: 31e8 ec3c acc9 003d f3c9 1c3d 3cf8 283c
000001b0: 6255 acbd 91e9 54bd 78c9 9fbd f2af 95bd
000001c0: 56f8 dabd 4352 7ebd 2b9f cbbb 252a 97bc
000001d0: 716c 1fbe fbc6 4bbc 31fb 0b3e d808 ad3d
000001e0: b10d d83d 5ec8 06bd a39f f0bd 2c95 d53d
000001f0: e372 ffbd 3310 85be 0ffc 863d d573 493e
00000200: a622 0fbd e36d ccbc 8417 1f3c 7298 8ebd
00000210: 5084 8dbd 2c8f 9dbe 9fef 06be 119f 49bd
00000220: b579 ab3c 06a4 9a3d af7f a7bc 1249 aa3c
00000230: 4382 c33d 7335 6b3d 2b7d ae39 6b3a 8c3d
00000240: 3e44 bd3d 8174 b73c c2c8 073d 64b9 06be
00000250: c8a1 85bd ad5e 84bd 528f 31bd fc00 e9bc
00000260: 5c67 aebc ad0f ad3d bef5 91be c88a 62bd
00000270: b4b7 f8bd a693 653d cc14 6bba 2d72 883d
00000280: 8664 4fbd deaf f2bd 2e04 8cbd 4ad3 4c3e
00000290: 575d 24be dde5 a7bd 8bc0 e4bc 4e45 68bd
000002a0: 0827 253d 3da3 44bd 8144 593d a812 66bc
000002b0: 44b5 c7bd e290 cd3c 935b 8c3d 1f80 fd3d
000002c0: 3daa 823d 1115 7bbc baa6 8f3c 0b30 a63d
000002d0: fb17 8dbc 2055 233e b7f7 cabd ac7a 2a3b
000002e0: b70e 30bd ac45 ed3d d4bc 02bd 8531 2a3d
000002f0: 4816 e6bd e502 03be 4076 2c3e 1879 d33d
00000300: f88d ab3d 29a5 d8bb 5a80 9dbd 7073 3e3e
00000310: c39a 9a3d a2fb 15be c037 043d 9c9a cf3d
00000320: 3b84 a53d bb68 8abd 87d1 87bd 9442 dbbc
00000330: 1e1c c1bd 49b5 6dbd 4033 2f3d 86be 963d
00000340: cfb9 f0bd 2980 42be 56bf bb3d 7941 543d
00000350: 0c27 70bd b32f 13be c881 2fbc 652a 97bd
00000360: b29f 983d e554 113e caf6 a1bd 3946 df3b
00000370: d640 e03c 2372 e63d ad66 8abd 4f30 503d
00000380: 6089 d43d 424b aebc 8420 3dbd f9d5 1abd
00000390: d9a6 7fbd 7be6 d5bd fd63 1abe bbb1 bcbd
000003a0: cb26 0ebd 342b 743d ae3e 063e 8fa3 8f3b
000003b0: 2bf3 05be 4a12 84bc 98df 93bd b9d0 d13b
000003c0: 5ebb 803d ea77 13be a86e 02be 3a8f 033e
000003d0: 5c57 67be a066 a4bd bce0 f2bd 1a4c 283d
000003e0: 8061 d0bd 47fa 49bc 8421 933d e7b1 dcbc
000003f0: f87a 74be 42ee 21bc da17 e03d c23b 663d

actor.4.bias f4 [128]
-0.099455245 0.018205296 -0.14826432 -0.17679116 -0.049861025 -0.16253978 0.035243202 -0.10636648
-0.011467379 -0.18359166 -0.25814134 -0.18233915 -0.012676589 0.1344761 0.005742016 0.13962586
-0.052371945 0.13020068 0.14717744 -0.18161792 0.033734158 -0.035524745 -0.049075656 0.038386837
-0.08115307 -0.016991155 -0.077161394 -0.13920964 0.14522368 -0.01431907 0.06259155 -0.039718755
-0.10716497 0.027551286 -0.004352259 -0.07709076 -0.17767867 -0.22557081 0.018863905 -0.11107636
0.0534361 0.06328385 -0.20861423 -0.07303297 -0.20422597 -0.07976335 0.030756291 -0.058615312
0.0744204 -0.21012776 -0.05163558 0.032533128 0.074181266 -0.068894185 -0.011125454 0.11161874
0.0102948155 0.09778224 -0.013175778 -0.100393124 -0.17854816 -0.051692735 -0.07556293 -0.048357334
0.032188732 -0.098073676 -0.05123997 -0.04272523 -0.01746151 0.04166088 0.00599316 -0.17519866
-0.12477216 0.03845267 -0.08040425 -0.10472254 0.064476594 -0.025400773 -0.08506261 -0.026926795
-0.076413415 0.04623665 0.018156582 -0.0008486777 -0.05297691 -0.16310872 -0.015905056 0.08186558
0.062610276 -0.025992231 0.111452624 -0.012527489 -0.1785232 -0.07469125 -0.24313034 -0.15668355
0.072368674 0.02802787 -0.013647025 0.11570932 -0.1923449 -0.068260714 -0.10363626 -0.09795011
-0.042246047 -0.06625273 -0.08701785 0.0015153638 -0.097096436 0.011315906 -0.2048598 -0.051195934
0.17938124 -0.18086217 0.10249661 -0.11354858 -0.2342633 -0.13332535 -0.19151223 -0.14109379
-0.15421379 -0.19139098 0.12192619 0.016110864 -0.0045691025 0.17772283 -0.20129503 -0.10510292
00000000: 31af cbbd 4623 953c 9ad2 17be be08 35be
00000010: 133b 4cbd d470 26be 2d5b 103d abd6 d9bd
00000020: ace1 3bbc 74ff 3bbe 1a2b 84be 1db7 3abe
00000030: 78b1 4fbc 1ab4 093e 8527 bc3b 15fa 0e3e
00000040: f783 56bd 5453 053e afb5 163e 0cfa 39be
00000050: d42c 0a3d 6582 11bd 8e03 49bd 843b 1d3d
00000060: 9533 a6bd 0931 8bbc cb06 9ebd f98c 0ebe
00000070: 84b5 143e 889a 6abc 0030 803d 22b0 22bd
00000080: 4f79 dbbd 3cb3 e13c 659d 8ebb c3e1 9dbd
00000090: 66f1 35be 09fc 66be 7a88 9a3c 017c e3bd
000000a0: d0df 5a3d f79a 813d f89e 55be 4f92 95bd
000000b0: 9d20 51be f85a a3bd 9ef4 fb3c 9c16 70bd
000000c0: b969 983d bb2b 57be d47f 53bd 7541 053d
000000d0: 59ec 973d 6518 8dbd 8947 36bc 5e98 e43d
000000e0: 96ab 283c 0e42 c83d 38df 57bc e99a cdbd
000000f0: 54d5 36be c3bb 53bd bdc0 9abd 5712 46bd
00000100: 55d8 033d dada c8bd 01e1 51bd a700 2fbd
00000110: 710b 8fbc 99a4 2a3d 4562 c43b 4767 33be
00000120: 8c88 ffbd 8c80 1d3d fcaa a4bd c578 d6bd
00000130: 4e0c 843d 4815 d0bc 4e35 aebd 9595 dcbc
00000140: a37e 9cbd a462 3d3d 1dbd 943c cc79 5eba
00000150: 51fe 58bd f905 27be 524b 82bc 24a9 a73d
00000160: d139 803d a9ed d4bc 4641 e43d 1940 4dbc
00000170: c9ce 36be baf7 98bd 29f7 78be a771 20be
00000180: 0736 943d b49a e53c c697 5fbc 02f9 ec3d
00000190: 10f6 44be 46cc 8bbd 3f3f d4bd 119a c8bd
000001a0: 310a 2dbd 83af 87bd 6a36 b2bd 2c9f c63a
000001b0: 7fda c6bd 5a66 393c c4c6 51be d4b2 51bd
000001c0: b7af 373e ef33 39be bee9 d13d 288c e8bd
000001d0: b8e2 6fbe 7186 08be c81b 44be e47a 10be
000001e0: 38ea 1dbe fffb 43be 70b4 f93d eefa 833c
000001f0: 69b8 95bb f9fc 353e 4920 4ebe 3340 d7bd

actor.6.weight f4 [12, 128]
0.11028013 -0.06569888 0.058467373 -0.0841809 -0.016076589 0.008385326 -0.04898429 0.0029946778
-0.043201618 0.11489324 0.006138376 0.01215353 -0.015593148 -0.0963544 -0.05162281 0.033461615
-0.013356557 -0.051655214 -0.037680365 0.024240175 -0.030020699 0.0640438 -0.021944758 0.0016440599
-0.027841674 0.003601649 -0.028914204 0.050616015 0.032823514 0.023873532 -0.007492604 0.0010373149
-0.0041851844 0.007610734 -0.07018176 0.0022052266 -0.033446364 0.00017385627 -0.051255215 -0.03115887
-0.0017068755 -0.0013998436 -0.23537356 -0.023891188 -0.050003372 -0.02054001 -0.016186988 0.018387707
-0.03281534 0.10933015 0.0012288755 0.0010148875 -0.0314819 0.020980291 -0.031146716 -0.0015928247
0.0052160337 -0.077039726 0.03188113 -0.03537953 0.021223456 0.049884856 0.0027617882 -0.10117622
0.028927846 -0.022937952 0.052562304 -0.019478973 0.07454441 0.024278715 -0.0040380987 0.06748251
0.036202133 -0.048373677 -0.023226662 0.015798522 -0.01874501 0.053767152 0.08039062 -0.040785503
0.04855435 -0.018762149 -0.0025568749 -0.039958566 -0.022309583 0.028954947 0.07713934 -0.023270532
-0.005952741 -0.021525364 -0.027570698 -0.001029745 0.016612971 0.015264884 0.100015976 -0.010316092
-0.046196718 -0.04084855 0.05392577 -0.06738135 -0.016468748 -0.08308359 -0.039712097 -0.038081788
0.018966157 0.07236376 -0.023916937 -0.026480587 0.13344282 0.047897357 -0.019695058 0.014798909
-0.032372106 -0.03010915 -0.030706039 -0.07367255 0.11689614 0.038417876 0.0398348 -0.0058513964
0.023390109 0.045701753 -0.040180977 -0.059683077 -0.044677 -0.034317758 0.06907995 0.042495806
-0.022958621 0.022403235 0.011393599 0.0470993 0.060756125 0.04682965 0.052055415 0.09088235
0.005826 0.06738613 0.115941234 0.028014485 0.015118654 -0.06831894 0.0005398363 -0.06878984
-0.03269002 -0.00802639 -0.056641746 -0.16916524 -0.012868334 -0.036294848 0.039284036 -0.039989084
0.032867145 -0.008454694 0.015066534 -0.018196763 -0.06865516 -0.043778695 0.007897509 -0.004763566
-0.0017815473 0.0014886626 0.087381646 -0.013104279 0.019294994 0.08030008 -0.09999867 0.030357728
0.011790614 -0.022621356 0.07037482 -0.0027819145 -0.00024630487 0.03624339 0.011875431 -0.018250193
0.02200174 0.0896947 -0.05858614 -0.025848387 0.040473234 0.030616589 0.010458546 -0.053633098
-0.04721105 -0.06581847 -0.0043954193 0.082272805 -0.0293582 -0.037361 0.00812818 0.06308993
-0.048241727 -0.0030855087 -0.059420593 0.013006346 -0.09976471 -0.02198144 -0.0036107658 0.08332996
-0.036594227 0.053523477 0.021318296 0.022070482 0.0465606 -0.028795056 3.95634e-05 0.06559833
0.01443704 0.02063756 -0.038675196 -0.0057452437 0.022413079 0.04521846 -0.008533873 0.03847636
0.012905226 -0.005090402 0.005630956 -0.006619539 0.051903494 -0.11380453 0.008415825 0.05599789
0.00763262 0.007363945 0.0251721 0.009427873 0.04614576 -0.01014764 0.007861531 0.06032811
-0.033079226 -0.052435808 0.010239877 -0.013879232 -0.00038106262 -0.051008996 0.0067033605 -0.0122593
-0.05538513 -0.030262023 -0.048985396 -0.13550839 -0.04912582 0.04035316 0.12019607 -0.06971593
0.15620077 0.043181345 -0.015345224 0.021616453 0.097727895 -0.031300142 0.06360015 -0.08489702
00000000: 8cda e13d 228d 86bd 7c7b 6f3d 0967 acbd
00000010: 0db3 83bc 9b62 093c c0a3 48bd 5b42 443b
00000020: 2ef4 30bd 264d eb3d 6e24 c93b 991f 473c
00000030: 677a 7fbc 7555 c5bd 7172 53bd 0c0f 093d
00000040: 76d5 5abc 6b94 53bd ba56 1abd 5593 c63c
00000050: f8ed f5bc 6529 833d 7ec5 b3bc 7f7d d73a
00000060: 3914 e4bc a509 6c3b 7bdd ecbc bd52 4f3d
00000070: f371 063d 6d92 c33c 8584 f5bb 83f6 873a
00000080: df23 89bb 7763 f93b 74bb 8fbd 9085 103b
00000090: 0eff 08bd 304d 3639 fdf0 51bd e340 ffbc
000000a0: 3db9 dfba f57a b7ba c405 71be 74b7 c3bc
000000b0: 56d0 4cbd 8643 a8bc 939a 84bc d1a1 963c
000000c0: 6169 06bd 7ce8 df3d 3812 a13a f905 853a
000000d0: 2af3 00bd dcde ab3c 6627 ffbc 54c6 d0ba
000000e0: 43eb aa3b 01c7 9dbd ca95 023d 20ea 10bd
000000f0: d0dc ad3c 1054 4c3d 1eff 343b 7a35 cfbd
00000100: 17fa ec3c 5fe8 bbbc 924b 573d 5e92 9fbc
00000110: bdaa 983d 28e4 c63c 0752 84bb 4534 8a3d
00000120: b048 143d 7a23 46bd d745 bebc e76b 813c
00000130: 238f 99bc f23a 5c3d d6a3 a43d b30e 27bd
00000140: ede0 463d 14b3 99bc 3e91 27bb 98ab 23bd
00000150: 96c2 b6bc ed32 ed3c 3bfb 9d3d d8a1 bebc
00000160: 360f c3bb f655 b0bc f2db e1bc 82f8 86ba
00000170: ed17 883c 9019 7a3c 2dd5 cc3d d304 29bc
00000180: c538 3dbd cf50 27bd 45e1 5c3d 3cff 89bd
00000190: 78e9 86bc bb27 aabd 27a9 22bd a6fb 1bbd
000001a0: ea5e 9b3c 7333 943d 74ed c3bc d1ed d8bc
000001b0: 3ca5 083e 0530 443d 8857 a1bc 2077 723c
000001c0: 9d98 04bd 77a7 f6bc 3b8b fbbc a2e1 96bd
000001d0: 3e67 ef3d 105c 1d3d d129 233d 12bd bfbb
000001e0: 9d9c bf3c c331 3b3d cf94 24bd 3e76 74bd
000001f0: 3bff 36bd c790 0cbd ca79 8d3d 1510 2e3d
00000200: b813 bcbc fd86 b73c 38ac 3a3c 32eb 403d
00000210: 6adb 783d 72d0 3f3d 0f38 553d 8720 ba3d
00000220: 08e8 be3b bd01 8a3d 9972 ed3d a27e e53c
00000230: 3bb4 773c cdea 8bbd cd83 0d3a b0e1 8cbd
00000240: f8e5 05bd 1f81 03bc 2d01 68bd a739 2dbe
00000250: b4d5 52bc e8a9 14bd 4ce8 203d 98cb 23bd
00000260: b39f 063d 8f85 0abc a0d9 763c 6111 95bc
00000270: 149b 8cbd 4a51 33bd 8e64 013c b017 9cbb
00000280: cf82 e9ba 3a1f c33a 26f5 b23d 54b3 56bc
00000290: 8910 9e3c 5e74 a43d 1acc ccbd c5b0 f83c
000002a0: 6b2d 413c 6c50 b9bc ac20 903d c850 36bb
000002b0: 7b22 81b9 f373 143d 2b91 423c 6e81 95bc
000002c0: fe3c b43c dbb1 b73d 05f8 6fbd ffbf d3bc
000002d0: 43c7 253d a4cf fa3c 525a 2b3c 61ae 5bbd
000002e0: 6060 41bd d6cb 86bd 7307 90bb a57e a83d
000002f0: 9c80 f0bc d907 19bd 0f2c 053c 4b35 813d
00000300: 1e99 45bd 3f36 4abb 0263 73bd 9218 553c
00000310: 7151 ccbd 6c12 b4bc 99a2 6cbb e6a8 aa3d
00000320: d4e3 15bd 6f3b 5b3d b5a3 ae3c 28cd b43c
00000330: 54b6 3e3d 9ce3 ebbc e1f0 2538 6b58 863d
00000340: 5689 6c3c 1a10 a93c e269 1ebd 9942 bcbb
00000350: a29b b73c fe36 393d a8d1 0bbc 6399 1d3d
00000360: 7170 533c 63cd a6bb e283 b83b b8e8 d8bb
00000370: c298 543d 5912 e9bd 87e2 093c 0b5e 653d
00000380: 0f1b fa3b 3f4d f13b b835 ce3c 5e77 1a3c
00000390: 5603 3d3d 4942 26bc a7cd 003c 9c1a 773d
000003a0: 157e 07bd eec6 56bd 28c5 273c b865 63bc
000003b0: 5cc9 c7b9 cfee 50bd dda7 db3b 3bdb 48bc
000003c0: 85db 62bd 10e8 f7bc e9a4 48bd b6c2 0abe
000003d0: 2838 49bd 5b49 253d 5b29 f63d 3ac7 8ebd
000003e0: 18f3 1f3e ecde 303d 896a 7bbc fd14 b13c
000003f0: 9025 c83d 9434 00bd cc40 823d 7dde adbd

actor.6.bias f4 [12]
-0.0980982 -0.24564372 0.06428628 0.03708069 0.05092312 -0.037662555 0.0069958707 0.014807526
0.05407949 -0.046204083 0.08716194 -0.13294885
00000000: b6e7 c8bd 078a 7bbe 86a8 833d ece1 173d
00000010: c394 503d 0d44 1abd 9e3d e53b 449b 723c
00000020: 7582 5d3d 7e40 3dbd f681 b23d be23 08be

critic.0.weight f4 [128, 48]
0.33570415 0.028205885 -0.1347283 0.008946033 0.009959515 -0.23648219 0.2684073 -0.27153465
0.092077635 -0.4678832 -0.6958769 -0.3946393 0.095141076 0.013878971 0.20280871 0.014114681
0.058411885 -0.013971734 0.19642338 0.036733788 0.05144131 -0.15077211 -0.07881492 0.077343985
0.0976965 -0.035947025 -0.061658427 0.009729923 0.057370022 0.027537085 0.030395107 -0.047418967
-0.026907526 0.010887044 0.04999438 0.00032603473 -0.035374973 -0.027324712 0.0022310335 -0.018099945
0.13687235 -0.010850293 0.04039138 0.058490314 -0.006235557 -0.09538597 -0.03241281 -0.028581606
-0.34287292 -0.13481143 -0.16580425 0.12410232 0.07292622 0.10414293 1.363019 -1.1306173
-0.007964392 0.28210473 0.15593004 -0.063925296 0.021281514 0.33729345 0.13438569 0.010890842
0.30218244 -0.06322225 0.39467874 0.10798553 0.14455694 0.21154147 0.5934952 0.01318484
0.09994064 -0.13335721 -0.018070078 0.04409119 0.052771725 -0.00075874414 0.09537079 -0.04493356
0.006230409 -0.011373427 0.025149928 -0.032936983 0.019311937 0.016190618 -0.00045883487 0.12093634
0.03581988 -0.06830062 -0.03325062 0.045581076 -0.0030128928 0.03766627 -0.0383193 0.025218083
-0.07745002 0.11549763 -0.036322255 -0.11548175 -0.15256834 0.25377867 -0.48927253 1.7015885
0.19756791 0.2293879 -0.10540097 -0.23880263 -0.12195772 -0.2828616 -0.16710183 -0.3172106
0.18762 -0.24188691 0.1724987 0.044505756 0.17210644 -0.17754614 -0.2451769 0.07068995
-0.021260891 -0.046142608 0.02192006 -0.026758367 0.007856155 -0.02782141 0.008255651 0.014980915
-0.0036149195 -0.0047684377 -0.021915622 0.021725513 0.057624914 0.00977614 0.038801044 0.076246336
0.093399554 0.037493914 -0.009909003 -0.0677735 0.024665348 -0.026746279 -0.020934204 -0.06583887
-0.09991354 -0.32676217 -0.020904195 -0.031919688 0.0068505406 -0.15615594 -2.220033 -0.44292882
-0.036836054 0.10765434 0.37371603 0.27727333 0.33234546 0.029362237 -0.05161813 -0.016229311
-0.039136536 -0.1656347 0.065218925 0.19101152 -0.368378 -0.018234605 -0.33496383 -0.11125157
0.08704751 0.00059655553 -0.02746673 0.032154493 0.003488786 -0.06464975 0.050177276 0.047077976
-0.015239501 -0.042460483 0.0051587634 0.0067141014 -0.068899654 0.07799617 0.12465276 0.06920353
-0.034737617 -0.0073009618 0.16271201 0.05539143 0.12748934 -0.08282775 -0.1352658 -0.025955228
-0.3538517 -0.34427467 0.13833614 -0.16686828 0.07213911 -0.0029805512 0.84224266 -0.9226888
-0.076683134 0.017494723 -0.2822541 -0.39075783 -0.011841659 0.17310478 0.16756833 0.12141986
0.19893679 -0.028843867 0.008557139 -0.1721506 -0.036833175 -0.047219444 -0.027004052 -0.1514553
-0.07850418 0.04828554 -0.028789978 0.0354425 0.06431077 0.023511361 -0.11167617 -0.05442934
-0.05199659 -0.0032526827 -0.0434971 0.006327042 0.104482874 -0.039473224 -0.07840729 0.045207184
0.029953575 0.05191016 -0.0846348 -0.051451527 -0.012819678 0.07593856 -0.16664912 -0.10049203
-0.3201617 -0.049799107 0.113258354 0.023445338 -0.15067318 0.2358768 -0.90084845 -1.0659533
0.070173346 0.123251654 0.013850219 0.16793925 -0.025054455 0.13884422 0.19310968 0.2480976
00000000: 6ae1 ab3e 0710 e73c 37f6 09be 6292 123c
00000010: 3c2d 233c 6328 72be ae6c 893e 9706 8bbe
00000020: 3393 bc3d 638e efbe fd24 32bf 2a0e cabe
00000030: 53d9 c23d a064 633c 16ad 4f3e 4341 673c
00000040: 4d41 6f3d b3e9 64bc 3623 493e 2b76 163d
00000050: 20b4 523d 0164 1abe b769 a1bd 8666 9e3d
00000060: 1a15 c83d 303d 13bd 8c8d 7cbd 416a 1f3c
00000070: d4fc 6a3d 7495 e13c 29ff f83c 643a 42bd
00000080: 2c6d dcbc 925f 323c e8c6 4c3d a4ef aa39
00000090: 59e5 10bd 13d8 dfbc 8836 123b 5646 94bc
000000a0: 4428 0c3e 6dc5 31bc 6f71 253d 8a93 6f3d
000000b0: a553 ccbb b859 c3bd 4bc3 04bd f923 eabc
000000c0: 0a8d afbe 020c 0abe 97c8 29be 5b29 fe3d
000000d0: 585a 953d e348 d53d 6877 ae3f 11b8 90bf
000000e0: 157d 02bc 0870 903e 20ac 1f3e 44eb 82bd
000000f0: 9256 ae3c bab1 ac3e 679c 093e 816f 323c
00000100: a8b7 9a3e ab7a 81bd 5513 ca3e 8427 dd3d
00000110: bc06 143e 549e 583e 4def 173f 3a05 583c
00000120: aead cc3d cb8e 08be b307 94bc f798 343d
00000130: 2a27 583d 75e6 46ba c351 c33d 410c 38bd
00000140: 7528 cc3b 9c57 3abc 3907 ce3c eee8 06bd
00000150: 1134 9e3c 30a2 843c c68f f0b9 79ad f73d
00000160: deb7 123d 32e1 8bbd cd31 08bd 39b3 3a3d
00000170: f473 45bb f247 1a3d b3f4 1cbd 2796 ce3c
00000180: 1e9e 9ebd 058a ec3d a5c6 14bd b281 ecbd
00000190: e03a 1cbe 47ef 813e ee81 fabe a7cd d93f
000001a0: 3e4f 4a3e a9e4 6a3e 77dc d7bd ad88 74be
000001b0: f8c4 f9bd 3cd3 90be be1c 2bbe 6e69 a2be
000001c0: 751f 403e 34b1 77be 80a3 303e ab4b 363d
000001d0: ac3c 303e a8ce 35be a70f 7bbe e4c5 903d
000001e0: 522b aebc 0800 3dbd b391 b33c 5d34 dbbc
000001f0: 1ab7 003c bae9 e3bc b642 073c 8372 753c
00000200: 49e8 6cbb 8e40 9cbb 6488 b3bc b4f9 b13c
00000210: 1a08 6c3d 1a2c 203c d8ed 1e3d 0a27 9c3d
00000220: 4448 bf3d 3893 193d 5f59 22bc d5cc 8abd
00000230: fc0e ca3c 031b dbbc 357e abbc 88d6 86bd
00000240: 789f ccbd 5f4d a7be 463f abbc 38be 02bd
00000250: 807a e03b 58e7 1fbe 0515 0ec0 91c7 e2be
00000260: 67e1 16bd e179 dc3d b557 bf3e c5f6 8d3e
00000270: 2f29 aa3e 1389 f03c 886d 53bd 55f3 84bc
00000280: a24d 20bd 259c 29be 8091 853d 8698 433e
00000290: 0b9c bcbe bd60 95bc 6180 abbe ddd7 e3bd
000002a0: f745 b23d 2a62 1c3a e801 e1bc 6eb4 033d
000002b0: 1ea4 643b 1767 84bd b086 4d3d d6d4 403d
000002c0: 1aaf 79bc 0beb 2dbd d80a a93b f701 dc3b
000002d0: 431b 8dbd 75bc 9f3d f249 ff3d 95ba 8d3d
000002e0: 0849 0ebd e83c efbb fa9d 263e 20e2 623d
000002f0: 918c 023e 98a1 a9bd 1e83 0abe 0fa0 d4bc
00000300: 0d2c b5be c544 b0be fda7 0d3e 85df 2abe
00000310: abbd 933d 5a55 43bb 379d 573f 5535 6cbf
00000320: 0c0c 9dbd 1851 8f3c 9c83 90be 6911 c8be
00000330: 8503 42bc 6142 313e 0897 2b3e faaa f83d
00000340: 16b6 4b3e f949 ecbc 3e33 0c3c 3f48 30be
00000350: 62de 16bd 2d69 41bd 9a37 ddbc 1917 1bbe
00000360: cdc6 a0bd 0fc7 453d f6d8 ebbc 282c 113d
00000370: 5db5 833d e69a c03c 7ab6 e4bd 4df1 5ebd
00000380: 60fa 54bd f62a 55bb 042a 32bd 1353 cf3b
00000390: 1efb d53d adae 21bd 0094 a0bd 2b2b 393d
000003a0: 3361 f53c bf9f 543d 0355 adbd d6be 52bd
000003b0: a009 52bc ad85 9b3d 11a6 2abe c4ce cdbd
000003c0: 3cec a3be 26fa 4bbd fff3 e73d 7010 c03c
000003d0: 124a 1abe b089 713e 019e 66bf 2871 88bf
000003e0: 0bb7 8f3d 5d6b fc3d 07ec 623c 44f8 2b3e
000003f0: 003f cdbc 2e2d 0e3e 8bbe 453e 4c0d 7e3e

critic.0.bias f4 [128]
-0.04341912 0.22616321 -0.07500322 -0.1441494 0.085777216 0.08675908 -0.059376255 0.17512693
0.17676827 -0.052316707 0.11084898 -0.34009284 -0.18189636 -0.19712704 0.030986262 -0.15417828
-0.17648134 0.042088043 -0.1851112 -0.075881995 -0.14744042 -0.13732748 -0.107078746 -0.08662202
-0.14684537 0.09272925 -0.19106238 -0.11695327 0.19183742 0.0028177511 0.042889167 0.09182885
-0.001497862 -0.18187635 -0.22799729 -0.16003498 -0.20931935 0.016802348 0.20154281 0.0027406435
-0.15981005 -0.018008217 -0.26731336 -0.037111364 -0.30162588 -0.19882804 -0.048770424 -0.0077522406
-0.1891749 0.026366588 0.07706168 -0.00022097061 0.009811385 -0.02548324 -0.14306693 0.20959312
0.017287703 -0.2443863 -0.14363635 0.06931961 -0.021402057 -0.091539115 0.049054533 -0.09982534
0.15703352 0.23170544 0.01631902 0.21381697 0.054757677 0.15903795 -0.070570365 -0.12685235
-0.1620243 -0.078483924 -0.0032397646 -0.03261327 -0.06235811 0.23600072 0.084784135 -0.16752376
0.169584 -0.17486502 -0.02033485 0.0070230663 0.20698345 0.015906809 -0.15118513 0.18060586
0.0040778425 -0.15476124 0.017094262 -0.0969131 -0.21590908 -0.08304604 -0.17187308 -0.1360914
0.15972617 0.10735561 0.15613692 0.056189887 -0.087728284 0.0063214083 0.19118987 -0.15468839
0.054122135 -0.08666693 0.04406542 -0.08625828 0.10921752 0.24607822 0.08823944 -0.10239986
-0.17976856 -0.023495676 -0.057534844 0.084184855 -0.16587895 -0.16949874 -0.110662766 -0.28011394
0.050503224 0.22591102 -0.027361955 0.07238364 0.09177337 0.06595911 -0.2079785 0.023136828
00000000: 3fd8 31bd 5497 673e 4a9b 99bd e69b 13be
00000010: f7ab af3d bfae b13d 8434 73bd 7954 333e
00000020: be02 353e 0b4a 56bd ca04 e33d a620 aebe
00000030: 0a43 3abe acdb 49be e7d6 fd3c e9e0 1dbe
00000040: 86b7 34be 8364 2c3d ca8d 3dbe 0568 9bbd
00000050: 9ffa 16be 939f 0cbe 1a4c dbbd e366 b1bd
00000060: a25e 16be d5e8 bd3d dba5 43be 3285 efbd
00000070: 0771 443e 05aa 383b 8dac 2f3d c410 bc3d
00000080: e953 c4ba cb3d 3abe 1f78 69be 36e0 23be
00000090: d057 56be 14a5 893c 3d61 4e3e 5e9c 333b
000000a0: 3fa5 23be f885 93bc 4cdd 88be 1602 18bd
000000b0: b56e 9abe 9499 4bbe 7fc3 47bd 8206 febb
000000c0: 11b7 41be befe d73c 84d2 9d3d 59b4 67b9
000000d0: eebf 203c 3ac2 d0bc 2380 12be 949f 563e
000000e0: f19e 8d3c 6740 7abe 6815 13be 71f7 8d3d
000000f0: 5e53 afbc dc78 bbbd 68ed 483d 3a71 ccbd
00000100: 65cd 203e 3144 6d3e 77af 853c d6f2 5a3e
00000110: 9649 603d d8da 223e 3287 90bd 95e5 01be
00000120: b3e9 25be 2ebc a0bd 3b52 54bb 7e95 05bd
00000130: 386b 7fbd 2caa 713e 4ea3 ad3d 598b 2bbe
00000140: 6ea7 2d3e d10f 33be 4595 a6bc c021 e63b
00000150: 78f3 533e ff4e 823c 46d0 1abe bef0 383e
00000160: 6c9f 853b bb79 1ebe 4409 8c3c 607a c6bd
00000170: 4517 5dbe 0b14 aabd 7fff 2fbe 8b5b 0bbe
00000180: 428f 233e 42dd db3d 5be2 1f3e 5e27 663d
00000190: e3aa b3bd d123 cf3b 47c7 433e a266 1ebe
000001a0: 2caf 5d3d 6e7e b1bd f17d 343d 2ea8 b0bd
000001b0: 6fad df3d eefb 7b3e e1b6 b43d 05b7 d1bd
000001c0: 4015 38be 017a c0bc a8a9 6bbd 1c69 ac3d
000001d0: 2cdc 29be 1491 2dbe 29a3 e2bd 186b 8fbe
000001e0: 78dc 4e3d 3855 673e 2e26 e0bc e03d 943d
000001f0: adf3 bb3d 9215 873d 51f8 54be 7289 bd3c
