logs/rsl_rl/anymal_c_flat_direct/2025-04-24_12-25-01/model_450.pt (torch, 983322 bytes, 48 tensors)

std f4 [12]
0	0x3dd35c1a	0.10320301
1	0x3dd522cd	0.10407028
2	0x3dcddf24	0.10052326
3	0x3ddb1cee	0.10698877
4	0x3dfc5143	0.12320187
5	0x3e0532c1	0.13007642
6	0x3e06626d	0.13123484
7	0x3e053e45	0.13012035
8	0x3da46db1	0.080287345
9	0x3dbfdea0	0.09368634
10	0x3d993c27	0.07482176
11	0x3da79ec7	0.08184581

actor.0.weight f4 [128, 48]
0	0x3e62821b	0.22119944
1	0xbd00f659	-0.031484935
2	0xbe308152	-0.17236832
3	0xbe0661cf	-0.13123249
4	0x3eb52841	0.35382274
5	0xbeb1a1d1	-0.3469377
6	0x3e961cba	0.29318792
7	0x3d8cb29a	0.06870003
8	0x3dea49c3	0.1143985
9	0xbd1e61e5	-0.03866758
10	0x3ec355d7	0.38151428
11	0x3e860b9e	0.26180738
12	0x3d135cb4	0.03597708
13	0xbe90e87d	-0.28302374
14	0xbe9e6911	-0.30939534
15	0xbf11ef83	-0.5700609
16	0xbdefaa28	-0.117023766
17	0x3e59038d	0.21192761
18	0xbc0ee1b7	-0.008720807
19	0xbe437571	-0.19087769
20	0xbac1b17f	-0.0014777629
21	0x3eab7a8b	0.3349193
22	0x3ece87ac	0.40337884
23	0xbd49d3f0	-0.049274385
24	0xbd4343cb	-0.047672074
25	0x3d257e4d	0.040403653
26	0x3d2441f3	0.040101957
27	0xbd11f5c6	-0.03563478
28	0x3d90e3ed	0.070747234
29	0x3e330bad	0.17484923
30	0xbd75844f	-0.059940632
31	0xbc0c347f	-0.008557438
32	0x3d76cc9c	0.060253724
33	0x3d3e2262	0.04641951
34	0xbd8cdf0d	-0.06878481
35	0xbc5e115f	-0.013553946
36	0x3d187a01	0.037225727
37	0xbe62cb2c	-0.22147816
38	0x3e68c8ee	0.22732899
39	0xbe0ede1a	-0.13951913
40	0x3b8243ae	0.003975353
41	0xbe2615cb	-0.16219251
42	0x3e21f613	0.15816526
43	0xbde7b9a9	-0.11314709
44	0xbe3d31a8	-0.18475974
45	0xbe333769	-0.17501606
46	0x3e0a2f6a	0.1349465
47	0x3df22b4a	0.11824663
48	0xbf010c30	-0.5040922
49	0xbedf92ee	-0.43666786
50	0x3e01d957	0.12680565
51	0xbde2d007	-0.11074834
52	0xbe4f0952	-0.20218399
53	0x3d389009	0.045059238
54	0xbd7b2a11	-0.061319415
55	0x3eb6a39b	0.35671696
56	0x3e39792a	0.18112627
57	0xbe0ce832	-0.1376045
58	0x3f004da0	0.50118446
59	0xbea08b39	-0.31356218
60	0x3d980610	0.07423031
61	0xbc6283a4	-0.013825331
62	0x3d80e06c	0.06292805
63	0xbe285ca6	-0.16441593
64	0xbdcf9f59	-0.10137815
65	0xbdd5cd40	-0.10439539
66	0xbeb465ac	-0.3523382
67	0x3d8c801e	0.06860374
68	0x3c88524b	0.016640803
69	0x3dd81555	0.10550944
70	0x3bb1e829	0.005429287
71	0x3e6ee0da	0.23327962
72	0x3d24a852	0.040199585
73	0x3c48b4cd	0.0122501375
74	0xbcd0e00a	-0.025497455
75	0xbd56797e	-0.052361958
76	0xbcf2eb2c	-0.029653154
77	0xbc83a339	-0.016069042
78	0xbdabfabc	-0.08397433
79	0xbdc539b8	-0.096301496
80	0xbccce2b8	-0.025010452
81	0xbce60195	-0.028076926
82	0xb94d1279	-0.00019557205
83	0x3ca2db45	0.019879946
84	0xbcde8eda	-0.027167726
85	0x3dbd518f	0.09244072
86	0xbc5979d7	-0.013273678
87	0xbd1bbb83	-0.038020622
88	0x3a6a2526	0.0008931927
89	0xbaa83294	-0.0012832456
90	0xbb45ccf6	-0.003018198
91	0xbe00ab09	-0.12565245
92	0xbe5c2b86	-0.21500978
93	0xbe146e97	-0.14495312
94	0x3d12d5d8	0.03584847
95	0xbe362447	-0.17787276
96	0xbe068bb4	-0.1313923
97	0xbd7ea264	-0.062166587
98	0x3e6eeea0	0.23333216
99	0x3da0d69b	0.07853433
100	0x3e158043	0.14599709
101	0xbe8893f5	-0.26675382
102	0xbe9c11ed	-0.30482426
103	0xbf72e419	-0.948793
104	0x3e19086f	0.14944623
105	0x3ebe37fc	0.37152088
106	0xbb1f834c	-0.0024339734
107	0x3eabfef2	0.33592945
108	0x3ea8a4a7	0.3293812
109	0x3da66b3c	0.08125922
110	0x3df4da74	0.11955729
111	0x3ea0b11f	0.31385133
112	0xbd8ad595	-0.06779019
113	0xbea712c5	-0.32631508
114	0x3e5fd214	0.21857482
115	0x3ec94292	0.39308602
116	0x3e6bb7ca	0.23019329
117	0xbba68c60	-0.005082652
118	0xbd9ae877	-0.075638704
119	0x3dba5f99	0.09100265
120	0xbd999c9c	-0.07500574
121	0x3d78340b	0.060596507
122	0xbbc95485	-0.0061441087
123	0x3beb5bb5	0.007182563
124	0xbdc094b9	-0.094033666
125	0xbdb458f0	-0.08806026
126	0x3c39d4b3	0.011342215
127	0x3d82f52c	0.06394419
128	0xbc81e0ce	-0.015854266
129	0x3d422bc6	0.047405027
130	0x3cedf826	0.02904899
131	0xbaa26787	-0.0012390473
132	0x3e262b61	0.16227485
133	0x3e1b8c4a	0.15190235
134	0x3e18d8dc	0.14926475
135	0xbdb39b24	-0.08769825
136	0x3d8cc0ab	0.06872686
137	0xbe3ccc55	-0.18437321
138	0xbd2606c6	-0.040533803
139	0xbe09cab3	-0.1345623
140	0xbe62c29c	-0.2214455
141	0xbcd02b0a	-0.025411148
142	0xbe0542de	-0.13013789
143	0xbe2964f7	-0.16542421
144	0xbe54c294	-0.2077735
145	0x3e990fb8	0.29894805
146	0x3eea4ddf	0.45762536
147	0x3e576a8a	0.21036735
148	0xbde6b637	-0.112652235
149	0x3d9b3290	0.075780034
150	0x3e12f339	0.14350595
151	0x3ed8d710	0.4235158
152	0x3bec270e	0.007206804
153	0xbe15776b	-0.14596336
154	0xbdd3132b	-0.103063904
155	0x3ebc3e0d	0.3676609
156	0xbe95ff0d	-0.2929615
157	0x3eaee3e2	0.34158236
158	0x3e4f8a77	0.20267664
159	0x3dff7494	0.124734074
160	0x3e04b440	0.12959385
161	0xbe5f26a0	-0.21792078
162	0x3e5ec4c3	0.21754746
163	0xbf12ee9c	-0.5739534
164	0x3da7d937	0.08195727
165	0x3d562774	0.05228372
166	0x3f33099d	0.69936544
167	0xbe713f31	-0.23559262
168	0x3e16f63d	0.1474237
169	0xbd354262	-0.04425276
170	0x3df45714	0.11930671
171	0xbdabc87f	-0.08387851
172	0x3d0fb4cc	0.03508453
173	0xbd86ca6e	-0.06581579
174	0x3d948632	0.07252158
175	0x3d0b9676	0.034079038
176	0xbca363db	-0.019945076
177	0xbc99dd27	-0.018782211
178	0x3debfc87	0.11522775
179	0x3cb7a7e1	0.022418918
180	0x3e1bcfb5	0.15215953
181	0xbe041fc6	-0.12902746
182	0xbceb9492	-0.028757367
183	0xbe40c6b2	-0.18825796
184	0xbd6e38e8	-0.05815974
185	0xbca60646	-0.020266663
186	0x3e90e656	0.28300732
187	0xbe28fbaf	-0.1650226
188	0xbd5a5166	-0.053300284
189	0xbe2d5b2f	-0.16929315
190	0xbebf52b9	-0.373678
191	0xbcbb46b8	-0.02286087
192	0x3e9aa387	0.30202886
193	0xbd3fb26b	-0.046801012
194	0xbe530c3d	-0.20610137
195	0xbe4df7b0	-0.20114017
196	0x3e6e914e	0.23297617
197	0x3e5ccf05	0.21563347
198	0x3f275fb1	0.6538039
199	0x3f0877cb	0.5330779
200	0x3db9de1b	0.090755664
201	0x3e5da319	0.21644248
202	0xbe9e124a	-0.30873328
203	0x3bff5e1c	0.007793201
204	0xbe643b7e	-0.2228832
205	0xbde09d82	-0.10967542
206	0xbe4e14d6	-0.20125136
207	0xbee8596c	-0.45380723
208	0xbe57f660	-0.21090078
209	0xbe32acf5	-0.1744879
210	0x3e829dd9	0.25511053
211	0xb9345431	-0.00017197501
212	0x3e897a2f	0.2685103
213	0xbe9ad956	-0.3024394
214	0x3c510220	0.012756854
215	0xbe36b301	-0.17841722
216	0x3d233005	0.039840717
217	0xbd764068	-0.060120016
218	0x3d28a2da	0.041170932
219	0xbe19a404	-0.15003973
220	0x3d657dda	0.056028225
221	0x3d3a7c7f	0.045528885
222	0xbddc56dd	-0.10758755
223	0x3d50a979	0.05094287
224	0x3d39cf72	0.04536385
225	0xbc7dde8b	-0.015494953
226	0xbd639ecc	-0.055571362
227	0x3c922fe9	0.017845111
228	0x3e0c5c89	0.13707174
229	0x3e65f7cc	0.22457808
230	0xbdbf32f2	-0.09335889
231	0xbe589882	-0.21151927
232	0xbdcd9364	-0.10037878
233	0x3d9a2636	0.075268194
234	0x3c55ad5b	0.013041819
235	0x3d97bfd9	0.07409639
236	0xbdea6577	-0.11445134
237	0xbe5eebe2	-0.2176967
238	0x3d875849	0.06608636
239	0x3ed0650c	0.40702093
240	0xbe217364	-0.15766674
241	0x3dd4f862	0.10398938
242	0xbeb77baf	-0.3583655
243	0x3e4ecbb2	0.20194891
244	0xbd473eab	-0.04864375
245	0x3e997552	0.2997232
246	0x3cf09c09	0.029371278
247	0xbe0e8767	-0.1391884
248	0xbcf51858	-0.029918835
249	0x3d30ed5b	0.04319511
250	0xbec38a4f	-0.3819146
251	0x3d20a9d1	0.03922445
252	0x3e778d95	0.24175103
253	0x3f1b40cd	0.60645753
254	0xbdbc7ca0	-0.09203458
255	0x3d3d2fe5	0.046188254

actor.0.bias f4 [128]
0	0xbe4b5751	-0.19857527
1	0xbdeca8af	-0.11555611
2	0x3dab2e13	0.08358397
3	0x3c087373	0.0083283065
4	0x3e1a00ea	0.15039411
5	0x3d973941	0.07383967
6	0xbd966d54	-0.073450714
7	0x3d21d0a7	0.039505627
8	0x3c3e2042	0.011604371
9	0x3d1baad1	0.0380047
10	0xbd688645	-0.056768674
11	0x3c46b0ef	0.012127145
12	0xbd86568d	-0.06559477
13	0xbd9c3f2b	-0.07629236
14	0xbd08a42e	-0.0333597
15	0xbce890df	-0.028389392
16	0x3d70e690	0.05881363
17	0xbde26566	-0.110544965
18	0xbc9bbb1f	-0.019010125
19	0xbd1706f8	-0.03687188
20	0xbd092bb0	-0.03348893
21	0x3d3f3bf2	0.046688028
22	0xbdb0ff99	-0.086425014
23	0xbe7f036a	-0.24903646
24	0xbdb62487	-0.08893686
25	0xbd673ac2	-0.05645252
26	0x3d248d85	0.040174026
27	0x3d09d2e1	0.033648375
28	0xbdfa34d3	-0.12217107
29	0x3c795bd9	0.015219652
30	0x3ba2a482	0.0049634585
31	0xbc21678f	-0.00985135
32	0x3e3e1404	0.18562323
33	0x3de0ce3e	0.109768376
34	0xbc2a8275	-0.01040708
35	0x3d372f52	0.044722863
36	0x3d6959a6	0.05697026
37	0xbd6d977e	-0.058005802
38	0xbdf95203	-0.121738456
39	0xbdb76827	-0.08955412
40	0x3cea2df7	0.02858637
41	0xbd02b95c	-0.031915054
42	0x3d6dc581	0.058049683
43	0x3da5ad7e	0.08089732
44	0xbd0d9ca4	-0.034573212
45	0x3d41d60f	0.047323283
46	0xbd4afd30	-0.049557865
47	0x3db8f24b	0.09030589
48	0xbe3d44ae	-0.1848323
49	0x3db0533b	0.08609625
50	0xbc2947fe	-0.010332106
51	0xbd967167	-0.073458485
52	0x3da07baf	0.07836091
53	0x3d1ba247	0.037996557
54	0xbe0c46b7	-0.1369885
55	0xbcd1e787	-0.025623096
56	0x3cee7ccf	0.029112248
57	0xbe471c8b	-0.19444482
58	0x3d14fefa	0.036375977
59	0xbcf6d802	-0.030132297
60	0xbd844c8e	-0.06459914
61	0x3d52eede	0.051497333
62	0xbe66d30c	-0.22541445
63	0x3dda6228	0.10663253
64	0xbe6c1bfe	-0.23057553
65	0xbe23862b	-0.1596915
66	0xbdc6f0b6	-0.09713881
67	0xbe652be5	-0.22380026
68	0xbde23de1	-0.11046959
69	0x3b82b674	0.0039890353
70	0xbd1bb128	-0.038010746
71	0xbd4c89ca	-0.049936093
72	0x3bbd707a	0.0057812305
73	0xbd00aaf4	-0.031413034
74	0x3b5b78d5	0.003348877
75	0x3cd74947	0.026280059
76	0x3e015151	0.12628676
77	0xbddaa2b5	-0.10675565
78	0xbde97fd9	-0.11401338
79	0xbd74eefc	-0.059798226
80	0xbd03e76c	-0.032203123
81	0xbc3647b4	-0.011125494
82	0x3d9b4151	0.075808175
83	0xbda23fc5	-0.07922319
84	0xbe2ecbea	-0.17069975
85	0xbe127357	-0.14301811
86	0x3d84d3bd	0.06485698
87	0xbd224b3d	-0.039622534
88	0x3cfa4db6	0.030554634
89	0x3e08ac1d	0.13346906
90	0xbd73279f	-0.059363957
91	0xbd9fa2b6	-0.077947065
92	0xbda32ed0	-0.07967913
93	0xbca49005	-0.020088205
94	0xbce258f7	-0.027630312
95	0x3d8d9d15	0.06914727
96	0xbe43f095	-0.19134744
97	0xbdea2c9f	-0.11434292
98	0xbe17de95	-0.14831002
99	0xbd73c03b	-0.059509497
100	0x3c26dba2	0.0101842005
101	0xbd1ab6a8	-0.03777185
102	0xbd9e2169	-0.07721216
103	0x3e3944a4	0.1809259
104	0x3d810563	0.062998556
105	0xbd798747	-0.060920026
106	0xbdc09792	-0.0940391
107	0x3da5df7f	0.08099269
108	0x3df77490	0.120827794
109	0xbdffde26	-0.12493543
110	0x3d59e3bf	0.05319571
111	0xbdb236af	-0.08701836
112	0x3e0f0dbb	0.13970082
113	0xbe14fc6c	-0.14549416
114	0xbe1610e5	-0.14654882
115	0xbb86e2d8	-0.0041163974
116	0xbdef1f0b	-0.11675843
117	0xbe2d6262	-0.16932061
118	0x3bd5ee0d	0.006528622
119	0xbd2f8f60	-0.042861342
120	0x3e35c630	0.17751384
121	0x3c9be8a7	0.019031836
122	0xbd7e4124	-0.06207384
123	0xbc211507	-0.0098316735
124	0xbace4e82	-0.001573995
125	0xbda75d06	-0.0817204
126	0x3c0305de	0.007997004
127	0x3cfaeb10	0.030629665

actor.2.weight f4 [128, 128]
0	0x3e009782	0.12557796
1	0x3de61ea0	0.1123631
2	0x3d9b6007	0.07586675
3	0xbd635f5e	-0.05551087
4	0x3dde6f1a	0.10861035
5	0xbcdece57	-0.027198
6	0xbc95884d	-0.01825347
7	0x3d8a2911	0.06746114
8	0x3db2db96	0.08733289
9	0xbe1f303b	-0.15545742
10	0x3e5f9c9f	0.2183709
11	0x3dab8d9f	0.083766215
12	0xbdb6eee5	-0.08932284
13	0xbcd411e5	-0.025887439
14	0x3dfbcd46	0.12295012
15	0x3dbca1cc	0.09210548
16	0x3c9626c5	0.018329034
17	0x3dac4a24	0.08412579
18	0xbc5e6802	-0.013574602
19	0xbc9a6d45	-0.018850932
20	0xbda7fc25	-0.0820239
21	0x3d3b2d39	0.045697425
22	0xbe0c961b	-0.13729136
23	0x3e437896	0.19088969
24	0x3d2716ce	0.040793233
25	0x3d9953b9	0.07486672
26	0x3d7fbd26	0.062436245
27	0x3cec7e6f	0.028868882
28	0xbdb42dde	-0.08797811
29	0xbc7a54d5	-0.015279015
30	0xbd6ad1e4	-0.057329074
31	0x3d9f8386	0.07788758
32	0xbe0c09c3	-0.13675599
33	0x3cb5e5ac	0.022204243
34	0x3ccb2e41	0.024802329
35	0xbd9bce8f	-0.07607757
36	0x3c97140b	0.018442174
37	0x3db84a10	0.08998501
38	0xbc06d604	-0.008229736
39	0x3d691cc7	0.05691221
40	0x3ad48795	0.0016214723
41	0xbca93076	-0.02065299
42	0x3dfad0f8	0.12246889
43	0x3dc4a91f	0.0960257
44	0x3d8a5a1d	0.06755469
45	0xbe2c5fc7	-0.16833411
46	0xbdc1aaa8	-0.09456378
47	0xbd5e1678	-0.054220647
48	0xbca5e4fb	-0.020250788
49	0xbca07858	-0.019588634
50	0x3cb92c0c	0.022604011
51	0xbb13117b	-0.002244084
52	0xbc173856	-0.00922974
53	0xbdc55956	-0.0963618
54	0x3cc1f2c2	0.023675326
55	0xbdada1f4	-0.08478156
56	0xbdd380cc	-0.103273004
57	0x3dbc5a73	0.09196939
58	0x3c673645	0.01411206
59	0x3d5c12db	0.05372892
60	0xbe51802e	-0.20459053
61	0xbde92f72	-0.113860026
62	0x3e028304	0.12745291
63	0xbde21dbc	-0.11040828
64	0x3dca3322	0.09873034
65	0x3e25c74f	0.16189311
66	0xbdf9d142	-0.12198116
67	0x3d8edca5	0.06975678
68	0x3dca5f3d	0.098814465
69	0x3d902c45	0.07039694
70	0xbd20ff60	-0.039306045
71	0xbd6d7e11	-0.057981554
72	0x3cf080dd	0.029358322
73	0xbdf48ce1	-0.11940933
74	0x3d969cba	0.07354112
75	0x3dba59a2	0.09099127
76	0x3ba1e9bd	0.004941194
77	0xbd9748ef	-0.07386958
78	0xbdee5be7	-0.11638623
79	0x3d4fa8f7	0.050698247
80	0xbe16b9e0	-0.14719343
81	0x3df4f2ce	0.11960374
82	0xbda7a8cb	-0.081864916
83	0x3e1830ea	0.14862409
84	0x3caacc99	0.020849513
85	0xbdc63505	-0.096780814
86	0x3d2a985d	0.04164921
87	0x3db3f8bf	0.08787679
88	0x3db81fdd	0.089904524
89	0x3d241336	0.040057383
90	0xbd3f5da8	-0.046720177
91	0xbd958e2f	-0.0730251
92	0x3d857f67	0.06518441
93	0xbb1e99b2	-0.0024200496
94	0x3d110b7e	0.03541135
95	0x3e2da0c6	0.16955861
96	0xbd76f1cb	-0.060289185
97	0xbd4e1018	-0.050308317
98	0x3de422b7	0.11139434
99	0xbd2a477f	-0.04157209
100	0x3d3c88ff	0.046029087
101	0x3d88cc95	0.06679646
102	0xbda7b7fc	-0.08189389
103	0x3c2942fb	0.010330911
104	0x3c33a43c	0.0109644495
105	0xbd239a91	-0.039942328
106	0x3d3cc902	0.046090133
107	0x3d4f75d8	0.050649494
108	0xbcb38f0a	-0.021918792
109	0x3e38a5f7	0.1803206
110	0x3d86bd31	0.06579054
111	0x3e11ad8b	0.14226358
112	0xbd146cbb	-0.036236506
113	0x3d2c2b51	0.042033497
114	0xbe3f5940	-0.1868639
115	0xbd4787a1	-0.04871333
116	0x3e4c2bf2	0.19938639
117	0xbd63c238	-0.055605143
118	0xbc71e51d	-0.0147640975
119	0x3e3141f9	0.17310323
120	0x3bf72a8d	0.0075429142
121	0xbdb6eab8	-0.08931488
122	0x3e130d95	0.1436065
123	0xbe8201dc	-0.25392044
124	0x3e17b6aa	0.14815775
125	0xbd9046c2	-0.07044746
126	0xbd2aadb8	-0.041669577
127	0x3cdc8744	0.026919968
128	0x3e1309cf	0.1435921
129	0x3d1373a6	0.035998963
130	0xbd14e7b0	-0.036353767
131	0xba514ddd	-0.000798432
132	0x3e00e75d	0.12588258
133	0x3da92128	0.08258277
134	0x3b99c3c7	0.004692528
135	0x3deb6f1b	0.11495801
136	0xbe1035b4	-0.14082986
137	0x3d5cace2	0.05387581
138	0xbdadb713	-0.08482184
139	0xbe16dc98	-0.14732587
140	0x3d42ebda	0.047588207
141	0xbda6300a	-0.081146315
142	0xbde77ad6	-0.11302726
143	0x3d43f09f	0.047836896
144	0x3d928530	0.0715431
145	0xbdf56f42	-0.11984111
146	0xbd5b8beb	-0.053600233
147	0x3dd801f5	0.10547248
148	0xbd99bc32	-0.075065985
149	0xbe711096	-0.23541483
150	0x3e038f73	0.1284769
151	0xbdb565d4	-0.08857313
152	0x3d440938	0.047860354
153	0xbdbaade5	-0.09115199
154	0x3d292c8a	0.04130224
155	0xbdfc5d61	-0.12322498
156	0xbb0cf084	-0.0021505663
157	0xbe1e8117	-0.15478931
158	0xbcf9453d	-0.030428523
159	0xbb9589e4	-0.004563557
160	0x3e410493	0.18849401
161	0x3cebc156	0.028778713
162	0xbdf46a12	-0.11934294
163	0xbe834ff6	-0.25646943
164	0x3c4d0065	0.012512301
165	0x3d4ec64b	0.050482076
166	0xbd96dd0e	-0.073663816
167	0xb8f98e97	-0.00011899805
168	0x3ce27b0b	0.027646562
169	0xbddbac54	-0.10726228
170	0x3ddc4809	0.10755927
171	0x3da9fc86	0.08300118
172	0x3d7fe47d	0.062473763
173	0xbe3fd51b	-0.18733637
174	0xbdc5af1d	-0.09652541
175	0x3ccc6ad9	0.024953293
176	0xbdccd1d5	-0.1000096
177	0xbc7535cf	-0.014966442
178	0x3d5b1ef7	0.053496327
179	0xbb212547	-0.002458887
180	0xbdce088e	-0.100602254
181	0xbbd8ea66	-0.0066197393
182	0x3dc8e532	0.098093405
183	0xbd2b9302	-0.041888244
184	0x3dfb9aa4	0.12285355
185	0xbd640ede	-0.05567824
186	0xbe1c3c43	-0.15257363
187	0x3d079fae	0.033111267
188	0x3a622abe	0.0008627585
189	0x3d3c0470	0.04590267
190	0xbc2a42f3	-0.0103919385
191	0x3d92579a	0.07145615
192	0x3da3c39b	0.07996293
193	0xbdc74e05	-0.09731678
194	0xbd267432	-0.040638156
195	0xbdd33c64	-0.10314253
196	0xbc6e80e6	-0.014557099
197	0xbd2c0543	-0.041997205
198	0x3d556cfa	0.05210588
199	0xbc4beb3a	-0.012446219
200	0xbd8390fe	-0.064241394
201	0x3ddc3a00	0.1075325
202	0xbdcc4881	-0.099747665
203	0xbdd041c7	-0.10168796
204	0xbdccf7dc	-0.10008213
205	0x3d7e2b06	0.06205275
206	0x3dcce9ec	0.100055546
207	0xbd933241	-0.071873195
208	0x3c4dbaeb	0.012556772
209	0xbd0d891a	-0.03455458
210	0x3e017111	0.12640788
211	0xbdf94073	-0.12170496
212	0xbdd793ef	-0.10526263
213	0x3cf3b119	0.029747533
214	0xbd41019a	-0.047120668
215	0x3dbcbe29	0.09215958
216	0xbddf6960	-0.109087706
217	0x3e00be91	0.12572695
218	0x3db24c70	0.087059855
219	0x3e2ced86	0.16887483
220	0x3d2d1461	0.042255763
221	0xbde6b446	-0.11264853
222	0xbc92abd3	-0.017904198
223	0x3d58c657	0.052923527
224	0xbc96f0ef	-0.018425433
225	0xbe0d8c3d	-0.13823028
226	0x3dfe4446	0.12415366
227	0xbcf0e4b3	-0.029405927
228	0x3dc00d89	0.093775816
229	0xbd8faea0	-0.07015729
230	0xbd4411ea	-0.047868647
231	0x3dbd54f0	0.09244716
232	0xbdabc8da	-0.08387919
233	0xbd8dd7ed	-0.0692595
234	0xbdf19319	-0.11795635
235	0xbdda2a9c	-0.10652658
236	0xbc973e41	-0.018462302
237	0xbde31eac	-0.110898346
238	0x3cadb350	0.021203667
239	0x3dda57b1	0.10661257
240	0x3d71dae7	0.059046652
241	0xbd54ff5e	-0.05200135
242	0xbcb48c0b	-0.022039434
243	0x3d7137b4	0.058891013
244	0xbe08c6b1	-0.13357045
245	0xbc3e9137	-0.011631302
246	0xbb56c407	-0.003277065
247	0x3ccf691c	0.025318675
248	0x3cfac663	0.030612176
249	0xbded09ab	-0.1157411
250	0xbceb5b07	-0.028729929
251	0xbe0cbb26	-0.13743266
252	0xbdd3e699	-0.103467174
253	0xbe021746	-0.1270419
254	0xbd9e11b5	-0.07718221
255	0x3ce5206c	0.027969562

actor.2.bias f4 [128]
0	0xbe250807	-0.16116343
1	0x3c024bd9	0.007952654
2	0xbe1ccaf2	-0.15311792
3	0xbddbf7fe	-0.1074066
4	0x3cb6c5d9	0.022311138
5	0xbdb31b7f	-0.08745479
6	0x3c525924	0.012838636
7	0xbdc53cea	-0.09630759
8	0xbd0f9e5e	-0.03506314
9	0x3d047ba9	0.032344494
10	0xbe21e1c1	-0.15808775
11	0xbdb76b26	-0.08955984
12	0xbd3ebcb5	-0.046566684
13	0xbcc67f7a	-0.024230707
14	0xbd986a47	-0.07442146
15	0xbde4e1e6	-0.11175899
16	0xbdd6485f	-0.104630224
17	0xbd2912bd	-0.041277636
18	0xbc2abfe3	-0.010421726
19	0xbdbf6d7b	-0.093470536
20	0xbc53b864	-0.01292238
21	0xbd2579d3	-0.040399384
22	0xbd285832	-0.041099735
23	0xbdf7b9e9	-0.120960064
24	0xbdd2832f	-0.102789275
25	0xbe3b8054	-0.18310672
26	0xbdaa9fed	-0.08331285
27	0xbda35aa9	-0.079762764
28	0xbc7292e5	-0.01480553
29	0xbe51250c	-0.20424289
30	0xbd16a56e	-0.03677886
31	0x3b02b440	0.0019943863
32	0x3b822cee	0.003972641
33	0xbde622e4	-0.112371236
34	0x3ac2bf38	0.0014858013
35	0xbe218534	-0.15773469
36	0xbd21965e	-0.039450042
37	0xbd5d59c9	-0.054040704
38	0x3d8e6a7d	0.06953905
39	0xbd524439	-0.051334593
40	0xbe30cf30	-0.17266536
41	0x3ba6620e	0.005077607
42	0xbbeefff6	-0.0072936965
43	0xbdbccf7a	-0.092192605
44	0xbde30c3a	-0.110863164
45	0xbd265c37	-0.040615287
46	0xbd425370	-0.047442853
47	0xbe599e36	-0.21251759
48	0xbd315468	-0.043293387
49	0xbd3d3a35	-0.04619809
50	0xbdb87fbc	-0.090087384
51	0xbe30a37b	-0.17249863
52	0xbdf98a26	-0.12184553
53	0xbd1f582f	-0.038902458
54	0xbd64859c	-0.055791482
55	0xbe4ce377	-0.20008646
56	0xbce885ba	-0.028384078
57	0xbe03d0f9	-0.12872685
58	0xbda7db9c	-0.08196184
59	0xbd2628b7	-0.040566172
60	0x3d423c93	0.04742105
61	0xbd7d5609	-0.061849628
62	0x3d7e6929	0.062112007
63	0x3d59f529	0.05321232
64	0x3ad51ba7	0.0016258851
65	0xbe41843f	-0.18898104
66	0xbb56a6f5	-0.0032753323
67	0xbdea4b7e	-0.1144018
68	0xbe093bb8	-0.13401687
69	0x3d819e9c	0.063290805
70	0xbc8ab2ae	-0.016930904
71	0x3db0c248	0.08630806
72	0xbd94bb08	-0.07262236
73	0xbd0d9dd5	-0.03457435
74	0xbd74bd90	-0.059751093
75	0xbd44848f	-0.04797798
76	0x3dee9cfb	0.116510354
77	0xbdb256d6	-0.08707969
78	0xbcee22a8	-0.02906926
79	0xbe220af7	-0.15824495
80	0xbd2ee408	-0.042697936
81	0x3d6a5fe9	0.057220373
82	0xbdaae9f9	-0.08345408
83	0xbdf456d4	-0.11930624
84	0x3ca1feef	0.019774882
85	0xbd89bf74	-0.0672597
86	0xbda41ab5	-0.080129065
87	0xbca2d73e	-0.019878026
88	0xbca2db1c	-0.01987987
89	0xbd9069b7	-0.070514135
90	0x3cd1d5eb	0.0256147
91	0x3dd19da6	0.10235147
92	0x3c03894e	0.008028341
93	0xbb4c5a12	-0.0031181616
94	0xbd8d2947	-0.06892639
95	0xbdb37cb6	-0.08764021
96	0xbdba4775	-0.090956606
97	0xbdb58c50	-0.08864653
98	0x3dbac0f3	0.091188334
99	0x3d3ac7ad	0.045600582
100	0xbe250e2d	-0.16118689
101	0xbd301510	-0.042988837
102	0xbd402b3c	-0.04691623
103	0x3ca50f16	0.020148795
104	0xbdd715ca	-0.10502203
105	0xbd9f64f0	-0.07782924
106	0xbe1da75a	-0.15395871
107	0xbbd3a506	-0.0064588813
108	0xbd7a3257	-0.061083164
109	0x3c298557	0.010346732
110	0xbe1d256f	-0.15346311
111	0xbdb073c9	-0.08615834
112	0xbd76063c	-0.06006454
113	0x3bb1d6c6	0.0054272143
114	0xbcf501a3	-0.029908007
115	0xbd02b027	-0.031906273
116	0xbd8c76c0	-0.06858587
117	0x3aa1dff0	0.0012350064
118	0xb9930bf3	-0.00028046928
119	0xbe57398a	-0.21018043
120	0xbdf4cdd1	-0.11953319
121	0xbc0fb05f	-0.0087700775
122	0xbe0baf7d	-0.13641162
123	0xbe002550	-0.12514234
124	0x3d961396	0.073279545
125	0x3db88179	0.0900907
126	0xbe2c164e	-0.16805384
127	0xbd3d96b9	-0.04628632

actor.4.weight f4 [128, 128]
0	0xbc871b14	-0.016492404
1	0xbd15b874	-0.03655286
2	0xbc62a531	-0.01383333
3	0x3d1b7f3e	0.037963144
4	0x3d26966a	0.04067079
5	0x3e915900	0.28388214
6	0x3c910c3e	0.017706033
7	0xbe450a54	-0.19242221
8	0xbd4b7993	-0.04967649
9	0x3df34dc6	0.118800685
10	0x3d3d65e7	0.04623976
11	0x3dec12ac	0.11526999
12	0x3dde748e	0.10862075
13	0xbe021d03	-0.1270638
14	0xbd868232	-0.065678015
15	0x3d327a2b	0.04357354
16	0xbd0821fc	-0.033235535
17	0x3c8e5ffb	0.017379751
18	0x3dcec4a1	0.10096098
19	0xbe04b91f	-0.12961243
20	0x3e4a1682	0.19735149
21	0xbea2c487	-0.31790563
22	0xbd92d35a	-0.07169218
23	0x3cbdff4d	0.023193026
24	0xbd07db12	-0.033167906
25	0xbe3c297d	-0.18375202
26	0x3dbc0814	0.09181228
27	0xbd20e1b4	-0.039277747
28	0x3c169afc	0.009192225
29	0xbd161220	-0.03663838
30	0x3db6bb0e	0.089223966
31	0xbde70609	-0.11280448
32	0x3dbe6208	0.09296042
33	0x3e0102dc	0.12598747
34	0xbe4250a8	-0.1897608
35	0x3d616a0e	0.055032782
36	0x3e3949ef	0.1809461
37	0xbddbcf4b	-0.10732897
38	0xbd2c1319	-0.0420104
39	0x3d3862c3	0.04501606
40	0x3dcf1ab4	0.10112515
41	0xbe9bc429	-0.30423096
42	0xbe3023f4	-0.17201215
43	0xbe367f75	-0.17822058
44	0xbe630105	-0.22168358
45	0x3db4c3b3	0.08826389
46	0xbda8d2ed	-0.08243356
47	0xbce9f4aa	-0.028559048
48	0x3d855043	0.06509449
49	0xbd597ecf	-0.05309945
50	0x3c3891e1	0.011265249
51	0xbde731e9	-0.112888165
52	0xbe62841b	-0.22120707
53	0xbd41aace	-0.047282033
54	0xbd8b8156	-0.06811778
55	0xbd9df659	-0.07713003
56	0xbd9a1cce	-0.07525025
57	0x3d2627d9	0.040565345
58	0xbdbcb6c6	-0.09214549
59	0x3acec7ef	0.0015776138
60	0xbd0f9ee2	-0.03506363
61	0xbe10180c	-0.14071673
62	0x3d6a0581	0.057134155
63	0xbc35a55d	-0.011086789
64	0x3dadeef2	0.08492841
65	0xba3f15c0	-0.0007289313
66	0xbbc12938	-0.0058948062
67	0x3c123732	0.008924292
68	0x3e86c68c	0.26323354
69	0x3e20c334	0.15699464
70	0x3de02507	0.109445624
71	0xbd0231aa	-0.031785645
72	0xbe246f8f	-0.16058181
73	0xbe0b028e	-0.13575193
74	0x3ab29d76	0.0013627249
75	0x3db972b9	0.09055085
76	0x3ccb6415	0.024827996
77	0x3d1a4079	0.037659142
78	0xbcb426d0	-0.021991163
79	0x3c5d31b7	0.0135006225
80	0x3e02ce29	0.12773956
81	0x3cd84f6a	0.026405055
82	0x3ddf65bc	0.10908076
83	0x3cd11ca2	0.025526349
84	0x3ddaaf78	0.10677999
85	0x3e34685e	0.17617938
86	0x3e219420	0.15779161
87	0xbce3f831	-0.027828308
88	0x3ddf15b5	0.10892812
89	0xbdc2da8c	-0.09514341
90	0xbd3b4b4c	-0.045726106
91	0xbd387a96	-0.045038782
92	0xbd093d25	-0.033505578
93	0xbe718a75	-0.23587973
94	0x3c078dca	0.008273551
95	0xbd068dfc	-0.03285025
96	0x3d31f7d3	0.043449234
97	0x3cc6760c	0.024226211
98	0xbe05a72b	-0.13052051
99	0xbbde07f5	-0.006775851
100	0x3e18f00a	0.14935318
101	0xbe3309f9	-0.17484273
102	0xbd97a904	-0.07405284
103	0xbcac0124	-0.020996638
104	0x3cfccb9e	0.030858811
105	0x3d1531fd	0.036424626
106	0x3d091438	0.033466548
107	0x3c2f990a	0.01071764
108	0xbdaea528	-0.08527595
109	0xbd604135	-0.054749686
110	0xbda42e5e	-0.08016656
111	0xbd91c885	-0.07118324
112	0xbde1b48c	-0.11020765
113	0xbd806c36	-0.062706396
114	0xbba69565	-0.005083727
115	0xbc5555e2	-0.013020964
116	0xbe20b25a	-0.15693036
117	0xbc056317	-0.008141301
118	0x3e098574	0.13429815
119	0x3da9cf52	0.08291496
120	0x3dd23ea7	0.10265856
121	0xbd147017	-0.03623971
122	0xbde73c65	-0.11290816
123	0x3dd918f1	0.1060046
124	0xbe084bdb	-0.13310187
125	0xbe8450f4	-0.25843012
126	0x3d832c2a	0.06404908
127	0x3e492c58	0.19645822
128	0xbd11b7b3	-0.03557558
129	0xbcb97a1f	-0.02264124
130	0x3c34de81	0.011039377
131	0xbd93260e	-0.07184993
132	0xbd8b3d9f	-0.06798863
133	0xbe9d766f	-0.3075442
134	0xbe0489eb	-0.12943237
135	0xbd39333a	-0.04521487
136	0x3ca12c8f	0.019674568
137	0x3d9c66d5	0.07636801
138	0xbca09d05	-0.019606123
139	0x3ca1ddce	0.019759085
140	0x3db7d8e0	0.089769125
141	0x3d6974ec	0.05699627
142	0xbb1c706f	-0.0023870727
143	0x3d966f50	0.0734545
144	0x3db99f62	0.09063603
145	0x3cc9d081	0.024635555
146	0x3d18a1a4	0.037263528
147	0xbe044851	-0.12918212
148	0xbd84e363	-0.06488683
149	0xbd8027c3	-0.06257584
150	0xbd2c2dd1	-0.04203588
151	0xbd00db2d	-0.031459022
152	0xbcb334d5	-0.021875778
153	0x3daf05b3	0.08546009
154	0xbe92944f	-0.28628775
155	0xbd6197c8	-0.05507639
156	0xbe00e594	-0.12587577
157	0x3d7042e9	0.05865756
158	0x3b4620b1	0.0030231888
159	0x3d83afa5	0.06429986
160	0xbd44f0f2	-0.048081346
161	0xbdf1e869	-0.11811907
162	0xbd8f7665	-0.07005004
163	0x3e504a57	0.20340858
164	0xbe293fb2	-0.16528204
165	0xbda0f685	-0.0785952
166	0xbcf4fa30	-0.029904455
167	0xbd6de156	-0.058076225
168	0x3d2df60d	0.04247098
169	0xbd3f5335	-0.04671021
170	0x3d4e9186	0.05043175
171	0xbc573f90	-0.013137713
172	0xbdc5d069	-0.09658892
173	0x3cb67e89	0.022277134
174	0x3d8d7451	0.06906951
175	0x3e033d9d	0.12816472
176	0x3d82852e	0.06373058
177	0xbc839a25	-0.016064713
178	0x3c97d257	0.018532915
179	0x3da78cef	0.08181178
180	0xbc98b59e	-0.01864129
181	0x3e222a73	0.15836506
182	0xbdc48aa4	-0.09596756
183	0x3b8798b6	0.0041380776
184	0xbd2c56f6	-0.04207512
185	0x3de8ac3a	0.113609746
186	0xbd0421eb	-0.03225891
187	0x3d30a6e1	0.043127898
188	0xbde330f3	-0.11093321
189	0xbe00eebd	-0.12591071
190	0x3e2bf1e7	0.16791497
191	0x3dcba275	0.099430956
192	0x3db2ff8d	0.08740149
193	0xbc1a0402	-0.00940037
194	0xbd9c2320	-0.07623887
195	0x3e3eeba5	0.18644579
196	0x3d95e254	0.07318559
197	0xbe188f96	-0.14898524
198	0x3d00ce70	0.031446874
199	0x3dd15256	0.102207825
200	0x3daf186a	0.085495785
201	0xbd831d20	-0.064020395
202	0xbd82ab5b	-0.0638034
203	0xbce2d28b	-0.027688285
204	0xbdc258d3	-0.09489598
205	0xbd4cea39	-0.05002806
206	0x3d26e7d6	0.04074844
207	0x3d9a5c62	0.07537152
208	0xbdec9fb1	-0.11553896
209	0xbe3e792a	-0.18600908
210	0x3dbd5d06	0.092462584
211	0x3d572d4d	0.052533437
212	0xbd6da404	-0.058017746
213	0xbe0e6e00	-0.13909149
214	0xbbafde9e	-0.005367114
215	0xbd874ce9	-0.06606466
216	0x3d9606a8	0.07325488
217	0x3e1140fc	0.14184946
218	0xbda23285	-0.07919792
219	0x3bb9a82a	0.0056657987
220	0x3ce9df31	0.028548809
221	0x3de847fd	0.11341856
222	0xbd8be59d	-0.06830905
223	0x3d5679f6	0.052362405
224	0x3dd23c20	0.10265374
225	0xbcafc4a0	-0.021456063
226	0xbd49a2be	-0.04922747
227	0xbd22e9e5	-0.03977384
228	0xbd767d1a	-0.0601779
229	0xbdd8bd0e	-0.10582934
230	0xbe1cfd06	-0.15330896
231	0xbdbb9a87	-0.09160333
232	0xbd168dfd	-0.036756504
233	0x3d7e4f36	0.06208726
234	0x3e06b0d1	0.13153388
235	0x3baebf61	0.0053328727
236	0xbe02c6dd	-0.12771173
237	0xbc850b16	-0.016240638
238	0xbd87f2dd	-0.06638119
239	0x3bd91bdc	0.0066256355
240	0x3d7ecc45	0.062206525
241	0xbe149bf4	-0.14512616
242	0xbe001059	-0.12506236
243	0x3e02f90b	0.12790315
244	0xbe63106c	-0.22174233
245	0xbda50d45	-0.080591716
246	0xbdef1618	-0.11674136
247	0x3d28e48e	0.04123359
248	0xbdcc722c	-0.09982714
249	0xbc85c783	-0.016330486
250	0x3d92bee7	0.07165318
251	0xbcddabfd	-0.02705955
252	0xbe742edf	-0.23846005
253	0xbc28705c	-0.010280695
254	0x3de5e1aa	0.11224683
255	0x3d773ebe	0.06036257

actor.4.bias f4 [128]
0	0xbdc9d6aa	-0.09855397
1	0x3c914f98	0.017738149
2	0xbe1c909b	-0.15289538
3	0xbe34297e	-0.17593953
4	0xbd4b034e	-0.0495637
5	0xbe2575ad	-0.16158171
6	0x3d18f8cf	0.037346657
7	0xbddbdbb4	-0.107352644
8	0xbc3c4f71	-0.01149355
9	0xbe3e38be	-0.18576333
10	0xbe846493	-0.25857982
11	0xbe3a3e49	-0.18187822
12	0xbc3faa73	-0.011698353
13	0x3e07fa7a	0.13279143
14	0x3c136b92	0.008997815
15	0x3e10841a	0.14112893
16	0xbd4bb552	-0.049733467
17	0x3e06897e	0.13138387
18	0x3e17e3cc	0.14832991
19	0xbe37c4e5	-0.17946203
20	0x3d114420	0.03546536
21	0xbd0d809e	-0.034546487
22	0xbd47d336	-0.04878541
23	0x3d291401	0.041278843
24	0xbda4be6d	-0.08044133
25	0xbc75d89e	-0.015005259
26	0xbd9d7cda	-0.07689829
27	0xbe0ea3ad	-0.13929625
28	0x3e14eb57	0.145429
29	0xbc730349	-0.014832326
30	0x3d84d220	0.06485391
31	0xbd268328	-0.040652424
32	0xbdda010e	-0.106447324
33	0x3cf40d1e	0.029791411
34	0xbacb5fd1	-0.0015516226
35	0xbd9f832d	-0.07788692
36	0xbe3605b9	-0.1777562
37	0xbe674087	-0.22583209
38	0x3ca8bfab	0.020599207
39	0xbde47f50	-0.111570954
40	0x3d57d50a	0.052693404
41	0x3d7d7928	0.06188312
42	0xbe527962	-0.20554116
43	0xbd945e40	-0.07244539
44	0xbe4e36d3	-0.20138101
45	0xbda13972	-0.07872285
46	0x3d05d9c0	0.032678366
47	0xbd6d286a	-0.05789987
48	0x3d99f778	0.07517904
49	0xbe566fdd	-0.2094111
50	0xbd4ee8cd	-0.050514985
51	0x3d002527	0.03128543
52	0x3d964102	0.07336618
53	0xbd8b5863	-0.06803968
54	0xbc137b81	-0.009001614
55	0x3de66200	0.11249161
56	0x3c41c0e5	0.011825775
57	0x3dcbb3b9	0.09946389
58	0xbc4a5cf0	-0.01235126
59	0xbdd07a83	-0.10179617
60	0xbe34eb26	-0.17667827
61	0xbd594291	-0.053042
62	0xbd96de4d	-0.07366619
63	0xbd3ef41f	-0.04661953
64	0x3d0091b6	0.03138896
65	0xbdc67754	-0.09690729
66	0xbd497187	-0.049180534
67	0xbd2743a2	-0.040835984
68	0xbc81be86	-0.015837919
69	0x3d301539	0.04298899
70	0x3bdb1263	0.0066855415
71	0xbe355dda	-0.17711583
72	0xbdfbe25f	-0.12299036
73	0x3d27fed5	0.04101451
74	0xbda2ef6a	-0.07955821
75	0xbdd5248c	-0.104073614
76	0x3d89777a	0.067122415
77	0xbccfb712	-0.02535585
78	0xbdb59a76	-0.08867352
79	0xbcd889ad	-0.026432836
80	0xbd9e19a8	-0.07719737
81	0x3d3dd6b2	0.046347328
82	0x3c971344	0.018441804
83	0x39544d45	0.0002024668
84	0xbd5770c4	-0.052597776
85	0xbe24c5c8	-0.16091073
86	0xbc92899d	-0.017887885
87	0x3da7cb94	0.08193126
88	0x3d8103be	0.06299542
89	0xbcd91d2a	-0.026503164
90	0x3de3f2ab	0.111302696
91	0xbc4e8162	-0.012604089
92	0xbe3584eb	-0.17726485
93	0xbd967afc	-0.07347676
94	0xbe763a57	-0.24045692
95	0xbe1f263f	-0.15541933
96	0x3d9a54a0	0.07535672
97	0x3ceff12f	0.02928981
98	0xbc706a0a	-0.014673719
99	0x3deaf10a	0.11471756
100	0xbe42f462	-0.19038537
101	0xbd8b573a	-0.068037465
102	0xbdd91d42	-0.106012836
103	0xbdc6d151	-0.09707893
104	0xbd2c35f5	-0.042043645
105	0xbd889431	-0.0666889
106	0xbdb1636f	-0.086615436
107	0x3a5f72a2	0.00085238565
108	0xbdd1b9e7	-0.10240536
109	0x3c298f4c	0.010349106
110	0xbe4f4be3	-0.20243792
111	0xbd54156d	-0.051778246
112	0x3e37a1c5	0.17932804
113	0xbe3b8da4	-0.1831575
114	0x3dd243c9	0.10266835
115	0xbde806c1	-0.11329413
116	0xbe706e83	-0.23479657
117	0xbe07bc74	-0.13255483
118	0xbe461845	-0.19345196
119	0xbe120c6c	-0.14262551
120	0xbe208192	-0.15674427
121	0xbe44671e	-0.19179961
122	0x3dfabbc2	0.12242843
123	0x3c8306c8	0.015994444
124	0xbb9cc2e6	-0.004783976
125	0x3e3621c8	0.17786324
126	0xbe4ef1bb	-0.202094
127	0xbdd6da8e	-0.10490905

actor.6.weight f4 [12, 128]
0	0x3dcfdbdc	0.10149357
1	0xbd826873	-0.06367578
2	0x3d6aba67	0.057306673
3	0xbda7c813	-0.08192458
4	0xbc937123	-0.017998284
5	0x3b78c453	0.0037958815
6	0xbd42cfd9	-0.0475615
7	0x3b72ba42	0.0037037288
8	0xbd33c72f	-0.04389113
9	0x3de96133	0.113954924
10	0x3b9aea68	0.0047276504
11	0x3c2b0881	0.010439039
12	0xbc9e6d25	-0.019339154
13	0xbdc65f83	-0.09686186
14	0xbd520a30	-0.051279247
15	0x3d03cbae	0.032176666
16	0xbc16cdd9	-0.009204351
17	0xbd52ad22	-0.051434644
18	0xbd21efc7	-0.03953531
19	0x3cb25371	0.021768304
20	0xbcff6068	-0.0311739
21	0x3d77325a	0.060350753
22	0xbcaf2c7b	-0.021383515
23	0xb9687d8e	-0.00022172017
24	0xbcdb8766	-0.026797961
25	0xbb11c216	-0.0022240928
26	0xbcdb6000	-0.026779175
27	0x3d4150bd	0.04719614
28	0x3cf72d24	0.030172892
29	0x3cadd50e	0.021219756
30	0xbc1e9815	-0.009679814
31	0x3b84a1e8	0.004047621
32	0xbbce6825	-0.006299036
33	0x3bb09f05	0.0053900504
34	0xbd97df82	-0.074156776
35	0x3b39a268	0.0028325561
36	0xbd1529cd	-0.036416817
37	0xba71f6b1	-0.00092301803
38	0xbd58663d	-0.052831877
39	0xbcee17ec	-0.029064141
40	0xbb930a89	-0.00448734
41	0xb976fad0	-0.00023553823
42	0xbe7267dd	-0.23672433
43	0xbcdbf238	-0.026848897
44	0xbd4832da	-0.04887662
45	0xbcad0c53	-0.02112404
46	0xbc942f4c	-0.01808896
47	0x3c84d2bd	0.01621377
48	0xbd0db9e4	-0.034601107
49	0x3ddfec3b	0.10933729
50	0xba709666	-0.00091776846
51	0x3a3c9424	0.00071937055
52	0xbd0f5127	-0.034989502
53	0x3c8b488e	0.01700237
54	0xbd042165	-0.03225841
55	0xbbcca767	-0.006245542
56	0x3b36be76	0.002788452
57	0xbda50100	-0.08056831
58	0x3cdf3d95	0.027251044
59	0xbd0fced1	-0.035109345
60	0x3ca9d1f3	0.020729994
61	0x3d4a1f12	0.049346037
62	0x38b2e49a	8.530282e-05
63	0xbdd3c340	-0.10339975
64	0x3cc7f7a6	0.02441008
65	0xbcc76370	-0.024339408
66	0x3d53f158	0.051743835
67	0xbca82110	-0.020523578
68	0x3d962e7e	0.073330864
69	0x3cbd11b9	0.02307974
70	0xbb717c88	-0.0036847908
71	0x3d877561	0.06614185
72	0x3d0cc78d	0.034369994
73	0xbd5035c2	-0.050832517
74	0xbcc1efe5	-0.023673961
75	0x3c84dec2	0.0162195
76	0xbc9ec48e	-0.019380834
77	0x3d5d5930	0.054040134
78	0x3dab4499	0.08362693
79	0xbd2b5435	-0.041828353
80	0x3d49909e	0.049210183
81	0xbcc1abb0	-0.023641437
82	0xbb50db56	-0.0031869016
83	0xbd295804	-0.041343704
84	0xbcb1564f	-0.0216476
85	0x3cfc2a45	0.030781874
86	0x3d9d3987	0.07676988
87	0xbccc4031	-0.024932953
88	0xbc014ea8	-0.007892288
89	0xbca6a683	-0.02034307
90	0xbce70a3b	-0.02820312
91	0xbaa57728	-0.0012624012
92	0x3c771b1f	0.01508215
93	0x3c88ded7	0.01670782
94	0x3dd14cf7	0.10219758
95	0xbc0c84fc	-0.008576628
96	0xbd45a61e	-0.048254125
97	0xbd2ee4ef	-0.042698797
98	0x3d55295d	0.0520414
99	0xbd975b19	-0.073904224
100	0xbc9677ab	-0.018367609
101	0xbdb2c08c	-0.08728132
102	0xbd1a7866	-0.037712477
103	0xbd19bfe2	-0.03753651
104	0x3c8c7630	0.0171462
105	0x3d8d0166	0.06885032
106	0xbcb53420	-0.022119582
107	0xbced2260	-0.028947055
108	0x3e09f669	0.13472904
109	0x3d364e93	0.044508528
110	0xbcb2714b	-0.021782538
111	0x3c2fce71	0.010730372
112	0xbd04255e	-0.0322622
113	0xbcd588f4	-0.02606628
114	0xbd0bb4d2	-0.03410799
115	0xbd968e63	-0.07351377
116	0x3de520ed	0.11187921
117	0x3d097b7b	0.033565026
118	0x3d15f032	0.03660602
119	0xbbff56e7	-0.007792342
120	0x3c996d1c	0.018728785
121	0x3d3c420b	0.04596142
122	0xbd29b17f	-0.04142904
123	0xbd695282	-0.05696345
124	0xbd41a3c9	-0.04727534
125	0xbd1a3f2e	-0.03765791
126	0x3d92f96e	0.07176481
127	0x3d229f94	0.039702967
128	0xbcd62729	-0.02614172
129	0x3c9473a8	0.018121555
130	0x3c354e4a	0.011066029
131	0x3d4671b2	0.048448272
132	0x3d7c7fd0	0.06164533
133	0x3d368ca0	0.044567704
134	0x3d5325cf	0.05154973
135	0x3db5c583	0.08875563
136	0x3c137e16	0.009002229
137	0x3d85e40a	0.065376356
138	0x3de24974	0.11049166
139	0x3ce56caf	0.028005926
140	0x3c8262b2	0.015916202
141	0xbd8a9cfc	-0.06768224
142	0xbb6dd572	-0.0036290553
143	0xbd9ac8c5	-0.07557825
144	0xbcfd2ee8	-0.030906156
145	0xbb996a97	-0.004681896
146	0xbd6623b6	-0.0561864
147	0xbe2ad0a8	-0.16681159
148	0xbc70d332	-0.01469879
149	0xbd101e11	-0.035184924
150	0x3d2c0302	0.041995056
151	0xbd2719fa	-0.040796258
152	0x3d084aab	0.033274334
153	0xbc04fb8b	-0.008116613
154	0x3c8cc000	0.017181396
155	0xbc9b1d10	-0.018934757
156	0xbd8ccb71	-0.06874741
157	0xbd2f5e06	-0.042814277
158	0x3c05b09e	0.008159785
159	0xbba80bd8	-0.005128365
160	0xbafac8de	-0.0019133349
161	0x3b2c4d69	0.0026291257
162	0x3db31d0a	0.08745773
163	0xbc4c393b	-0.012464817
164	0x3c9c77ef	0.019100158
165	0x3da6a0f4	0.08136168
166	0xbdca0dc6	-0.09865908
167	0x3cf2c559	0.029635118
168	0x3c59a20c	0.013283264
169	0xbc9b0fdb	-0.018928459
170	0x3d8de87c	0.069291085
171	0xbb3cd286	-0.0028812005
172	0x3a34514e	0.00068785704
173	0x3d162297	0.03665408
174	0x3c29777b	0.010343428
175	0xbca08f90	-0.019599706
176	0x3cb4fe91	0.022094043
177	0x3dbcb6ce	0.09214555
178	0xbd713784	-0.058890834
179	0xbcc257b4	-0.02372346
180	0x3d224e1d	0.039625276
181	0x3d045595	0.03230818
182	0x3bceaf1e	0.0063074967
183	0xbd502044	-0.05081202
184	0xbd4286b1	-0.047491733
185	0xbd861700	-0.06547356
186	0xbb804626	-0.0039146123
187	0x3da9c9e4	0.08290461
188	0xbcf11f8a	-0.029433984
189	0xbcff8a58	-0.031193897
190	0x3c412eeb	0.011790971
191	0x3d76eca2	0.060284264
192	0xbd3d8010	-0.046264708
193	0xbb8c1aa5	-0.004275637
194	0xbd79ecb5	-0.061016757
195	0x3c42cacd	0.011889172
196	0xbdc51adf	-0.09624266
197	0xbcafec05	-0.021474848
198	0xba6015a5	-0.0008548147
199	0x3daab3ba	0.08335061
200	0xbd2354e9	-0.0398759
201	0x3d56df56	0.052459083
202	0x3ca06e92	0.019583974
203	0x3cb7ff19	0.022460507
204	0x3d2480ca	0.040161885
205	0xbcdffb65	-0.027341554
206	0xbaec27e2	-0.0018017257
207	0x3d880287	0.06641107
208	0x3c756ba8	0.0149792805
209	0x3c894450	0.016756207
210	0xbd1d6703	-0.038428318
211	0xbbead4cf	-0.007166482
212	0x3cbad1c6	0.022805106
213	0x3d2a1e01	0.04153252
214	0xbc3a02c5	-0.011353199
215	0x3d07b0c0	0.033127546
216	0x3c355000	0.011066437
217	0xbb9862a9	-0.004650433
218	0x3bd537b0	0.0065068826
219	0xbc01eaf5	-0.007929553
220	0x3d5897bb	0.052879076
221	0xbde6a510	-0.11261952
222	0x3c0f44b4	0.008744407
223	0x3d685fa1	0.056731824
224	0x3b86459d	0.004097654
225	0x3bf98192	0.007614323
226	0x3cb858f7	0.02250336
227	0x3c194f1d	0.009357241
228	0x3d41c146	0.04730346
229	0xbc24e1f6	-0.010063639
230	0x3c13fb1f	0.00903204
231	0x3d7c3d52	0.061581917
232	0xbd017e7d	-0.03161477
233	0xbd59b2e9	-0.053149138
234	0x3c2b3531	0.010449694
235	0xbc747b4e	-0.014921976
236	0xbae61ee5	-0.0017556815
237	0xbd55f951	-0.05223972
238	0x3b72c81b	0.0037045542
239	0xbc4b6139	-0.012413316
240	0xbd6306ff	-0.055426594
241	0xbce3fde9	-0.027831035
242	0xbd3ca476	-0.04605528
243	0xbe0e1da9	-0.13878502
244	0xbd3e818a	-0.046510257
245	0x3d2fa605	0.042882938
246	0x3df5f29f	0.12009167
247	0xbd8c3bf7	-0.06847375
248	0x3e1ba6af	0.15200303
249	0x3d389b00	0.045069695
250	0xbc792ce8	-0.01520846
251	0x3c9e267b	0.019305458
252	0x3dc0cc77	0.094139986
253	0xbd014904	-0.031563774
254	0x3d84f30b	0.06491669
255	0xbdaab75c	-0.08335754

actor.6.bias f4 [12]
0	0xbdcd3fce	-0.100219354
1	0xbe7cce27	-0.24688016
2	0x3d84f031	0.064911254
3	0x3d179182	0.037004
4	0x3d548280	0.051882267
5	0xbd19c326	-0.037539624
6	0x3beeebc3	0.0072912886
7	0x3c61d57d	0.01378381
8	0x3d51d1fd	0.05122565
9	0xbd3c6982	-0.045999058
10	0x3db047de	0.086074576
11	0xbe07d947	-0.13266478

critic.0.weight f4 [128, 48]
0	0x3eaadccb	0.33371577
1	0x3c48fb4c	0.012266945
2	0xbdfbede8	-0.123012364
3	0x3bf53a6a	0.00748377
4	0x3c97ffae	0.018554535
5	0xbe653701	-0.22384264
6	0x3e89e79e	0.26934522
7	0xbe86de8c	-0.26341665
8	0x3db62de6	0.08895473
9	0xbef246e3	-0.47319707
10	0xbf34827e	-0.70511615
11	0xbec34b49	-0.38143376
12	0x3dd26c60	0.10274577
13	0x3bed095c	0.0072337817
14	0x3e424a82	0.18973735
15	0x3c7df39f	0.015499978
16	0x3d602f37	0.054732528
17	0xbcb7f57a	-0.02245592
18	0x3e48ed6c	0.1962182
19	0x3cd70c76	0.026251059
20	0x3d6810ee	0.05665677
21	0xbe17a195	-0.14807732
22	0xbd999f85	-0.07501129
23	0x3d7fb89f	0.062431928
24	0x3db315df	0.08744406
25	0xbcf6f2a4	-0.030144997
26	0xbd7bdce1	-0.061489943
27	0x3bda601f	0.0066642906
28	0x3d6b3fa7	0.05743375
29	0x3cb7c59a	0.022433091
30	0x3ca12cf7	0.019674761
31	0xbd4abf2c	-0.049498722
32	0xbcb3a552	-0.021929417
33	0x3c3013df	0.010746925
34	0x3d391e75	0.04519506
35	0x3b0da6ea	0.002161438
36	0xbd0ff8d8	-0.035149425
37	0xbcf006ed	-0.029300177
38	0xbb2a7691	-0.0026010612
39	0xbc6d230a	-0.014473686
40	0x3dff008d	0.12451277
41	0xbc5a86b6	-0.013337782
42	0x3d2a3ad8	0.041560024
43	0x3d5c8df1	0.053846303
44	0xbbe4191a	-0.006961
45	0xbdbad0cb	-0.09121855
46	0xbcada0ff	-0.021194933
47	0xbceff191	-0.029289993
48	0xbeb21c4c	-0.34787214
49	0xbe098675	-0.13430198
50	0xbe14ced1	-0.14532019
51	0x3df428f4	0.11921874
52	0x3d9c9c8b	0.07647046
53	0x3dd9c879	0.1063394
54	0x3fae0245	1.3594443
55	0xbf8c54bb	-1.0963358
56	0xbbf73459	-0.007544082
57	0x3e8b8774	0.2725178
58	0x3e1ce4e2	0.15321687
59	0xbd7dd75e	-0.06197297
60	0x3c98319c	0.018578343
61	0x3ea9ccd2	0.33164078
62	0x3e0d5637	0.1380242
63	0x3c080cf9	0.008303874
64	0x3e911357	0.28335068
65	0xbd8039ec	-0.06261048
66	0x3ec8f289	0.3924754
67	0x3da6310d	0.081148244
68	0x3e186055	0.14880498
69	0x3e4bc18c	0.19898051
70	0x3f16bdf0	0.5888357
71	0x3c4f1f62	0.01264176
72	0x3dbc6a41	0.09199954
73	0xbe066173	-0.13123111
74	0xbcad2211	-0.021134408
75	0x3d4b42ab	0.049624126
76	0x3d5f5732	0.054526515
77	0x3b97ff1f	0.004638567
78	0x3dc1c85a	0.09462042
79	0xbd5527ce	-0.052039914
80	0x3b6ff512	0.003661458
81	0xbc35e650	-0.011102274
82	0x3cb13e08	0.021636024
83	0xbcee9e0e	-0.0291281
84	0x3c97a66c	0.018511973
85	0x3c8eb8e3	0.017422145
86	0x3b06bb5f	0.002055846
87	0x3df0e6f7	0.11762803
88	0x3ca2cef2	0.01987407
89	0xbd9bebd9	-0.07613344
90	0xbd010497	-0.031498518
91	0x3d09b82c	0.033622906
92	0x3b00f5cd	0.0019677759
93	0x3d09863c	0.03357528
94	0xbd1bf669	-0.038076792
95	0x3ccf0071	0.025268765
96	0xbd9f9cd5	-0.07793585
97	0x3ddf68f6	0.109086916
98	0xbcf146fb	-0.029452791
99	0xbde3ed4f	-0.111292474
100	0xbe17e5b1	-0.14833714
101	0x3e838b46	0.25692195
102	0xbf01cd10	-0.50703526
103	0x3fd40578	1.6564169
104	0x3e4b445d	0.19850297
105	0x3e69338c	0.2277357
106	0xbdde6517	-0.10859125
107	0xbe6b1e03	-0.22960667
108	0xbdeacd82	-0.11464979
109	0xbe8d8092	-0.27637154
110	0xbe2d144b	-0.16902272
111	0xbea38522	-0.3193751
112	0x3e3fd322	0.18732885
113	0xbe7d00e9	-0.24707378
114	0x3e29af13	0.16570692
115	0x3d977d22	0.07396914
116	0x3e2ed67b	0.17074005
117	0xbe27fe9b	-0.16405718
118	0xbe7c052f	-0.24611352
119	0x3d9a5c2b	0.07537111
120	0xbcb91ae8	-0.022595838
121	0xbd434768	-0.04767552
122	0x3cd4ddeb	0.025984725
123	0xbcf8800b	-0.030334493
124	0x3c0054e0	0.007832736
125	0xbce89111	-0.028389486
126	0x3bb69fec	0.0055732634
127	0x3c99096b	0.018681249
128	0xbb304a22	-0.0026899655
129	0xbb9c9ff6	-0.004779811
130	0xbcbbe22d	-0.022934997
131	0x3c8aaf8b	0.016929409
132	0x3d6bb8b9	0.057549212
133	0x3c38b767	0.011274195
134	0x3d13bf0f	0.03607088
135	0x3d9b9b57	0.07597988
136	0x3dc4ba2c	0.09605822
137	0x3d075b55	0.033046085
138	0xbc81fb15	-0.015866796
139	0xbd87b9b4	-0.06627217
140	0x3cac6fdb	0.02104943
141	0xbca170ee	-0.01970717
142	0xbcb055d1	-0.021525295
143	0xbd834d85	-0.0641127
144	0xbdc87f90	-0.097899556
145	0xbea9278a	-0.33037978
146	0xbd40ca03	-0.047067653
147	0xbca1cedf	-0.019751964
148	0x3c4d5fab	0.012535016
149	0xbe25eaef	-0.16202901
150	0xc00c2be8	-2.1901798
151	0xbeec75d5	-0.4618365
152	0xbd1246ff	-0.03571224
153	0x3dedb246	0.116062686
154	0x3ebf3b8f	0.37350127
155	0x3e8ddb15	0.2770621
156	0x3ea3a77c	0.31963718
157	0x3d01c549	0.031682286
158	0xbd6b6cea	-0.057476915
159	0xbc98b0af	-0.018638937
160	0xbd567da9	-0.052365933
161	0xbe23f14c	-0.16010016
162	0x3d604c25	0.054760117
163	0x3e5cfcb9	0.21580781
164	0xbebdb103	-0.37049112
165	0xbb568b66	-0.0032736897
166	0xbeaa9878	-0.3331945
167	0xbdf255d2	-0.11832775
168	0x3dac89ef	0.08424746
169	0xbb6ad63b	-0.0035833258
170	0xbcc02e14	-0.023459472
171	0x3cfb1d04	0.030653484
172	0x3b490f6f	0.0030679365
173	0xbd871387	-0.065955214
174	0x3d3fd587	0.046834495
175	0x3d3dfa05	0.046381015
176	0xbc78954c	-0.015172314
177	0xbd0f04e7	-0.034916785
178	0x3b91ad94	0.004445741
179	0x3b9f3c7c	0.004859505
180	0xbd906ce0	-0.07052016
181	0x3da5ff86	0.08105378
182	0x3df7c82e	0.12098728
183	0x3d96d9e6	0.073657796
184	0xbcf8a1b5	-0.030350545
185	0xba788846	-0.00094807555
186	0x3e26141c	0.16218609
187	0x3d83bd4e	0.064325914
188	0x3e02d68a	0.12777153
189	0xbda112aa	-0.07864888
190	0xbe0f79ac	-0.14011258
191	0xbcd65835	-0.026165107
192	0xbeba3b4e	-0.3637337
193	0xbeae7302	-0.3407212
194	0x3e1897cd	0.14901657
195	0xbe300252	-0.17188385
196	0x3d908a69	0.0705765
197	0xbb5fb3e7	-0.003413433
198	0x3f59183d	0.8480261
199	0xbf5d6ee0	-0.86497307
200	0xbd9d562a	-0.0768245
201	0x3b6ede33	0.003644836
202	0xbe8fc04c	-0.28076398
203	0xbec811f3	-0.39076194
204	0xbc6d8d89	-0.014499077
205	0x3e2c35bc	0.16817373
206	0x3e2a6c90	0.16642976
207	0x3df4df23	0.119566225
208	0x3e368dd7	0.17827545
209	0xbcfea1bf	-0.031082986
210	0x3a0ff8b0	0.00054920744
211	0xbe4fabb3	-0.20280342
212	0xbd0e2afe	-0.03470897
213	0xbd61408b	-0.054993194
214	0xbcd69671	-0.026194783
215	0xbe1e7139	-0.15472879
216	0xbda6c2d5	-0.0814263
217	0x3d31f7d9	0.043449257
218	0xbd1bb368	-0.038012892
219	0x3d10a01a	0.035308935
220	0x3d84c7f7	0.06483453
221	0x3cc95f37	0.024581535
222	0xbde9341f	-0.113868944
223	0xbd89fcf2	-0.067376986
224	0xbd469de7	-0.04849043
225	0xbb20bcda	-0.0024526627
226	0xbd1b2958	-0.037881225
227	0x3b68e71b	0.003553814
228	0x3ddc7068	0.10763627
229	0xbd28bb5d	-0.04119431
230	0xbd9f7afc	-0.07787129
231	0x3d347fe6	0.044067286
232	0x3ca3e208	0.020005241
233	0x3d31023c	0.04321502
234	0xbd9cc717	-0.07655161
235	0xbd7e962d	-0.062154938
236	0xbc2164fe	-0.009850739
237	0x3d904d37	0.070459776
238	0xbe27fa59	-0.16404094
239	0xbdcdcdb5	-0.10049001
240	0xbea60db5	-0.32432333
241	0xbd639257	-0.055559482
242	0x3dc547ab	0.0963281
243	0x3cb8f79d	0.022579009
244	0xbe07cd64	-0.13261944
245	0x3e727ea1	0.23681118
246	0xbf5a8311	-0.8535624
247	0xbf8431f1	-1.0327741
248	0x3d88e54c	0.0668436
249	0x3df7289b	0.12068292
250	0x3c23b06b	0.009990792
251	0x3e27a1a4	0.16370255
252	0xbd1fe053	-0.03903229
253	0x3e01f842	0.12692359
254	0x3e3ef037	0.18646322
255	0x3e821d0c	0.25412786

critic.0.bias f4 [128]
0	0xbd264ecc	-0.04060249
1	0x3e670a53	0.22562532
2	0xbd9ba306	-0.07599454
3	0xbe14d012	-0.14532498
4	0x3db018e6	0.08598499
5	0x3db8a9b6	0.09016745
6	0xbd707279	-0.05870292
7	0x3e338245	0.17530163
8	0x3e35cd73	0.17754154
9	0xbd5a0da5	-0.05323567
10	0x3de4066a	0.11134036
11	0xbeadaa7c	-0.33919132
12	0xbe391a9d	-0.18076558
13	0xbe488a1b	-0.19583933
14	0x3cdc1ef0	0.02687022
15	0xbe1bdc37	-0.15220724
16	0xbe34bc72	-0.17650011
17	0x3d2d8ffe	0.04237365
18	0xbe3b539b	-0.18293612
19	0xbd9488e3	-0.072526716
20	0xbe17e6fa	-0.14834204
21	0xbe0c105c	-0.13678116
22	0xbdda6e13	-0.10665526
23	0xbdb27b44	-0.08714917
24	0xbe18420c	-0.14868945
25	0x3dbdcc3c	0.0926747
26	0xbe4302e5	-0.19044073
27	0xbdeeb36a	-0.11655314
28	0x3e42cc66	0.19023284
29	0x3b04e743	0.0020279444
30	0x3d2f7b7e	0.04284238
31	0x3dbf2be6	0.09334545
32	0xb9e37358	-0.00043382752
33	0xbe38d9b5	-0.18051799
34	0xbe6943a1	-0.22779705
35	0xbe235005	-0.15948494
36	0xbe570ebe	-0.21001717
37	0x3c48ec39	0.012263351
38	0x3e4db366	0.20087966
39	0x3b34c472	0.002758291
40	0xbe2347a2	-0.15945294
41	0xbc8deebc	-0.017325751
42	0xbe87f617	-0.2655494
43	0xbd068966	-0.032845877
44	0xbe9a3269	-0.30116585
45	0xbe4b0574	-0.19826299
46	0xbd4f89b0	-0.05066842
47	0xbbf47ba6	-0.007461029
48	0xbe4598a6	-0.19296512
49	0x3cd851a0	0.02640611
50	0x3d9de6a7	0.07710009
51	0x3b520c2b	0.003205071
52	0x3c21050c	0.009827863
53	0xbcc7130a	-0.02430107
54	0xbe11df40	-0.1424532
55	0x3e568b93	0.20951681
56	0x3c8c6b7f	0.017141102
57	0xbe7484a8	-0.2387873
58	0xbe1197a1	-0.14217998
59	0x3d8e8baf	0.06960236
60	0xbc9a3c7c	-0.01882767
61	0xbdba7f03	-0.09106257
62	0x3d410f0d	0.047133494
63	0xbdc7ac14	-0.09749618
64	0x3e20445b	0.15651076
65	0x3e6da6ea	0.23208204
66	0x3c719bff	0.014746665
67	0x3e59b2a3	0.21259551
68	0x3d6c84a8	0.0577437
69	0x3e222ca0	0.15837336
70	0xbd96511a	-0.07339688
71	0xbe0280c2	-0.1274443
72	0xbe25ef90	-0.16204667
73	0xbda14041	-0.078735836
74	0xbb239654	-0.0024961429
75	0xbd04b594	-0.03239973
76	0xbd7d0851	-0.06177551
77	0x3e714c47	0.23564254
78	0x3db08684	0.08619407
79	0xbe2b9cb4	-0.16758996
80	0x3e2d9a62	0.16953424
81	0xbe32bf66	-0.17455825
82	0xbcb1eeb8	-0.021720275
83	0x3bbac63c	0.005699901
84	0x3e52b3d6	0.20576414
85	0x3c8f3962	0.017483417
86	0xbe1c7255	-0.15277989
87	0x3e38da1b	0.1805195
88	0x3bb05266	0.0053809164
89	0xbe1d8492	-0.15382603
90	0x3ca50c55	0.020147482
91	0xbdc909fe	-0.09816359
92	0xbe5ded3e	-0.21672532
93	0xbdaa1ddd	-0.08306477
94	0xbe34b8df	-0.17648648
95	0xbe092442	-0.13392738
96	0x3e238582	0.15968898
97	0x3dd73ea8	0.105099976
98	0x3e1d12ac	0.15339154
99	0x3d6f0116	0.058350645
100	0xbdafdac0	-0.08586645
101	0x3be5b645	0.0070102536
102	0x3e435c52	0.19078186
103	0xbe1ea404	-0.15492254
104	0x3d5fc785	0.054633636
105	0xbdb12d38	-0.08651203
106	0x3d454c45	0.04816844
107	0xbdb08796	-0.08619611
108	0x3dddd403	0.10831454
109	0x3e7b6ea9	0.24553932
110	0x3db317a8	0.087447464
111	0xbdd02bb0	-0.10164583
112	0xbe3895b6	-0.1802586
113	0xbcbfbc5c	-0.023405246
114	0xbd63f3cd	-0.05565243
115	0x3dac92b2	0.084264174
116	0xbe298e03	-0.1655808
117	0xbe2d3311	-0.16914012
118	0xbde39317	-0.111120395
119	0xbe8f1696	-0.2794692
120	0x3d4147de	0.04718768
121	0x3e67e919	0.22647513
122	0xbce7b31b	-0.028283646
123	0x3d93b083	0.07211401
124	0x3dbeeab7	0.09322112
125	0x3d8be1a7	0.06830149
126	0xbe54f3a0	-0.2079606
127	0x3ce8274b	0.028339049
