logs/rsl_rl/anymal_c_flat_direct/2025-04-24_12-25-01/model_150.pt (torch, 983322 bytes, 48 tensors)

std f4 [12]
0	0x3e566b94	0.20939475
1	0x3e54b83c	0.20773405
2	0x3e4d482b	0.20047061
3	0x3e47fa75	0.19529136
4	0x3e85aa49	0.2610648
5	0x3e829b33	0.25509033
6	0x3e845356	0.2584483
7	0x3e80016b	0.25001082
8	0x3e323d72	0.17406252
9	0x3e511bc9	0.20420755
10	0x3e322059	0.17395152
11	0x3e450878	0.19241512

actor.0.weight f4 [128, 48]
0	0x3e518921	0.20462467
1	0xbc90e086	-0.017685186
2	0xbe14db75	-0.14536841
3	0xbe0f2a00	-0.13980865
4	0x3ea28146	0.31739253
5	0xbeb51757	-0.3536937
6	0x3e48a97b	0.19595902
7	0x3d83b558	0.06431073
8	0x3de1e2bf	0.110295765
9	0xbd4fc6b4	-0.050726607
10	0x3ec78f08	0.38976312
11	0x3e7f44ba	0.24928561
12	0x3c30c10f	0.010788216
13	0xbe8b6286	-0.27223605
14	0xbe8c457b	-0.2739676
15	0xbf07167c	-0.52768683
16	0xbda2fb2c	-0.079580635
17	0x3e6e0162	0.23242715
18	0xbb964046	-0.0045852987
19	0xbe2521a3	-0.16126113
20	0x3d329235	0.043596465
21	0x3e99f247	0.30067655
22	0x3edc2321	0.4299555
23	0xbda936c7	-0.08262401
24	0xbd6a0814	-0.05713661
25	0x3d117ae4	0.03551759
26	0x3cbbf898	0.022945687
27	0xbd31c6b5	-0.043402392
28	0x3d7fb07f	0.06242418
29	0x3e3275fc	0.1742782
30	0xbd5f0344	-0.054446474
31	0xbc6769e6	-0.014124369
32	0x3d810dee	0.06301485
33	0x3d7682c5	0.060183305
34	0xbd7b7130	-0.06138724
35	0xbb3d8fb1	-0.0028924758
36	0x3d0eba78	0.0348458
37	0xbe62fff1	-0.22167946
38	0x3e56938a	0.20954719
39	0xbdeeee06	-0.11666493
40	0x3aa26f75	0.0012392836
41	0xbe21dc04	-0.15806586
42	0x3e213b48	0.1574527
43	0xbdc963e4	-0.09833506
44	0xbe258d94	-0.16167289
45	0xbe301e80	-0.17199135
46	0x3e11b98f	0.14230941
47	0x3dc9ebc4	0.09859422
48	0xbf001b4c	-0.5004165
49	0xbedc2f2a	-0.43004733
50	0x3dbded55	0.09273783
51	0xbe138b0a	-0.14408508
52	0xbe6ae125	-0.22937448
53	0x3d915645	0.07096533
54	0xbdde9700	-0.10868645
55	0x3ead4efe	0.3384933
56	0x3e22c607	0.15895854
57	0xbe0e01f6	-0.13867936
58	0x3efcfa2f	0.49409625
59	0xbe97aff7	-0.29626438
60	0x3d3aab78	0.04557368
61	0xbd08ae02	-0.03336907
62	0x3dc5230d	0.09625826
63	0xbe134ac1	-0.14383985
64	0xbdc3895c	-0.095476836
65	0xbde7a20f	-0.11310207
66	0xbeb00452	-0.34378296
67	0x3d5b40e8	0.053528696
68	0x3d2f932f	0.042864975
69	0x3db649ff	0.089008324
70	0x3d0ac74e	0.033881478
71	0x3e708518	0.23488271
72	0x3d3f24a6	0.04666581
73	0x3b847470	0.0040422007
74	0xbceed59a	-0.029154588
75	0xbd19e481	-0.037571434
76	0xbcd58637	-0.026064975
77	0xbcb0871e	-0.021548804
78	0xbd8e6d59	-0.0695445
79	0xbdb40935	-0.087908186
80	0xbcbf086b	-0.023319444
81	0xbc9be701	-0.01903105
82	0xbc2bfcc3	-0.010497275
83	0x3c812341	0.01576388
84	0xbcf7f40a	-0.030267734
85	0x3db2a4d0	0.08722842
86	0x3b85b368	0.004080225
87	0xbd0cff2c	-0.03442304
88	0xbbf6fa10	-0.007537134
89	0xbcb118c6	-0.021618258
90	0xbc9b3415	-0.018945733
91	0xbe107f01	-0.14110948
92	0xbe3b5987	-0.1829587
93	0xbe30ba1f	-0.172585
94	0x3d1a0b5f	0.0376085
95	0xbe2f7d49	-0.17137636
96	0xbe097f3b	-0.13427441
97	0xbd59d233	-0.053178977
98	0x3e8ec452	0.27884156
99	0x3db60a0e	0.088886365
100	0x3df39224	0.118931085
101	0xbe84af57	-0.25915024
102	0xbeba50c7	-0.36389753
103	0xbf646b03	-0.89225787
104	0x3e1dd05d	0.15411516
105	0x3ebe3a76	0.37153977
106	0x3c18c190	0.009323493
107	0x3eae57b9	0.34051302
108	0x3e9eefba	0.31042272
109	0x3da52171	0.08063019
110	0x3ddef649	0.10886819
111	0x3e9ce351	0.3064218
112	0xbd723cc1	-0.05913997
113	0xbe93fce6	-0.28903884
114	0x3e611591	0.21980883
115	0x3ebb57ec	0.36590517
116	0x3e816441	0.252718
117	0xbbe9f5c5	-0.0071398937
118	0xbd66cba1	-0.05634654
119	0x3d65d7c8	0.05611399
120	0xbda984f1	-0.0827731
121	0x3d9267ef	0.0714873
122	0x3c84cf2b	0.016212067
123	0x3b831916	0.004000793
124	0xbd9890e0	-0.07449508
125	0xbda3caca	-0.07997663
126	0x3bf768df	0.0075503434
127	0x3d8b3391	0.06796945
128	0x3b021f07	0.001985492
129	0x3d46214c	0.048371598
130	0x3d082b43	0.033244383
131	0xbba3a8ae	-0.0049944734
132	0x3e243096	0.16034159
133	0x3e21cafa	0.15800086
134	0x3e110827	0.14163266
135	0xbdbfcc5c	-0.0936515
136	0x3db28e1b	0.08718511
137	0xbe39b5c8	-0.1813575
138	0xbd59cfe8	-0.05317679
139	0xbe0952f2	-0.13410547
140	0xbe4c6170	-0.19959044
141	0xbd0103e0	-0.031497836
142	0xbe029334	-0.12751466
143	0xbe205b35	-0.15659793
144	0xbe3991f8	-0.18122089
145	0x3e8f140b	0.2794498
146	0x3ef78848	0.48346162
147	0x3e6fdc5f	0.23423909
148	0xbe3cd00e	-0.18438742
149	0x3db7c8c6	0.08973841
150	0x3db7ade8	0.08968717
151	0x3efd2f04	0.49449933
152	0xbae92523	-0.0017787557
153	0xbde8cc9e	-0.11367153
154	0xbe022fa5	-0.12713487
155	0x3ebded62	0.3709517
156	0xbe885d6c	-0.26633775
157	0x3ea22f9c	0.31676948
158	0x3e21ab09	0.15787901
159	0x3df32033	0.11871376
160	0x3e0c775c	0.13717407
161	0xbe7e02da	-0.24805775
162	0x3e41ac6c	0.1891343
163	0xbf09f3e3	-0.53887767
164	0x3dbe1943	0.09282162
165	0x3d8264e0	0.06366897
166	0x3f322e71	0.69602114
167	0xbe7492e1	-0.23884155
168	0x3e0329b6	0.1280888
169	0xbc9ad1c2	-0.018898848
170	0x3e15d577	0.14632212
171	0xbde84dde	-0.11342977
172	0x3d327049	0.043564115
173	0xbd759a46	-0.05996158
174	0x3dd8e244	0.10590032
175	0x3d47b7f7	0.048759427
176	0xbcd84925	-0.026402066
177	0xbcaaf920	-0.020870745
178	0x3dd2857b	0.10279366
179	0x3d0945a7	0.03351369
180	0x3e0db1f8	0.13837421
181	0xbdffd110	-0.124910474
182	0xbc3d94ae	-0.0115710925
183	0xbe4d770e	-0.20064947
184	0xbd88fa02	-0.0668831
185	0xbc322d58	-0.010875069
186	0x3e9b6cd8	0.3035648
187	0xbe2bf88b	-0.1679403
188	0xbd86d720	-0.065840006
189	0xbe191b91	-0.14951922
190	0xbebab025	-0.36462513
191	0xbd12c66f	-0.035833772
192	0x3e86f9d0	0.26362467
193	0xbd112d2e	-0.035443477
194	0xbe543778	-0.20724285
195	0xbe51e535	-0.20497592
196	0x3e399722	0.18124059
197	0x3e527229	0.20551361
198	0x3f054fb5	0.5207475
199	0x3eeed5fc	0.46647632
200	0x3d9fd6b3	0.078046225
201	0x3e374885	0.17898758
202	0xbe9b20c3	-0.30298433
203	0xbc2e13be	-0.010624824
204	0xbe592aa7	-0.21207677
205	0xbdde69a3	-0.10859992
206	0xbe33a2f8	-0.17542636
207	0xbec315fb	-0.38102707
208	0xbe20df20	-0.15710115
209	0xbe178c72	-0.1479967
210	0x3e886207	0.2663729
211	0xbcc3d137	-0.023903472
212	0x3e958e6d	0.29210225
213	0xbe97d405	-0.29653946
214	0x3cea61ed	0.028611148
215	0xbe1a1f30	-0.1505096
216	0x3d97fc8b	0.074212156
217	0xbdb6a5a0	-0.08918309
218	0x3d2ba829	0.041908417
219	0xbe1da7e9	-0.15396084
220	0x3d58b243	0.05290438
221	0x3d4e1951	0.050317112
222	0xbdb8fadc	-0.09032223
223	0x3d36e46d	0.044651438
224	0x3d98dddf	0.074641936
225	0xbd2265f3	-0.039648008
226	0xbd726472	-0.059177823
227	0x3bcf7be0	0.0063319057
228	0x3e1854cd	0.14876099
229	0x3e609d07	0.21934901
230	0xbdcf838b	-0.10132512
231	0xbe1f97ad	-0.15585203
232	0xbdcf824c	-0.10132274
233	0x3d532510	0.051549017
234	0x3cf32429	0.029680328
235	0x3d610823	0.0549394
236	0xbd8e95cc	-0.06962165
237	0xbe44b054	-0.19207889
238	0x3d50c326	0.050967358
239	0x3ecac7c9	0.3960555
240	0xbe34ef66	-0.17669448
241	0x3db0b7a0	0.08628774
242	0xbec5ec35	-0.38656774
243	0x3e4cbd03	0.19993977
244	0xbd9039eb	-0.07042297
245	0x3e8584be	0.26077837
246	0xbd1c4f0c	-0.038161322
247	0xbd278f6e	-0.04090827
248	0xbd077167	-0.033067133
249	0x3cb01249	0.021493094
250	0xbecbd771	-0.39812806
251	0xbbbcb390	-0.00575871
252	0x3e4535c1	0.19258787
253	0x3f148b16	0.5802473
254	0xbd373db4	-0.04473658
255	0x3dc4ea54	0.09615007

actor.0.bias f4 [128]
0	0xbe474c0c	-0.19462603
1	0xbdbf6b1b	-0.093466006
2	0x3da14f64	0.07876471
3	0x3c8d4a01	0.017247202
4	0x3e277eb3	0.16356926
5	0x3d9d4a64	0.076802045
6	0xbd813526	-0.063089654
7	0x3d565920	0.05233109
8	0x3ca5c7dd	0.020236904
9	0x3cef65ab	0.029223284
10	0xbd1ded63	-0.038556468
11	0x3c5efae1	0.013609619
12	0xbd5ec697	-0.05438861
13	0xbd88f2d1	-0.066869386
14	0xbbe9e805	-0.0071382546
15	0xbcd4e445	-0.025987754
16	0x3d867786	0.06565766
17	0xbdd97b2d	-0.10619197
18	0xbca0899d	-0.01959687
19	0xbcb15b3a	-0.021649946
20	0xbc9673f3	-0.018365836
21	0x3d239cea	0.039944567
22	0xbd89a08b	-0.06720074
23	0xbe7aecd6	-0.24504408
24	0xbdaa58e3	-0.08317735
25	0xbd25d6e3	-0.040488135
26	0x3d6e0ed1	0.0581196
27	0x3cb7e72f	0.022449104
28	0xbdffc349	-0.124884196
29	0x3bdf47c3	0.0068139746
30	0xbb030cc7	-0.001999663
31	0xba642878	-0.000870354
32	0x3e3547a8	0.17703116
33	0x3debabc7	0.11507373
34	0xbcb1b2d6	-0.021691721
35	0x3d118cd0	0.03553468
36	0x3d86cfc0	0.06582594
37	0xbd95327e	-0.07285021
38	0xbdeaf28e	-0.11472045
39	0xbdad4316	-0.08460061
40	0x3d4449a0	0.047921777
41	0xbcf44e60	-0.029822528
42	0x3d35ed55	0.04441579
43	0x3d95aadb	0.07307979
44	0xbd23b65b	-0.03996883
45	0x3d21543f	0.039386984
46	0xbd7e652a	-0.062108196
47	0x3db1e974	0.08687106
48	0xbe2ba9ef	-0.16764043
49	0x3d914bc1	0.07094527
50	0x3b02be98	0.0019950029
51	0xbd59c6de	-0.05316817
52	0x3db06ad3	0.08614125
53	0x3d90787e	0.07054232
54	0xbdef7b0c	-0.11693391
55	0xbc7a9000	-0.015293121
56	0x3d0b9ada	0.034083225
57	0xbe3c034c	-0.18360633
58	0x3cd39654	0.025828518
59	0x3b0b4f0b	0.002125683
60	0xbd3c1d00	-0.045926094
61	0x3d91ed27	0.07125311
62	0xbe6a050a	-0.22853485
63	0x3de3fa20	0.11131692
64	0xbe641354	-0.22272998
65	0xbe0687e1	-0.13137771
66	0xbdb74eeb	-0.08950599
67	0xbe6598f5	-0.2242163
68	0xbdea589c	-0.11442682
69	0xbbf17a89	-0.0073693437
70	0xbd42cc1d	-0.04755794
71	0xbd6f046d	-0.05835383
72	0xbbc2f94d	-0.005950129
73	0xbcd5b2f1	-0.026086302
74	0xbb152149	-0.0022755435
75	0x3ca6480b	0.020298025
76	0x3de158be	0.11003254
77	0xbdc5804c	-0.09643611
78	0xbde4f649	-0.11179788
79	0xbd345e48	-0.044035226
80	0xbd133ce3	-0.035946738
81	0xbbeb198e	-0.007174677
82	0x3daebe58	0.08532399
83	0xbd6c0b6d	-0.057628084
84	0xbe1719aa	-0.14755884
85	0xbe1e195f	-0.15439366
86	0x3d672439	0.05643103
87	0xbd15be0f	-0.036558207
88	0x3cfc8adb	0.03082793
89	0x3e0cca4d	0.13749047
90	0xbd5ae8ef	-0.0534448
91	0xbd80b26b	-0.062840305
92	0xbd9d1965	-0.07670859
93	0xbbb32c61	-0.005467937
94	0xbd1e16b3	-0.038595866
95	0x3d856ea3	0.06515243
96	0xbe38db33	-0.18052368
97	0xbddb5358	-0.10709256
98	0xbe1adcde	-0.15123317
99	0xbd421897	-0.047386732
100	0xbc4a682a	-0.012353936
101	0xbcb3f7de	-0.021968778
102	0xbd759f12	-0.059966154
103	0x3e318d3c	0.17339033
104	0x3d75dd84	0.060025707
105	0xbd648d37	-0.055798735
106	0xbda088fb	-0.07838627
107	0x3da4fb5e	0.08055757
108	0x3e040133	0.12891082
109	0xbdfbff69	-0.12304575
110	0x3d485405	0.048908252
111	0xbda87625	-0.08225659
112	0x3e177997	0.14792477
113	0xbdf2e12d	-0.11859355
114	0xbe062c06	-0.13102731
115	0xbc0efd2c	-0.008727353
116	0xbde6a1b6	-0.11261313
117	0xbe25966c	-0.16170663
118	0x3bae03d0	0.005310513
119	0xbd7e1942	-0.062035806
120	0x3e271cd1	0.16319586
121	0x3ca24f6a	0.019813258
122	0xbd61bbe9	-0.055110846
123	0x38d33e88	0.000100729114
124	0x3bfdfb5b	0.007750911
125	0xbd98c18f	-0.07458793
126	0xbbc3a3a2	-0.0059704343
127	0x3ca8315a	0.020531345

actor.2.weight f4 [128, 128]
0	0x3db031a5	0.08603219
1	0x3db9419a	0.09045716
2	0x3d7de9ed	0.061990667
3	0xbdaebf54	-0.08532587
4	0x3d81de02	0.06341173
5	0xbcb34777	-0.021884663
6	0xbce30127	-0.02771051
7	0x3d6c5536	0.05769845
8	0x3d7cb5e6	0.06169691
9	0xbe25952b	-0.16170184
10	0x3e618ec2	0.22027114
11	0x3d9dacae	0.07698952
12	0xbddbdb2e	-0.107351646
13	0xbd3cdd4b	-0.04610948
14	0x3db58a98	0.08864325
15	0x3d8c5311	0.06851781
16	0xbd417522	-0.047230847
17	0x3d82a85b	0.063797675
18	0xbb50c164	-0.003185355
19	0xbd5ac0b0	-0.053406417
20	0xbd99a79e	-0.075026736
21	0x3d77467d	0.060369957
22	0xbe1145b3	-0.14186744
23	0x3e38b354	0.18037158
24	0x3bc6cdc4	0.0060670096
25	0x3d8c65d3	0.06855359
26	0x3d25834f	0.04040843
27	0x3d19dd2f	0.037564453
28	0xbdbebcb2	-0.093133345
29	0xbaad923c	-0.0013242434
30	0xbd35f1e4	-0.044420138
31	0x3dc14e75	0.094387926
32	0xbdd59f41	-0.10430766
33	0x3a5b86a9	0.0008374253
34	0x3cd7ad5a	0.026327778
35	0xbd9531ca	-0.07284887
36	0x3d220a83	0.039560806
37	0x3d958067	0.072998814
38	0xbbcc0065	-0.006225633
39	0x3d20014f	0.039063748
40	0x3ba34c04	0.004983427
41	0xbc9be930	-0.01903209
42	0x3deea11f	0.11651825
43	0x3d8f0c3f	0.06984758
44	0x3db8a689	0.09016139
45	0xbe2a74b4	-0.16646081
46	0xbdfe3b15	-0.12413613
47	0xbd900de4	-0.070338994
48	0xbc8ac27d	-0.016938442
49	0x3b36ea33	0.002791059
50	0x3c9565c3	0.018237
51	0x3ca4ad24	0.020102091
52	0xb75dadf9	-1.3213133e-05
53	0xbdb492fa	-0.08817096
54	0xbc430868	-0.01190386
55	0xbdaecc0d	-0.08535013
56	0xbdc53fbe	-0.096312985
57	0x3dac5271	0.08414162
58	0xba6c336f	-0.000901035
59	0x3d4ad26e	0.049517088
60	0xbe2e088e	-0.16995451
61	0xbdcdcc90	-0.10048783
62	0x3def6863	0.11689832
63	0xbd8edc8a	-0.06975658
64	0x3d9f7c80	0.07787418
65	0x3e2394fc	0.15974802
66	0xbd97ab25	-0.0740569
67	0x3d250375	0.0402865
68	0x3d865ad7	0.06560295
69	0x3d885a4a	0.06657846
70	0xbd10e40b	-0.03537373
71	0xbd6d6464	-0.057957068
72	0x3d3c51b4	0.045976356
73	0xbe04abca	-0.12956157
74	0x3d849cb4	0.06475201
75	0x3d94de5d	0.07268975
76	0x3ad8f9d5	0.0016553948
77	0xbd9e5760	-0.07731509
78	0xbdfe47f8	-0.12416071
79	0x3d7332e4	0.059374705
80	0xbe24f29c	-0.16108173
81	0x3dc829c7	0.097735934
82	0xbd33680f	-0.04380041
83	0x3e122388	0.14271367
84	0x3cad8e94	0.02118615
85	0xbddc5d1d	-0.107599474
86	0x3d02ae6a	0.031904615
87	0x3da0aec9	0.078458376
88	0x3d7ca0bb	0.061676722
89	0x3cb8f999	0.022579955
90	0xbd53ad74	-0.05167909
91	0xbd913c67	-0.07091599
92	0x3d8dafcc	0.06918296
93	0x3a9241f8	0.0011158576
94	0x3cf7e184	0.030258901
95	0x3e363861	0.17794944
96	0xbd11c6c6	-0.035589956
97	0xbd3c8ad8	-0.04603085
98	0x3de12b46	0.10994582
99	0xbd68a01c	-0.056793317
100	0x3cbce8fb	0.023060312
101	0x3d8e0975	0.069353975
102	0xbd9d8598	-0.076914966
103	0x3be5652d	0.0070005865
104	0x3c6d617f	0.014488577
105	0xbd4d7d87	-0.05016854
106	0x3d47c2c7	0.04876974
107	0x3d52cf0b	0.051466983
108	0xbcb822b5	-0.022477487
109	0x3e23a9da	0.15982762
110	0x3d9d878b	0.076918684
111	0x3de47e57	0.1115691
112	0x3c347389	0.011013874
113	0x3d20ee74	0.039289907
114	0xbe536c3f	-0.20646761
115	0xbd2cc11e	-0.04217636
116	0x3e4dfe7b	0.20116608
117	0xbd803a1d	-0.06261084
118	0xbc0d192b	-0.008611958
119	0x3e246f82	0.16058162
120	0x3d524982	0.051339634
121	0xbdb67e51	-0.08910812
122	0x3e133815	0.14376862
123	0xbe87a745	-0.26494804
124	0x3e0b14f3	0.1358221
125	0xbd926c25	-0.07149533
126	0xbcff5ef9	-0.031173216
127	0x3d0b0140	0.03393674
128	0x3e20d1f9	0.15705098
129	0x3c062888	0.008188374
130	0xbcd92c03	-0.026510244
131	0x3b0d2cd8	0.0021541622
132	0x3e0010ef	0.1250646
133	0x3db3713a	0.08761831
134	0x3978c31e	0.0002372381
135	0x3dccad20	0.099939585
136	0xbe108ac0	-0.14115429
137	0x3d62a330	0.05533141
138	0xbd9e5dbd	-0.07732723
139	0xbe36398f	-0.17795394
140	0x3d4b8a1f	0.04969227
141	0xbd896c1f	-0.067100756
142	0xbdd89534	-0.10575333
143	0x3ccfe990	0.025379926
144	0x3d8747e2	0.066055074
145	0xbdee795e	-0.11644243
146	0xbd79fa40	-0.061029673
147	0x3de0cdaa	0.10976727
148	0xbd9546f9	-0.072889276
149	0xbe63de21	-0.22252704
150	0x3ddf70c5	0.10910181
151	0xbdae2cc9	-0.08504636
152	0x3d1d4268	0.038393408
153	0xbdcbe771	-0.09956253
154	0x3d721812	0.059104986
155	0xbdd0ff3c	-0.10204932
156	0xbc56f73b	-0.013120468
157	0xbe107746	-0.14107999
158	0xbca960f3	-0.020676112
159	0xbbd5a517	-0.0065199244
160	0x3e41e3d9	0.18934573
161	0x3c56c6e9	0.013108947
162	0xbdc86111	-0.09784139
163	0xbe82c4c3	-0.25540742
164	0x3cf66364	0.03007669
165	0x3d6a91a0	0.057267785
166	0xbdb3c9b2	-0.08778705
167	0x3b53dbec	0.0032327129
168	0x3c883933	0.016628837
169	0xbdebf023	-0.11520412
170	0x3db101a5	0.08642892
171	0x3da2c1f3	0.07947149
172	0x3cf2ead3	0.029652989
173	0xbe2ec2b3	-0.1706646
174	0xbdae1a39	-0.08501095
175	0x3d188b9f	0.037242528
176	0xbe04ab0a	-0.12955871
177	0xbd249a06	-0.04018595
178	0x3daafce2	0.08349015
179	0x3c24ae23	0.010051283
180	0xbdb86e86	-0.09005456
181	0xbc130d04	-0.008975271
182	0x3de5d66a	0.11222537
183	0xbd0d3d6b	-0.0344824
184	0x3da94ee8	0.08267003
185	0xbd58aca7	-0.05289903
186	0xbe12c9e7	-0.14334832
187	0x3d0c4f3b	0.034255248
188	0x3b195166	0.0023394465
189	0x3d41e4f4	0.047337487
190	0xbc45f177	-0.0120814955
191	0x3d5eb5ab	0.05437247
192	0x3d97603f	0.07391404
193	0xbda48c7c	-0.08034608
194	0xbd90d44c	-0.070717424
195	0xbd954e73	-0.072903536
196	0xbc85b133	-0.016319847
197	0xbd41ced4	-0.047316387
198	0x3cf73fb6	0.030181747
199	0xbc38a0f9	-0.011268848
200	0xbdc48960	-0.09596515
201	0x3dffa5bb	0.124827825
202	0xbde4f23e	-0.111790165
203	0xbdc6c0ea	-0.09704764
204	0xbdd90b46	-0.10597853
205	0x3d5764ff	0.05258655
206	0x3dc830fa	0.097749665
207	0xbdb9a028	-0.090637505
208	0x3c0ec915	0.008714934
209	0xbcaaa1a1	-0.020829024
210	0x3e04d89d	0.12973256
211	0xbe13b797	-0.14425503
212	0xbdb443dd	-0.088020064
213	0x3d3cc3a4	0.046085015
214	0xbcdc4042	-0.02688611
215	0x3db50ef0	0.0884074
216	0xbda175aa	-0.07883771
217	0x3e07b51d	0.13252683
218	0x3db3c6e7	0.08778172
219	0x3e08feb4	0.13378412
220	0x3d2fc5f7	0.042913403
221	0xbdeec38f	-0.116583936
222	0xbc9c0bf4	-0.019048668
223	0x3d2028ee	0.039101534
224	0xbc9d1ce6	-0.019178819
225	0xbdf6158c	-0.120158285
226	0x3dfcf18d	0.1235076
227	0xbc9e6797	-0.019336505
228	0x3dbe3deb	0.09289154
229	0xbd8e255a	-0.06940718
230	0xbd92f650	-0.07175887
231	0x3dcb8ddb	0.09939166
232	0xbdc488c9	-0.09596402
233	0xbd622efb	-0.055220585
234	0xbe03526c	-0.1282441
235	0xbdec46d9	-0.115369506
236	0xbbd25fad	-0.006420097
237	0xbddf3965	-0.10899619
238	0x3c30dfe4	0.010795567
239	0x3df7da6d	0.12102208
240	0x3d87c839	0.06629986
241	0xbd23bd4c	-0.03997545
242	0xbce949fd	-0.028477663
243	0x3cc2547b	0.023721924
244	0xbe076289	-0.13221182
245	0xbbac8169	-0.0052644503
246	0x3bb81a0d	0.00561834
247	0x3c80690f	0.015675096
248	0x3cdd9a79	0.027051197
249	0xbdeea956	-0.11653392
250	0xbce38aaf	-0.02777609
251	0xbe1c2116	-0.15246996
252	0xbdbad4c8	-0.09122616
253	0xbdd9d9b3	-0.10637226
254	0xbdc778f8	-0.0973987
255	0x3ced7985	0.02898861

actor.2.bias f4 [128]
0	0xbe1a6f53	-0.1508153
1	0x3c149615	0.0090689855
2	0xbe1ec8bb	-0.1550626
3	0xbdd22468	-0.1026085
4	0x3cc8ff35	0.024535755
5	0xbdba6fab	-0.0910333
6	0x3c91c52f	0.01779422
7	0xbdc2574b	-0.09489306
8	0xbc88a3e8	-0.01667972
9	0x3d329c1f	0.04360592
10	0xbe1e1d7e	-0.15440938
11	0xbdc32b84	-0.09529784
12	0xbd524c1e	-0.051342122
13	0xbd0068fa	-0.031350113
14	0xbd8a7148	-0.06759888
15	0xbde1a99d	-0.11018679
16	0xbdebecfc	-0.115198106
17	0xbc48f6bb	-0.012265856
18	0xbcc32ba6	-0.023824524
19	0xbdabe438	-0.08393139
20	0xbd05ff80	-0.032714367
21	0xbc9d9fa5	-0.019241164
22	0xbcaa1a40	-0.02076447
23	0xbdc3bee0	-0.09557891
24	0xbdd244a2	-0.10266997
25	0xbe26fde5	-0.1630779
26	0xbd9c0ccd	-0.07619629
27	0xbda706fa	-0.081556275
28	0xbcc7f706	-0.024409782
29	0xbe4de175	-0.20105536
30	0xbc97cdae	-0.018530693
31	0xbc7f5aaf	-0.0155855855
32	0x3bb9f7dc	0.005675299
33	0xbdd3d857	-0.10343998
34	0x3c02cb9f	0.007983117
35	0xbe0f984a	-0.14022937
36	0xbd7f8281	-0.062380318
37	0xbceee894	-0.029163636
38	0x3d6b45a7	0.057439473
39	0xbd88234d	-0.06647358
40	0xbe1a5532	-0.15071562
41	0xbbc7e999	-0.006100845
42	0xbc3e77ac	-0.011625212
43	0xbdc0dffc	-0.09417722
44	0xbdd391e0	-0.10330558
45	0xbca77aac	-0.020444237
46	0xbd088df7	-0.033338513
47	0xbe46e611	-0.19423701
48	0xbd2b29c8	-0.041787893
49	0xbd75edd7	-0.060041275
50	0xbdd57267	-0.10422211
51	0xbe18e4b1	-0.14930989
52	0xbde600c2	-0.11230613
53	0xbd4e65d2	-0.050390072
54	0xbd23cd3b	-0.039990645
55	0xbe3b6627	-0.18300687
56	0xbc8a8a84	-0.016911753
57	0xbe10c2aa	-0.14136758
58	0xbda96770	-0.08271682
59	0xbd004f55	-0.031325657
60	0x3d6136cd	0.054983903
61	0xbd646288	-0.05575803
62	0x3d8e3847	0.06944328
63	0x3d42e742	0.047583826
64	0x389d59ec	7.503093e-05
65	0xbe3e8411	-0.18605067
66	0xbc9abc19	-0.01888852
67	0xbde81487	-0.1133204
68	0xbe0f869e	-0.14016196
69	0x3d5e3fd4	0.05426009
70	0xbc8c153d	-0.017099971
71	0x3da73174	0.08163729
72	0xbd56829d	-0.052370656
73	0xbcb14a7f	-0.021641968
74	0xbd888c27	-0.06667357
75	0xbd1a4bef	-0.037670072
76	0x3df2799a	0.118396
77	0xbd8b6205	-0.06805805
78	0xbc8691e3	-0.016426986
79	0xbe16ac18	-0.14714086
80	0xbd3b981f	-0.04579937
81	0x3cdf7df3	0.027281737
82	0xbd7999c6	-0.060937665
83	0xbddeca9c	-0.108784884
84	0x3c656da7	0.014003194
85	0xbd74440b	-0.059635203
86	0xbdab4633	-0.08362999
87	0xbc92696b	-0.017872533
88	0xbc565a80	-0.0130831
89	0xbd8e0bf4	-0.06935874
90	0x3cff1c85	0.031141529
91	0x3d97d2ed	0.07413278
92	0xbaba6ad5	-0.0014222512
93	0x3b1bbb02	0.0023762588
94	0xbd770b86	-0.060313724
95	0xbd91a69e	-0.07111858
96	0xbdadd41e	-0.08487724
97	0xbd9eb8f2	-0.07750119
98	0x3d83bc18	0.064323604
99	0x3d054ec0	0.032545805
100	0xbe294a54	-0.1653226
101	0xbd27f3c6	-0.041003965
102	0xbd426ca1	-0.047466878
103	0x3ce0e787	0.02745415
104	0xbdbc0214	-0.09180084
105	0xbda5230b	-0.080633245
106	0xbe1f4337	-0.15552984
107	0xbc9c2de3	-0.01906485
108	0xbd6f8dd2	-0.05848486
109	0x3c8d6761	0.017261209
110	0xbe107db0	-0.14110446
111	0xbd9ee541	-0.077585705
112	0xbd5f42f3	-0.054507207
113	0x3acc9b21	0.0015610197
114	0xbaffa160	-0.001950305
115	0xbc95da21	-0.018292489
116	0xbd6a0848	-0.057136804
117	0xbbd6e822	-0.006558434
118	0xbcaeaa29	-0.021321373
119	0xbe54949a	-0.20759812
120	0xbe068613	-0.13137083
121	0xbaf31ac3	-0.0018547404
122	0xbdfd5d22	-0.12371279
123	0xbde391b7	-0.11111777
124	0x3d734d29	0.059399758
125	0x3d9b48f5	0.07582275
126	0xbe1d3378	-0.15351665
127	0xbc5e880b	-0.01358224

actor.4.weight f4 [128, 128]
0	0xbc521ef9	-0.012824767
1	0xbcf7abc3	-0.03023327
2	0x3bad21ae	0.005283556
3	0x3d1bfc70	0.03808254
4	0x3ca68368	0.020326331
5	0x3e850a0d	0.2598423
6	0x3ca7a697	0.020465178
7	0xbe477ee0	-0.19481993
8	0xbd294fb3	-0.041335773
9	0x3dbc3e39	0.091915555
10	0x3d0243e8	0.03180304
11	0x3dac25b5	0.084056295
12	0x3dbda6b2	0.0926031
13	0xbdd9fc6f	-0.10643851
14	0xbd92acac	-0.07161841
15	0x3ce19f00	0.027541637
16	0xbcfac595	-0.030611793
17	0x3d2ed440	0.042682886
18	0x3d9a21bc	0.075259656
19	0xbdf8feb5	-0.121579565
20	0x3e350f6c	0.17681664
21	0xbe96b596	-0.29435414
22	0xbd802b80	-0.06258297
23	0x3d0024bc	0.031285033
24	0xbbd8a19d	-0.0066110627
25	0xbe49f0d6	-0.19720778
26	0x3dc5595f	0.09636187
27	0xbcd82a06	-0.026387226
28	0xbc1831e9	-0.009289243
29	0xbd10aa65	-0.03531875
30	0x3d9d7bc8	0.07689625
31	0xbdee8a40	-0.11647463
32	0x3dd4eeac	0.103970855
33	0x3dff45b0	0.12464464
34	0xbe2e6336	-0.17030033
35	0x3d505c29	0.05086914
36	0x3e384635	0.17995532
37	0xbdbb2624	-0.09138134
38	0xbcc86367	-0.024461461
39	0x3d47d2b5	0.04878493
40	0x3d927b1e	0.07152389
41	0xbe8f18e9	-0.27948692
42	0xbe33cb57	-0.17558037
43	0xbe2cee11	-0.1688769
44	0xbe5fac79	-0.21843137
45	0x3d93b397	0.072119884
46	0xbd931160	-0.071810484
47	0xbc41b163	-0.011822077
48	0x3d82a773	0.06379595
49	0xbd443c25	-0.04790892
50	0x3b2f3bf2	0.002673861
51	0xbdd72ef9	-0.10507006
52	0xbe4d22d0	-0.20032811
53	0xbd565d05	-0.052334804
54	0xbd84cfba	-0.06484933
55	0xbd546003	-0.051849376
56	0xbdc23483	-0.09482672
57	0x3d815665	0.063153066
58	0xbdd09c09	-0.10186011
59	0xbc1a9e14	-0.009437103
60	0xbd407311	-0.046984736
61	0xbe013412	-0.1261752
62	0x3d8ca961	0.06868244
63	0xbd2ab4f3	-0.041676473
64	0x3d9e7d65	0.07738761
65	0xbc34115b	-0.010990466
66	0xbc8bcb4c	-0.017064713
67	0x3b89271a	0.0041855695
68	0x3e8ab9f2	0.2709499
69	0x3e12e5ca	0.1434547
70	0x3e077003	0.13226323
71	0xbccc64a6	-0.024950337
72	0xbe0cb298	-0.13740003
73	0xbdf2863d	-0.1184201
74	0x3c8cba7f	0.017178772
75	0x3de69284	0.112584144
76	0x3c9b374b	0.018947264
77	0x3c842669	0.016131597
78	0xbd0cbea5	-0.0343615
79	0x3b216ba0	0.00246308
80	0x3dfe536b	0.124182545
81	0x3ca89754	0.020579971
82	0x3dc055c3	0.09391358
83	0x3cd97a8b	0.02654769
84	0x3dc7a5f6	0.097484514
85	0x3e2caff3	0.16863994
86	0x3e22aefc	0.15887064
87	0xbd092423	-0.03348173
88	0x3df078d2	0.11741795
89	0xbdd055cf	-0.10172617
90	0xbd09f8e7	-0.033684637
91	0xbd5397b8	-0.051658362
92	0xbd186bb9	-0.037212107
93	0xbe4f10bb	-0.20221226
94	0x3cf63033	0.03005228
95	0xbd0f37fc	-0.0349655
96	0x3d203932	0.039117046
97	0x3ce4dc28	0.02793701
98	0xbde90f6a	-0.11379893
99	0x3c11c2e9	0.008896568
100	0x3e284371	0.16431977
101	0xbe22e3ac	-0.15907162
102	0xbda37b98	-0.07982558
103	0xbcdc2bc7	-0.026876343
104	0x3d0a53fe	0.033771507
105	0x3d2a3d37	0.041562285
106	0x3cf271b3	0.029595232
107	0x3cd100f2	0.025513146
108	0xbda0b38e	-0.07846747
109	0xbd8a2334	-0.06744996
110	0xbd9193d4	-0.07108274
111	0xbd932224	-0.07184246
112	0xbde2ddba	-0.11077447
113	0xbd9186a7	-0.07105761
114	0xbb2c8181	-0.0026322308
115	0x3bf1e724	0.0073822904
116	0xbe168d0b	-0.14702241
117	0x3c430981	0.011904121
118	0x3e016a7e	0.1263828
119	0x3db9518c	0.09048757
120	0x3dcdbf92	0.10046305
121	0xbc8cb40e	-0.0171757
122	0xbdae70ec	-0.08517632
123	0x3dfeefb6	0.12448065
124	0xbdc740c7	-0.09729152
125	0xbe70396d	-0.23459406
126	0x3d8d482a	0.0689853
127	0x3e4b3c2c	0.19847172
128	0xbd05f83c	-0.032707438
129	0xbcdf1dd5	-0.027235905
130	0x3c926375	0.01786969
131	0xbdb8eb6f	-0.090292804
132	0xbd4987f9	-0.04920194
133	0xbe9a21c5	-0.3010389
134	0xbdf90f8c	-0.121611685
135	0xbd2bcf13	-0.04194553
136	0x3bd79222	0.0065786997
137	0x3d9c6eca	0.07638319
138	0xbc1a81ff	-0.009430408
139	0x3cc031f0	0.023461312
140	0x3dc0efe8	0.094207585
141	0x3d61cfc1	0.05512977
142	0xbc6caa6c	-0.014444929
143	0x3d84730a	0.064672545
144	0x3d9cd228	0.076572716
145	0xb9adfa6a	-0.00033183704
146	0x3d5ba8fc	0.053627953
147	0xbdf5805e	-0.11987375
148	0xbd6e3d2b	-0.058163803
149	0xbd67acef	-0.056561407
150	0xbd259c65	-0.040432353
151	0xbd04cd0a	-0.032422103
152	0xbcf71a36	-0.030163866
153	0x3d965bd2	0.07341732
154	0xbe92bef7	-0.2866132
155	0xbd59a8a0	-0.05313933
156	0xbdf753f0	-0.12076557
157	0x3d7f0578	0.062261075
158	0x3c902329	0.01759489
159	0x3d8666bd	0.065625645
160	0xbcba883f	-0.022770045
161	0xbdde6db1	-0.10860766
162	0xbd9f65e5	-0.07783107
163	0x3e45a40f	0.19300865
164	0xbe23a859	-0.15982188
165	0xbd82bcb3	-0.06383648
166	0xbc8fd1df	-0.017556129
167	0xbd920241	-0.07129336
168	0x3c7d1840	0.015447676
169	0xbd3c0184	-0.045899883
170	0x3d2028a3	0.039101254
171	0xbb8d42a6	-0.0043109236
172	0xbddcf827	-0.10789519
173	0x3cb5cad6	0.022191446
174	0x3d965b82	0.073416725
175	0x3dd3450b	0.10315903
176	0x3d9d7977	0.07689183
177	0xbc82b564	-0.015955634
178	0x3cd18dc3	0.025580293
179	0x3d79572c	0.06087415
180	0xbd00674c	-0.03134851
181	0x3e227ab2	0.15867117
182	0xbdc5be9b	-0.09655496
183	0xbbeca38b	-0.0072216443
184	0xbd3e49ea	-0.04645721
185	0x3dd7cbbe	0.105369076
186	0xbce57a49	-0.028012412
187	0x3d5a82a7	0.053347256
188	0xbdcf0a3b	-0.10109373
189	0xbdf7861c	-0.12086126
190	0x3e299c05	0.16563423
191	0x3daaf883	0.08348181
192	0x3dbbdf85	0.09173492
193	0xbcca6e7d	-0.024710888
194	0xbd92583b	-0.07145735
195	0x3e315a51	0.17319609
196	0x3dbe0f15	0.092802204
197	0xbe117b9a	-0.14207307
198	0x3c03c119	0.008041644
199	0x3de8f357	0.113745384
200	0x3da2ab06	0.079427764
201	0xbd658726	-0.05603709
202	0xbd7a4457	-0.06110033
203	0xbce6fce2	-0.028196756
204	0xbddc835f	-0.107672445
205	0xbd393a4b	-0.045221608
206	0x3cd6a6be	0.026202556
207	0x3d840f6a	0.064482525
208	0xbdd4405e	-0.103638396
209	0xbe22b19e	-0.15888068
210	0x3dbebc7e	0.09313296
211	0x3d380041	0.044922117
212	0xbd793819	-0.060844515
213	0xbdd2ca5a	-0.10292502
214	0xbc4bd08b	-0.012439857
215	0xbd0d86d8	-0.034552425
216	0x3d93276d	0.07185254
217	0x3e1131e3	0.14179187
218	0xbdc0c03f	-0.09411668
219	0x3b9df70e	0.004820711
220	0x3d170244	0.036867395
221	0x3ded7d59	0.11596174
222	0xbd8f2dc0	-0.06991148
223	0x3d7b376e	0.06133216
224	0x3dbd3a03	0.092395805
225	0xbd125f81	-0.03573561
226	0xbd5df34a	-0.054187097
227	0xbc91f45a	-0.017816711
228	0xbd4ba448	-0.049717218
229	0xbdc42b85	-0.09578613
230	0xbe3186b4	-0.17336541
231	0xbdc0b3b3	-0.09409275
232	0xbd374590	-0.044744074
233	0x3d776227	0.06039634
234	0x3dcfd727	0.10148459
235	0x3ca70bca	0.020391364
236	0xbde91337	-0.11380618
237	0xbcbf853f	-0.023378966
238	0xbd674488	-0.05646184
239	0xbc3aff87	-0.0114134615
240	0x3d78b4ae	0.060719185
241	0xbe0eb81b	-0.13937418
242	0xbdda8d9d	-0.10671542
243	0x3e09c82b	0.13455264
244	0xbe697fd9	-0.22802676
245	0xbd97d46e	-0.074135646
246	0xbdeaa1b8	-0.11456627
247	0x3c91f52d	0.017817104
248	0xbdca9615	-0.09891907
249	0xbc34dfef	-0.011039718
250	0x3d9671b9	0.073459096
251	0xbd0b6a76	-0.034037076
252	0xbe83241c	-0.25613487
253	0xba805237	-0.0009790127
254	0x3dc967f1	0.098342784
255	0x3db9bed6	0.09069602

actor.4.bias f4 [128]
0	0xbdbd1e64	-0.09234312
1	0x3cdb1a65	0.026745984
2	0xbe1b20ab	-0.1514918
3	0xbe1cfbf8	-0.15330493
4	0xbd3219d8	-0.043481678
5	0xbe111bcc	-0.1417076
6	0x3d638ec6	0.05555608
7	0xbdec9f7d	-0.115538575
8	0xbccc859d	-0.024966056
9	0xbe4f7692	-0.20260075
10	0xbe84922b	-0.25892767
11	0xbe34fb70	-0.17674041
12	0xbcb513ab	-0.022104105
13	0x3e09217f	0.13391684
14	0x3d33e57b	0.04392002
15	0x3e19a5c0	0.15004635
16	0xbd299e30	-0.041410625
17	0x3deaf3e7	0.11472302
18	0x3e1928f7	0.14957033
19	0xbe3c80a9	-0.18408455
20	0x3d4bfc10	0.049800932
21	0xbca17ef9	-0.019713866
22	0xbd079731	-0.03310317
23	0x3da2dff2	0.079528704
24	0xbd9ba829	-0.076004334
25	0xbb78d20c	-0.0037966995
26	0xbd8ef8c8	-0.06981045
27	0xbe0b14a5	-0.13582094
28	0x3e139c9d	0.14415212
29	0xbb5ae162	-0.0033398499
30	0x3db96c42	0.09053852
31	0xbd61c99f	-0.05512392
32	0xbdded7e0	-0.10881019
33	0x3d230320	0.039797902
34	0x3c92db7f	0.01792693
35	0xbdb840a0	-0.08996701
36	0xbe2e53cb	-0.17024152
37	0xbe5c6753	-0.2152379
38	0x3c14c26c	0.009079557
39	0xbdf8fe71	-0.12157906
40	0x3d48f119	0.049058054
41	0x3d03eb77	0.03220698
42	0xbe472616	-0.19448122
43	0xbdc445a0	-0.095835924
44	0xbe2ce0d6	-0.16882643
45	0xbd87abec	-0.06624588
46	0x3d1b6e58	0.03794703
47	0xbd10ad6c	-0.035321638
48	0x3dc495eb	0.09598907
49	0xbe518a2d	-0.20462866
50	0xbd346019	-0.04403696
51	0xba701de0	-0.0009159725
52	0x3d6564e9	0.05600444
53	0xbda21bcf	-0.0791546
54	0x3c026ccd	0.00796051
55	0x3e06f3cf	0.13178943
56	0x3cfb62b9	0.030686723
57	0x3dec9368	0.11551553
58	0xbb72f27b	-0.00370708
59	0xbdd0a223	-0.10187175
60	0xbe29bfc6	-0.16577062
61	0xbd43fe89	-0.047850166
62	0xbd80670d	-0.062696554
63	0xbd7063d0	-0.05868894
64	0x3cc009cd	0.023442173
65	0xbd9caf11	-0.07650579
66	0xbd3978f4	-0.045281366
67	0xbc483ce2	-0.012221547
68	0xbc9a9e9f	-0.018874465
69	0x3d63c7b9	0.055610392
70	0x3c949978	0.018139586
71	0xbe3a3568	-0.18184435
72	0xbdc0323f	-0.09384584
73	0x3d525d2e	0.051358394
74	0xbd9b71ac	-0.075900406
75	0xbdb29607	-0.08720022
76	0x3db13a45	0.08653692
77	0xbca4e40c	-0.020128272
78	0xbdc134be	-0.09433888
79	0xbd12072c	-0.03565137
80	0xbda73117	-0.0816366
81	0x3d0d1b4c	0.03444986
82	0x3cb40d3c	0.021978967
83	0x3a0dd3f3	0.0005410306
84	0xbd647e30	-0.055784404
85	0xbe0fb678	-0.1403445
86	0xbcd49be3	-0.025953239
87	0x3d924f2e	0.071440086
88	0x3d2a5d7c	0.04159306
89	0xbd51fab1	-0.05126447
90	0x3de4b484	0.11167243
91	0xb9a2e863	-0.0003107219
92	0xbe235629	-0.15950836
93	0xbd7437f6	-0.05962368
94	0xbe71ffe2	-0.23632768
95	0xbe094bad	-0.13407774
96	0x3dd7d3de	0.10538457
97	0x3ceffb19	0.029294537
98	0xbd203310	-0.039111197
99	0x3da45431	0.08023871
100	0xbe3da7ee	-0.18521091
101	0xbd966660	-0.07343745
102	0xbdcee24d	-0.10101757
103	0xbdc10652	-0.09425034
104	0xbc4895ba	-0.012242729
105	0xbd85f53e	-0.06540917
106	0xbdbc11a6	-0.09183054
107	0x3c1e7e28	0.009673633
108	0xbde113b7	-0.109900884
109	0x3cfef017	0.031120343
110	0xbe302cad	-0.17204542
111	0xbd8e8675	-0.069592394
112	0x3e22ad17	0.15886341
113	0xbe36c53a	-0.17848673
114	0x3dde5db9	0.1085772
115	0xbde23b39	-0.11046452
116	0xbe5b3e36	-0.2141045
117	0xbe0ad180	-0.1355648
118	0xbe52e1d5	-0.2059396
119	0xbe0c77c8	-0.13717568
120	0xbe1b9008	-0.15191662
121	0xbe5c820e	-0.21533987
122	0x3deac529	0.114633866
123	0x3b240888	0.00250295
124	0xbcbd0162	-0.023071948
125	0x3e347c5d	0.17625566
126	0xbe4f4ac0	-0.20243359
127	0xbdc00f59	-0.09377927

actor.6.weight f4 [12, 128]
0	0x3dc2b6ed	0.095075466
1	0xbd563b04	-0.052302375
2	0x3d59b533	0.05315132
3	0xbd99b9cc	-0.07506141
4	0xbcd3d4a7	-0.025858236
5	0x3c171c25	0.009223019
6	0xbd05069d	-0.03247701
7	0x3c21acea	0.009867886
8	0xbce287ef	-0.027652709
9	0x3dee1196	0.11624448
10	0x3c78efc5	0.015193884
11	0x3c93dd8b	0.018049976
12	0xbc1daada	-0.009623254
13	0xbddb85fc	-0.10718915
14	0xbd385195	-0.044999678
15	0x3d118a77	0.03553244
16	0xbc9d34a3	-0.019190138
17	0xbd3e92f4	-0.046526864
18	0xbce76099	-0.028244304
19	0xba940dfe	-0.0011295674
20	0xbd2d556a	-0.042317785
21	0x3cf417ff	0.029796598
22	0xbc9cdc7c	-0.019148104
23	0xbc7bb25b	-0.0153623475
24	0xbd10aaba	-0.035319068
25	0xbb9842f7	-0.0046466547
26	0xbcae926a	-0.02131005
27	0x3d2b16b5	0.041769702
28	0x3d0c4c6b	0.034252565
29	0x3c53328e	0.012890471
30	0xbbd0bcd0	-0.0063701645
31	0x3a5b9bb2	0.00083773874
32	0xbbce872d	-0.0063027353
33	0xbac7df53	-0.0015249051
34	0xbd5c0876	-0.053719006
35	0xbb88de08	-0.004176859
36	0xbd20afbd	-0.039230097
37	0x3974e0be	0.00023353376
38	0xbd9be93a	-0.07612844
39	0xbb96a7fa	-0.004597661
40	0xba85b938	-0.0010202294
41	0x3c654824	0.01399425
42	0xbe6bec1a	-0.23039284
43	0x3bacc410	0.005272396
44	0xbd408051	-0.046997372
45	0xbc5d0b90	-0.013491526
46	0xbc915c02	-0.017744068
47	0x3c7a19bf	0.015264927
48	0xbd1247f2	-0.035713144
49	0x3deb9d54	0.11504617
50	0xbbed95af	-0.0072505097
51	0xb9b51a14	-0.0003454244
52	0xbd20ccf0	-0.039257944
53	0x3baf2416	0.005344878
54	0xbc73412e	-0.014847083
55	0xbc8c4fdc	-0.017127924
56	0xbb2cb397	-0.002635216
57	0xbd9739e9	-0.07384092
58	0x3c10fd5b	0.008849467
59	0xbd0b4ab9	-0.034006808
60	0x3c833a83	0.016019111
61	0x3cb9481c	0.022617392
62	0x3c3f3de9	0.011672475
63	0xbdbc51aa	-0.09195264
64	0x3c367bc6	0.011137908
65	0xbcc05acf	-0.0234808
66	0x3d16cab7	0.036814418
67	0xbc2787a3	-0.010225209
68	0x3d8963cc	0.06708488
69	0x3d07be88	0.03314069
70	0xbc87e448	-0.016588345
71	0x3da5decd	0.080991365
72	0x3c9f084a	0.019413132
73	0xbd14b3cd	-0.036304284
74	0xbc5e47ab	-0.013566892
75	0x3c9eb3c6	0.019372832
76	0xbc33f6db	-0.010984148
77	0x3d260987	0.04053643
78	0x3daef5c2	0.08542968
79	0xbc887d39	-0.016661273
80	0x3d218d98	0.039441675
81	0xbb4b586d	-0.0031028048
82	0xbb2fb99a	-0.0026813508
83	0xbd2ffadc	-0.042963848
84	0xbc391dba	-0.011298591
85	0x3d41bcf3	0.047299337
86	0x3d5110d3	0.051041435
87	0xbcda8b7a	-0.026677836
88	0x3b3953b9	0.0028278662
89	0xbc23496e	-0.0099662375
90	0xbd1d46ff	-0.038397785
91	0x3a638983	0.00086798536
92	0x3a534545	0.0008059333
93	0x3c684413	0.014176386
94	0x3dcb77d2	0.09934963
95	0x3a5ba426	0.0008378647
96	0xbd25056b	-0.04028837
97	0xbd3a8ec8	-0.045546323
98	0x3d5d61ab	0.05404822
99	0xbd975f2d	-0.073912
100	0x392e3f7d	0.00016617584
101	0xbdb5ddde	-0.088802084
102	0xbcce29ee	-0.025166478
103	0xbd3e3aa7	-0.046442654
104	0x39bbad61	0.00035796597
105	0x3d4126de	0.047156207
106	0x3b2d0e15	0.0026406099
107	0xbd0d61cb	-0.03451709
108	0x3e09460d	0.13405629
109	0x3cbd6c10	0.023122817
110	0xbd079ccb	-0.033108514
111	0x3c0af912	0.008482235
112	0xbd01a5c7	-0.03165224
113	0xbd03523d	-0.03206085
114	0xbd4d0397	-0.05005225
115	0xbd96fdca	-0.07372625
116	0x3dd67a5a	0.104725555
117	0x3ca8153f	0.020517943
118	0x3d385751	0.045005146
119	0xbc008799	-0.007844829
120	0x3be31482	0.006929935
121	0x3d277200	0.040880203
122	0xbd3b03ca	-0.04565791
123	0xbd298819	-0.04138956
124	0xbd6d0dd9	-0.057874534
125	0xbd138494	-0.03601511
126	0x3d8e8788	0.06959444
127	0x3d444760	0.04791963
128	0xbc25d5c8	-0.01012177
129	0x3c02da26	0.007986581
130	0x3c0b9716	0.008519908
131	0x3d016f5d	0.031600345
132	0x3d9b4775	0.07581989
133	0x3cfa7241	0.030572059
134	0x3ccfdca0	0.025373757
135	0x3db727e0	0.089431524
136	0x3cfab876	0.030605536
137	0x3d53a833	0.05167408
138	0x3dd11d6e	0.102106914
139	0x3cf46c27	0.029836727
140	0x3b9841ab	0.0046465
141	0xbd6b7d57	-0.05749258
142	0xb9483ae6	-0.00019095428
143	0xbdc43629	-0.09580643
144	0x3c64feba	0.013976747
145	0x3abf94fd	0.0014616546
146	0xbd7d4a6a	-0.061838545
147	0xbe179f40	-0.14806843
148	0xbd2e55c7	-0.042562272
149	0xbd31f0e4	-0.04344262
150	0x3cb5cd8e	0.022192743
151	0xbcdfd052	-0.027321015
152	0x3d3bcc0c	0.04584889
153	0xbc527abf	-0.012846648
154	0x3c5fd637	0.013661913
155	0xbcb64b63	-0.022252744
156	0xbd9841cf	-0.07434427
157	0xbd18cd91	-0.03730542
158	0x3c0dedb3	0.008662629
159	0x3bf4992b	0.007464548
160	0x3a4c8013	0.0007801067
161	0xbb8d7777	-0.00431722
162	0x3d957905	0.07298473
163	0xbba962fb	-0.00516927
164	0x3d073477	0.03300902
165	0x3dad5d74	0.084650904
166	0xbdc49f4b	-0.09600695
167	0x3d37c336	0.044863902
168	0x3d266b6d	0.040629793
169	0xbc715cac	-0.014731567
170	0x3d99c6d2	0.07508625
171	0x3c05f9d6	0.008177241
172	0x3ca10bb6	0.019658905
173	0x3ce1de14	0.027571715
174	0xbc7b35b5	-0.015332629
175	0xbc99f54a	-0.01879372
176	0x3ca65026	0.02030189
177	0x3dd6a60f	0.10480892
178	0xbd5bf25b	-0.053697925
179	0xbb92482b	-0.0044641695
180	0x3d4f5046	0.050613664
181	0x3ced9950	0.02900377
182	0x3ac66092	0.0015134981
183	0xbd6e3e17	-0.058164682
184	0xbd1750bd	-0.036942232
185	0xbd9202d7	-0.07129448
186	0x3c0c532f	0.008564754
187	0x3dbcb1e2	0.09213616
188	0xbcbd7889	-0.023128765
189	0xbc821cbd	-0.015882844
190	0x3aefb757	0.0018288892
191	0x3d4437a2	0.047904618
192	0xbd0b1c86	-0.03396275
193	0xbcab3937	-0.020901306
194	0xbd316b3e	-0.043315165
195	0x3cdd4f0b	0.02701523
196	0xbdb28c1e	-0.087181315
197	0xbc6dcd60	-0.014514297
198	0x3c81e847	0.015857829
199	0x3dc9f69c	0.0986149
200	0xbd1c17a7	-0.038108494
201	0x3d4c0c4e	0.049816422
202	0x3cc36d8a	0.023855943
203	0x3c948308	0.018128887
204	0x3d01288b	0.031532805
205	0xbb7afbb7	-0.0038297006
206	0xbc44563e	-0.011983452
207	0x3d93e9e6	0.07222347
208	0x3cb68a70	0.022282809
209	0x3c5d034f	0.013489558
210	0xbd03c9b4	-0.03217478
211	0x3bb26433	0.0054440736
212	0x3cf13ec7	0.02944888
213	0x3cd1a158	0.02558963
214	0xbc99191e	-0.018688735
215	0x3b8989b4	0.0041973237
216	0x3c7f8445	0.0155955
217	0x3b46ff48	0.0030364562
218	0x3badb561	0.005301163
219	0x3b2d1336	0.0026409156
220	0x3d5c292a	0.053750195
221	0xbdd26884	-0.10273841
222	0x3cc7e908	0.02440311
223	0x3cbb66d6	0.022876184
224	0x38a1db9f	7.717986e-05
225	0x3b9f1d7a	0.004855809
226	0x3cab206d	0.020889485
227	0x3be9d686	0.007136169
228	0x3d5ae577	0.05344149
229	0x3acd9eb3	0.0015687555
230	0x3caa1f58	0.020766899
231	0x3d7e6b77	0.062114205
232	0xbc6aebe1	-0.0143384645
233	0xbd4a9542	-0.04945875
234	0x3cc6dca7	0.024275137
235	0xbc1fc77b	-0.00975215
236	0xbc153eec	-0.00910924
237	0xbd731f80	-0.059356213
238	0xbc57f180	-0.013180137
239	0x3be2f964	0.0069267023
240	0xbd3f6077	-0.046722855
241	0xbcde9cea	-0.027174432
242	0xbd2b3668	-0.041799933
243	0xbe14f2f8	-0.1454581
244	0xbcee996c	-0.029125892
245	0x3d83744c	0.06418666
246	0x3df338c2	0.1187606
247	0xbd9da4f2	-0.076974764
248	0x3e1aa7c6	0.15103063
249	0x3d68d174	0.056840375
250	0xbcb46d4f	-0.022024779
251	0x3cc2a1a9	0.023758726
252	0x3dc188aa	0.09449895
253	0xbd09c429	-0.03363434
254	0x3d3ad28f	0.04561096
255	0xbda20488	-0.079110205

actor.6.bias f4 [12]
0	0xbdc6004b	-0.09668025
1	0xbe81e884	-0.25372708
2	0x3d77b6e9	0.06047717
3	0x3cf66ca3	0.030081099
4	0x3d8a5d68	0.06756097
5	0xbd6eecd0	-0.05833131
6	0x3cc641fa	0.024201382
7	0xbc2659a0	-0.010153204
8	0x3d063489	0.032764945
9	0xbcdcaf52	-0.026939068
10	0x3d8cdc45	0.068779506
11	0xbdee44c6	-0.11634211

critic.0.weight f4 [128, 48]
0	0x3ebbb005	0.3665773
1	0xbd0eaf7d	-0.034835327
2	0xbdf48f1f	-0.11941361
3	0xbbef4408	-0.007301811
4	0x3cd967d0	0.02653876
5	0xbe38b139	-0.18036355
6	0x3e81fc7b	0.2538794
7	0xbe1fcd0d	-0.15605564
8	0x3dac22d7	0.08405083
9	0xbef27295	-0.47353044
10	0xbf37116b	-0.7151095
11	0xbeacd0a3	-0.33752927
12	0x3dd0ef12	0.10201849
13	0xbbf00cd1	-0.0073257466
14	0x3dfe9910	0.12431538
15	0xbcf5a85c	-0.029987507
16	0xbc9cf99b	-0.01916199
17	0xbd84ecf7	-0.0649051
18	0x3e2aa089	0.16662802
19	0x3d5b2812	0.05350501
20	0x3d9e69a4	0.07734993
21	0xbe0c570e	-0.13705084
22	0xbd572b5a	-0.052531578
23	0x3d055dec	0.032560274
24	0x3d9012a5	0.07034806
25	0xbc854860	-0.016269863
26	0xbd6be607	-0.057592418
27	0x3bf19404	0.007372381
28	0x3ca78b50	0.020452172
29	0xbb5d9248	-0.0033809114
30	0x3d109a01	0.03530312
31	0x3c289d27	0.010291374
32	0xbc1ebb48	-0.009688206
33	0x3cbb3843	0.022853976
34	0x3d4eadd3	0.05045874
35	0xbb855e00	-0.0040700436
36	0xbd755e96	-0.059904657
37	0xbcd406f3	-0.02588222
38	0xbcb20c4c	-0.02173438
39	0xbd1a13ec	-0.037616655
40	0x3ccf6401	0.02531624
41	0xbcfad7fc	-0.030620568
42	0x3c73ddd6	0.014884433
43	0x3d322dcb	0.043500703
44	0xbae18abe	-0.0017207486
45	0xbd8cb7f6	-0.06871025
46	0x3cd789f7	0.026310904
47	0xbcd63bf4	-0.026151635
48	0xbe86a30c	-0.2629627
49	0xbe256eb7	-0.16155516
50	0xbe0b4280	-0.13599586
51	0x3da8ea47	0.0824781
52	0x3d988868	0.074478924
53	0x3d5c5ce1	0.053799514
54	0x3f94ccc4	1.162499
55	0xbf798798	-0.97472525
56	0x3a57c20b	0.0008230514
57	0x3e9da324	0.3078853
58	0x3dc23d9d	0.09484408
59	0xbdb50f0d	-0.08840761
60	0x3d1b5c23	0.037929665
61	0x3e8a8cc4	0.2706052
62	0x3d8f94a4	0.07010773
63	0xbcc6c946	-0.024265897
64	0x3e6e8129	0.23291458
65	0xbcea44b8	-0.02859722
66	0x3eb1064e	0.34575123
67	0x3db0ea21	0.086384065
68	0x3debb9b9	0.11510033
69	0x3e435325	0.19074686
70	0x3f06545e	0.52472484
71	0xbccd12fd	-0.025033468
72	0x3daecee3	0.08535554
73	0xbdac9bbb	-0.08428141
74	0xbcb101b7	-0.021607263
75	0x3d82b2fa	0.06381793
76	0x3d87117a	0.0659513
77	0xbc082839	-0.008310371
78	0x3d7f4e14	0.06233032
79	0xbdaae1d3	-0.08343854
80	0x3d06853a	0.0328419
81	0xb9741669	-0.00023278002
82	0x3d0ef59d	0.034902204
83	0xbcb2c9aa	-0.021824677
84	0xbc53c8e3	-0.012926313
85	0x3cd4bc33	0.025968647
86	0x3c40d4e0	0.011769503
87	0x3e12f811	0.14352442
88	0xbd0de8ba	-0.034645773
89	0xbdbdc288	-0.092656195
90	0xbd4e49a1	-0.050363187
91	0x3d065713	0.032797884
92	0x3bf285ec	0.0074012186
93	0x3d575d6f	0.05257934
94	0xbd76cc49	-0.060253415
95	0x3d5868aa	0.05283419
96	0xbdc084f6	-0.0940036
97	0x3e19defd	0.1502647
98	0x3caeaa27	0.02132137
99	0xbdfa99ea	-0.12236388
100	0xbe1e19eb	-0.15439574
101	0x3e7499b4	0.23886758
102	0xbefda04e	-0.49536365
103	0x3fb7776b	1.4333318
104	0x3e45b029	0.19305481
105	0x3e4ce2c0	0.20008373
106	0xbdb1021f	-0.08642983
107	0xbe6eb805	-0.23312385
108	0xbdb54407	-0.08850866
109	0xbe6da243	-0.23206429
110	0xbe1b339c	-0.15156406
111	0xbe9612e4	-0.29311287
112	0x3e1a5d08	0.15074551
113	0xbe8e5464	-0.2779876
114	0x3df3384a	0.11875971
115	0x3d889133	0.066683196
116	0x3e333b8d	0.17503186
117	0xbe27f2e9	-0.16401257
118	0xbe6f73e4	-0.23384053
119	0x3d8bd196	0.06827085
120	0xbc6aeb09	-0.014338263
121	0xbd367162	-0.044541724
122	0x3ccda3db	0.025102546
123	0xbd06dcaa	-0.032925285
124	0xbc0726ec	-0.008249026
125	0xbd2cbf02	-0.042174347
126	0xbb9fcb56	-0.0048765345
127	0x3c1ce269	0.009575465
128	0x3bc292cd	0.00593791
129	0xbc055b66	-0.008139467
130	0xbccd8da9	-0.025091963
131	0x3cc303b0	0.02380547
132	0x3d521681	0.051290993
133	0x3c59c68c	0.013291966
134	0x3d044780	0.03229475
135	0x3d965e4a	0.07342203
136	0x3dce76d7	0.10081261
137	0x3ca6fb9b	0.020383647
138	0xbbe2e7c3	-0.006924601
139	0xbd51590e	-0.05111032
140	0x3c687db0	0.0141901225
141	0xbc01f4fd	-0.007931945
142	0xbb88e340	-0.004177481
143	0xbd98211e	-0.074281916
144	0xbe36b332	-0.17841795
145	0xbead8cf8	-0.33896613
146	0xbcf08934	-0.029362299
147	0x3bae868f	0.005326099
148	0x3a061ea3	0.00051162596
149	0xbe0b54e9	-0.1360661
150	0xbfe6ab19	-1.8020965
151	0xbedf9251	-0.43666318
152	0xbd0ef01c	-0.034896955
153	0x3de25dff	0.110530846
154	0x3edae894	0.42755568
155	0x3e9cb040	0.30603218
156	0x3e785d05	0.24254234
157	0x3c70c8ff	0.014696359
158	0xbd1be78c	-0.038062617
159	0xbd7015a9	-0.058614407
160	0xbd868ce2	-0.0656984
161	0xbe456c67	-0.19279633
162	0x3d13660f	0.035986003
163	0x3e1bab3e	0.15202042
164	0xbea8124f	-0.32826468
165	0x3ccc1aec	0.024915181
166	0xbe88b26a	-0.2669862
167	0xbdd7b7c3	-0.10533097
168	0x3d970cc1	0.073754795
169	0xbd473d5e	-0.04864251
170	0xbd167f9e	-0.0367428
171	0x3d01b837	0.03166982
172	0x3cf054b3	0.029337263
173	0xbd347944	-0.04406096
174	0x3c9f3a8c	0.019437097
175	0x3c8bfea1	0.01708919
176	0xbc2c9250	-0.0105329305
177	0xbcfa300b	-0.030540487
178	0x3c56259c	0.01307049
179	0x3c0b7e5f	0.008514016
180	0xbd8a3d9b	-0.067500316
181	0x3d75d8e5	0.0600213
182	0x3dd398fe	0.10331915
183	0x3d2e064c	0.042486474
184	0xbd6333ca	-0.05546931
185	0xbaff23de	-0.0019465645
186	0x3dd6c310	0.10486424
187	0x3d8bc960	0.068255186
188	0x3e0eda73	0.1395052
189	0xbd951fad	-0.07281432
190	0xbe15f676	-0.14644799
191	0xbd0a9d74	-0.033841565
192	0xbe97979b	-0.29607853
193	0xbec7e96b	-0.3904527
194	0x3e1159de	0.14194438
195	0xbe1e0b07	-0.15433894
196	0x3cb727a9	0.022357779
197	0xbc9b7d1d	-0.018980557
198	0x3f2ae8f9	0.6676174
199	0xbf2f9de5	-0.686003
200	0xbd890b9a	-0.06691666
201	0x3c70371a	0.014661575
202	0xbe963f93	-0.29345378
203	0xbec939a5	-0.39301792
204	0xbcf578ce	-0.02996483
205	0x3e0f588f	0.13998626
206	0x3daa1dc8	0.083064616
207	0x3d757099	0.059921835
208	0x3e13696d	0.14395685
209	0xbd5a6398	-0.053317636
210	0xbcc5153d	-0.024057979
211	0xbe5f91bc	-0.21832937
212	0xbd5aeb8d	-0.053447295
213	0xbd1ea5aa	-0.03873221
214	0xbcf8225d	-0.030289823
215	0xbe41073e	-0.18850419
216	0xbdbf0298	-0.093266666
217	0x3d81cae4	0.063375264
218	0xbd3bba3b	-0.0458319
219	0xbbc66689	-0.0060547036
220	0x3d273c20	0.040828824
221	0x3ce20442	0.02758992
222	0xbdd24d00	-0.10268593
223	0xbd8545ae	-0.06507431
224	0xbd07c902	-0.03315068
225	0xb9be7028	-0.00036323187
226	0xbcc37999	-0.023861693
227	0x3cbdb700	0.02315855
228	0x3de98998	0.11403197
229	0xbd2aef36	-0.041732036
230	0xbdb07729	-0.08616478
231	0x3cdbe40f	0.026842145
232	0x3a94e1de	0.0011358818
233	0x3c9b5782	0.018962625
234	0xbdb5532d	-0.08853755
235	0xbda37a22	-0.07982279
236	0xbc0bbbd5	-0.008528669
237	0x3d6c9957	0.057763424
238	0xbe19fdb9	-0.15038194
239	0xbd9cdfd3	-0.076598786
240	0xbeaad50d	-0.3336567
241	0xbe0df54c	-0.13863105
242	0x3cee1b3f	0.029065726
243	0x3d7fde94	0.062468126
244	0xbd7b5a19	-0.06136522
245	0x3e178bbb	0.14799397
246	0xbf0d45fa	-0.551849
247	0xbf2fdd3e	-0.68696964
248	0x3d70f9f8	0.05883214
249	0x3e576a93	0.21036749
250	0x3c8b753b	0.017023673
251	0x3e02b6ef	0.12765096
252	0xbe24bde1	-0.16088058
253	0x3d6588fb	0.056038838
254	0x3d941c78	0.072319925
255	0x3e42c6a0	0.19021082

critic.0.bias f4 [128]
0	0xbd17196c	-0.03688948
1	0x3e5db827	0.2165228
2	0xbd9229d6	-0.07136886
3	0xbe170beb	-0.1475064
4	0x3d9be2db	0.076116286
5	0x3dcaa8e0	0.098954916
6	0xbd5e457d	-0.054265488
7	0x3e2fb4a7	0.17158757
8	0x3e3324c8	0.174945
9	0xbd353bcc	-0.04424648
10	0x3dd91b46	0.10600905
11	0xbeac0405	-0.33596817
12	0xbe17929b	-0.1480202
13	0xbe411b39	-0.18858041
14	0xbc87e0fc	-0.016586773
15	0xbe15bdf2	-0.1462324
16	0xbe2c0b33	-0.16801147
17	0x3d26d8e4	0.040734187
18	0xbe25714f	-0.16156505
19	0xbd55926b	-0.05214159
20	0xbe0b79ae	-0.13620636
21	0xbe0ad8b6	-0.13559231
22	0xbdce5575	-0.100748934
23	0xbd9bf0a9	-0.07614262
24	0xbe094cd9	-0.13408221
25	0x3dae651b	0.08515378
26	0xbe38db35	-0.18052371
27	0xbde330ef	-0.11093318
28	0x3e29e7d4	0.16592342
29	0x3b99cebd	0.0046938346
30	0x3d104f5d	0.035231937
31	0x3dc531a9	0.096286125
32	0x3b8a0a45	0.00421265
33	0xbe32c208	-0.1745683
34	0xbe639420	-0.22224474
35	0xbe2058ea	-0.15658918
36	0xbe51ffe6	-0.20507774
37	0x3b9d680e	0.004803664
38	0x3e470b84	0.19437987
39	0x3c483b66	0.012221193
40	0xbe211718	-0.15731466
41	0xbcab6d88	-0.020926252
42	0xbe7d4900	-0.24734879
43	0xbc583a13	-0.01319744
44	0xbe97464e	-0.29545826
45	0xbe4483bb	-0.19190876
46	0xbd33c174	-0.043885663
47	0x3b0a843b	0.0021135944
48	0xbe369745	-0.17831142
49	0x3ce721b8	0.02821432
50	0x3d2f65d7	0.04282173
51	0x3c362201	0.011116506
52	0x3c9a400d	0.01882937
53	0xbc57c97c	-0.013170596
54	0xbe09484b	-0.13406484
55	0x3e508e2b	0.20366733
56	0xbad85995	-0.001650619
57	0xbe5e703c	-0.21722502
58	0xbe0826e1	-0.13296081
59	0x3d71550a	0.05891899
60	0xbd0eb88d	-0.03484397
61	0xbdb058f5	-0.08610717
62	0x3d32fd80	0.043698788
63	0xbdd0fa9e	-0.102040514
64	0x3e17cb81	0.14823724
65	0x3e6c4a8a	0.2307531
66	0x3c8934ce	0.016748812
67	0x3e442059	0.19152965
68	0x3d8caaec	0.06868538
69	0x3e1455f2	0.1448591
70	0xbd9b847f	-0.07593631
71	0xbe002575	-0.12514289
72	0xbe1f8142	-0.15576652
73	0xbd86051d	-0.06543944
74	0xbaf92653	-0.0019008614
75	0xbcdf8026	-0.027282786
76	0xbd12c521	-0.035832528
77	0x3e695bfe	0.22788998
78	0x3da4b167	0.08041649
79	0xbe21c547	-0.15797912
80	0x3e287b14	0.164532
81	0xbe2c70aa	-0.16839853
82	0xbc1b2ecc	-0.009471606
83	0xbb89d20b	-0.0042059473
84	0x3e4ee487	0.20204364
85	0x3c2f8fea	0.010715464
86	0xbe15f258	-0.14643228
87	0x3e336443	0.17518716
88	0x3c854cae	0.016271915
89	0xbe12730f	-0.14301704
90	0x3cc1ce43	0.023657924
91	0xbdf72391	-0.12067331
92	0xbe4b722b	-0.1986777
93	0xbda396a4	-0.07987717
94	0xbe298548	-0.16554749
95	0xbe086baa	-0.1332232
96	0x3e0d840e	0.13819906
97	0x3d8fdc37	0.070244245
98	0x3e1864eb	0.14882247
99	0x3d6c767c	0.057730183
100	0xbd99547d	-0.07486818
101	0x3c637b3a	0.01388436
102	0x3e3dfadf	0.18552731
103	0xbe103217	-0.14081608
104	0x3d4ac182	0.04950095
105	0xbd9d93c2	-0.07694198
106	0x3d22ceac	0.03974788
107	0xbda8bc00	-0.08238983
108	0x3dc7789b	0.097398005
109	0x3e726ea5	0.2367502
110	0x3da35c0f	0.07976543
111	0xbdbd084c	-0.09230098
112	0xbe2e54b9	-0.17024507
113	0xbcfde9f3	-0.030995345
114	0xbd50bddd	-0.050962318
115	0x3d99ca37	0.075092725
116	0xbe21ecb7	-0.15812956
117	0xbe290134	-0.16504365
118	0xbdd8c334	-0.10584107
119	0xbe8a6573	-0.27030525
120	0x3cfb2190	0.030655652
121	0x3e52043d	0.2050943
122	0xbd053ef0	-0.032530725
123	0x3d5ba816	0.053627096
124	0x3dcc404e	0.09973203
125	0x3d8493db	0.06473514
126	0xbe4b786b	-0.19870155
127	0x3cd848f0	0.026401967
