logs/rsl_rl/anymal_c_flat_direct/2025-04-24_12-25-01/model_300.pt (torch, 983322 bytes, 48 tensors)

std f4 [12]
0.13326676 0.13351767 0.12891746 0.12713109 0.15519482 0.15548903 0.15836254 0.16776232
0.10161064 0.119603366 0.09802047 0.10717599
00000000: 1577 083e dbb8 083e f002 043e a72e 023e
00000010: 64eb 1e3e 8438 1f3e ca29 223e e3c9 2b3e
00000020: 3d19 d03d 9cf2 f43d f5be c83d 167f db3d

actor.0.weight f4 [128, 48]
0.21247377 -0.01293061 -0.15241553 -0.12498921 0.33957356 -0.34926242 0.22552331 0.07020737
0.110713 -0.049537852 0.4004538 0.26117125 0.021842457 -0.2802496 -0.29021573 -0.55872095
-0.105353035 0.22612901 -0.0037483717 -0.16599792 0.019676864 0.31687108 0.418927 -0.05436124
-0.058828883 0.033850167 0.030875336 -0.04508193 0.06880352 0.16691853 -0.06460658 -0.008974223
0.059362106 0.05505311 -0.06975481 -0.006821054 0.031907924 -0.21790984 0.21337321 -0.13676015
0.0047110324 -0.16629782 0.14939941 -0.100112654 -0.17730308 -0.17420083 0.13708435 0.10971616
-0.5106994 -0.43557358 0.102954224 -0.1186923 -0.2173304 0.050337445 -0.08241159 0.34503075
0.17052741 -0.1459458 0.49894664 -0.30605617 0.05967747 -0.020553976 0.07020847 -0.14147155
-0.104253665 -0.10678378 -0.34173134 0.06967407 0.0340643 0.105510466 0.02166449 0.24603878
0.04299466 0.014886986 -0.021951068 -0.052162573 -0.026542315 -0.021931926 -0.07651259 -0.089678034
-0.017401703 -0.022202777 -0.005362947 0.018264864 -0.032628585 0.09367053 -0.0049737603 -0.031030774
-0.007049451 -0.0068269125 -0.0074514137 -0.12477524 -0.19840854 -0.15183297 0.036785632 -0.17475091
-0.12690157 -0.060126457 0.2550657 0.08379813 0.1278218 -0.2625703 -0.34065324 -0.9265842
0.15259719 0.3758466 0.00095561653 0.33607236 0.33502942 0.080695435 0.09920924 0.31562302
-0.07086573 -0.32276872 0.22411384 0.38728878 0.24430867 -0.0019062415 -0.060782906 0.078230835
-0.07162577 0.06860772 0.006849513 0.007534737 -0.08260889 -0.08034471 0.0075321384 0.07057279
-0.011755954 0.047281075 0.033093374 -0.0010967052 0.16431126 0.14894564 0.15047683 -0.091183856
0.07031114 -0.18277116 -0.04115157 -0.13489151 -0.21167983 -0.02965577 -0.12730144 -0.1615666
-0.20441341 0.29359135 0.4428259 0.21892844 -0.14326882 0.08790079 0.13694803 0.43931207
0.005106748 -0.13783108 -0.11249253 0.37529534 -0.2927913 0.34383205 0.19279927 0.123979636
0.1317032 -0.23452012 0.20194297 -0.579603 0.08561444 0.056278236 0.6892296 -0.24184754
0.14102693 -0.03012764 0.12951708 -0.10055938 0.028488064 -0.06072547 0.080560476 0.029402409
-0.023032527 -0.023726165 0.10833718 0.03175006 0.14914156 -0.12388879 -0.029405132 -0.19172692
-0.056369822 -0.013792355 0.28518045 -0.17104502 -0.05478258 -0.16028443 -0.36768925 -0.02305812
0.29683182 -0.038160287 -0.20083791 -0.21217032 0.19807479 0.22324838 0.58021086 0.5148133
0.08465674 0.20909625 -0.30502382 0.013086761 -0.22223626 -0.10932421 -0.1948395 -0.42616373
-0.19847685 -0.15863775 0.2655907 0.008059035 0.28162968 -0.2858872 0.019276502 -0.15272826
0.049395792 -0.078603856 0.043810595 -0.15657707 0.05767076 0.044428803 -0.11298218 0.057388183
0.058794692 -0.023461143 -0.045793653 0.008050351 0.13426842 0.22099498 -0.09365409 -0.20627391
-0.11091349 0.05863996 0.013097602 0.07988715 -0.09115115 -0.2079429 0.061586812 0.40496302
-0.16373593 0.10494392 -0.38724828 0.20036872 -0.041340113 0.29331955 0.012203724 -0.09215614
-0.030666241 0.04199739 -0.37626997 0.033026498 0.21689574 0.5867379 -0.076220974 0.06398746
00000000: b992 593e e9da 53bc d112 1cbe 58fa ffbd
00000010: 96dc ad3e 86d2 b2be 95ef 663e e2c8 8f3d
00000020: 7fbd e23d 34e8 4abd 4808 cd3e 3db8 853e
00000030: f4ee b23c e07c 8fbe 2897 94be 5608 0fbf
00000040: 55c3 d7bd 5d8e 673e 3ea7 75bb 5cfb 29be
00000050: 6031 a13c ed3c a23e 9a7d d63e e4a9 5ebd
00000060: 8ef6 70bd 79a6 0a3d 46ee fc3c d4a7 38bd
00000070: dce8 8c3d b1ec 2a3e 7450 84bd 9f08 13bc
00000080: ae25 733d 5f7f 613d 9cdb 8ebd 2683 dfbb
00000090: e2b1 023d c223 5fbe 827e 5a3e da0a 0cbe
000000a0: 015f 9a3b fa49 2abe 29fc 183e dd07 cdbd
000000b0: f08e 35be b461 32be d75f 0c3e deb2 e03d
000000c0: 32bd 02bf 8003 dfbe aad9 d23d f314 f3bd
000000d0: dc8b 5ebe a32e 4e3d 68c7 a8bd dfa7 b03e
000000e0: bd9e 2e3e d172 15be ef75 ff3e 65b3 9cbe
000000f0: 5d70 743d d060 a8bc 75c9 8f3d ebdd 10be
00000100: f282 d5bd 74b1 dabd 69f7 aebe 47b1 8e3d
00000110: 0287 0b3d df15 d83d bb79 b13c 97f1 7b3e
00000120: 2b1b 303d 8ce8 733c bad2 b3bc 6ca8 55bd
00000130: 456f d9bc 95aa b3bc a2b2 9cbd 1ea9 b7bd
00000140: 048e 8ebc 99e2 b5bc a9bb afbb 32a0 953c
00000150: 8da5 05bd 56d6 bf3d edfa a2bb 4034 febc
00000160: 15ff e6bb 4bb4 dfbb fd2a f4bb 298a ffbd
00000170: 9c2b 4bbe 1a7a 1bbe 88ac 163d e7f1 32be
00000180: 7cf2 01be 2947 76bd f997 823e 5b9e ab3d
00000190: b8e3 023e 9d6f 86be 1a6a aebe 9f34 6dbf
000001a0: 7042 1c3e f76e c03e 5782 7a3a ad11 ac3e
000001b0: fa88 ab3e a643 a53d 372e cb3d 5799 a13e
000001c0: 0d22 91bd f141 a5be 197e 653e b74a c63e
000001d0: 0d2c 7a3e dada f9ba 7ff7 78bd 7d37 a03d
000001e0: 88b0 92bd 3482 8c3d e171 e03b f4e5 f63b
000001f0: da2e a9bd c48b a4bd 28d0 f63b 7888 903d
00000200: 0b9c 40bc cda9 413d eb8c 073d 52bf 8fba
00000210: 3641 283e 3585 183e 9916 1a3e 9abe babd
00000220: 49ff 8f3d 5d28 3bbe 8c8e 28bd 0021 0abe
00000230: 99c2 58be a8f0 f2bc 4f5b 02be b771 25be
00000240: c051 51be 9b51 963e 14ba e23e c72e 603e
00000250: 10b5 12be 5405 b43d 1b3c 0c3e 83ed e03e
00000260: 8256 a73b 9723 0dbe 7c62 e6bd b626 c03e
00000270: bee8 95be c10a b03e 2c6d 453e 09e9 fd3d
00000280: 34dd 063e 0b26 70be 23ca 4e3e dd60 14bf
00000290: a056 af3d 0284 663d 5a71 303f e2a6 77be
000002a0: 5d69 103e 3ece f6bc 20a0 043e 14f2 cdbd
000002b0: cd5f e93c 45bb 78bd e4fc a43d 52dd f03c
000002c0: b6ae bcbc 605d c2bc e2df dd3d 5a0c 023d
000002d0: 91b8 183e 68b9 fdbd 08e3 f0bc 1054 44be
000002e0: 0be4 66bd 54f9 61bc 2c03 923e 6d26 2fbe
000002f0: b363 60bd 9a21 24be c441 bcbe 62e4 bcbc
00000300: 57fa 973e f64d 1cbd 74a8 4dbe 2d43 59be
00000310: 1ed4 4a3e 399b 643e b388 143f ceca 033f
00000320: 8360 ad3d 541d 563e 152c 9cbe db69 563c
00000330: e791 63be 5fe5 dfbd 0284 47be 2232 dabe
00000340: 843d 4bbe ef71 22be 81fb 873e 0b0a 043c
00000350: c431 903e cf5f 92be c1e9 9d3c cc64 1cbe
00000360: 3e53 4a3d 0ffb a0bd bd72 333d bd55 20be
00000370: 2d38 6c3d fafa 353d 3463 e7bd df0f 6b3d
00000380: b4d2 703d 9531 c0bc 2092 3bbd 9fe5 033c
00000390: a97d 093e 824c 623e b7cd bfbd 7839 53be
000003a0: 9d26 e3bd 7430 703d 5397 563c e09b a33d
000003b0: 74ad babd fcee 54be 7442 7c3d 5057 cf3e
000003c0: 64aa 27be d7ec d63d 6845 c6be 752d 4d3e
000003d0: 4054 29bd fb2d 963e 21f2 473c 5cbc bcbd
000003e0: c537 fbbc 7505 2c3d 75a6 c0be cb46 073d
000003f0: eb19 5e3e 7434 163f be19 9cbd dc0b 833d

actor.0.bias f4 [128]
-0.19511731 -0.10494198 0.08039106 0.010493716 0.15661827 0.0745841 -0.07325955 0.046314135
0.0109046325 0.034045126 -0.05233726 0.008855819 -0.06222608 -0.07220415 -0.02714008 -0.024365058
0.058359224 -0.10932708 -0.01851584 -0.033272654 -0.029386807 0.04196638 -0.07799724 -0.24664181
-0.0884973 -0.051965225 0.048553973 0.032302022 -0.12466353 0.013152418 0.002907611 -0.0054751933
0.18435687 0.11536457 -0.010812405 0.03959437 0.057233226 -0.06682645 -0.11429827 -0.08831912
0.03679543 -0.033057045 0.051598087 0.074476756 -0.037331454 0.045452263 -0.055315394 0.08746579
-0.18028113 0.082049385 -0.0052481564 -0.06765704 0.08515692 0.047612917 -0.12995462 -0.025104942
0.030120553 -0.1895399 0.034535285 -0.019538417 -0.057133496 0.054004893 -0.22915867 0.10675255
-0.22875896 -0.1533129 -0.09319935 -0.22531433 -0.110909395 -0.0013195673 -0.036151864 -0.053941756
-0.0004520671 -0.028549062 -0.0034333065 0.022574123 0.12343918 -0.10971108 -0.11286794 -0.059061673
-0.033148136 -0.009938243 0.07741598 -0.072090745 -0.15815954 -0.15003105 0.06263976 -0.03867741
0.030510927 0.13507505 -0.06019647 -0.0756233 -0.07564539 -0.013369952 -0.028559076 0.064249866
-0.18584113 -0.11123588 -0.14852263 -0.056841407 0.0051392918 -0.03446844 -0.07110429 0.17815556
0.058370825 -0.061491374 -0.090463124 0.07975387 0.122461565 -0.121965125 0.053240776 -0.08438129
0.13797 -0.14265387 -0.14490713 -0.0012810878 -0.11599611 -0.17164719 0.0052981633 -0.047689375
0.17653105 0.016036589 -0.057062805 -0.00920381 0.0036307634 -0.08042229 0.0041832845 0.026844647
00000000: d5cc 47be d2eb d6bd 11a4 a43d d6ed 2b3c
00000010: 8a60 203e 8cbf 983d 1a09 96bd e4b3 3d3d
00000020: 58a9 323c e772 0b3d 985f 56bd ff17 113c
00000030: c6e0 7ebd c5df 93bd e054 debc 3b99 c7bc
00000040: 150a 6f3d e0e6 dfbd 88ae 97bc e848 08bd
00000050: 9abc f0bc f0e4 2b3d 04bd 9fbd ac8f 7cbe
00000060: 133e b5bd 7dd9 54bd 88e0 463d 204f 043d
00000070: 984f ffbd 3d7d 573c 9e8d 3e3b 4069 b3bb
00000080: 0cc8 3c3e 4244 ec3d 8326 31bc b52d 223d
00000090: 636d 6a3d 4edc 88bd 3615 eabd a8e0 b4bd
000000a0: ceb6 163d d366 07bd 8458 533d 4587 983d
000000b0: dee8 18bd 272c 3a3d 6592 62bd 4421 b33d
000000c0: 9e9b 38be 8209 a83d baf8 abbb c68f 8abd
000000d0: c066 ae3d c305 433d d312 05be e1a8 cdbc
000000e0: 61bf f63c bf16 42be df74 0d3d 080f a0bc
000000f0: d004 6abd 3c34 5d3d 92a8 6abe 15a1 da3d
00000100: ca3f 6abe 0ffe 1cbe 4ddf bebd cdb8 66be
00000110: 7724 e3bd 55f5 acba fa13 14bd 08f2 5cbd
00000120: 6b03 edb9 b9df e9bc 5301 61bb 5eed b83c
00000130: aecd fc3d 34b0 e0bd 4e27 e7bd a7ea 71bd
00000140: 57c6 07bd 03d4 22bc 458c 9e3d 50a4 93bd
00000150: 93f4 21be bda1 19be 4649 803d 346c 1ebd
00000160: 0df2 f93c 1d51 0a3e 9390 76bd 64e0 9abd
00000170: f8eb 9abd a50d 5bbc b9f4 e9bc 6f95 833d
00000180: 234d 3ebe a3cf e3bd 5116 18be 89d2 68bd
00000190: 8167 a83b c72e 0dbd 209f 91bd 696e 363e
000001a0: 3f16 6f3d 61de 7bbd bb44 b9bd ff55 a33d
000001b0: 21cd fa3d dac8 f9bd 0013 5a3d 19d0 acbd
000001c0: 0248 0d3e db13 12be 8962 14be 2cea a7ba
000001d0: 5e8f edbd 48c4 2fbe 379c ad3b ef55 43bd
000001e0: 8ec4 343e 2a5f 833c b0ba 69bd 94cb 16bc
000001f0: 1af2 6d3b 71b4 a4bd ef13 893b 4ee9 db3c

actor.2.weight f4 [128, 128]
0.11692646 0.10387408 0.07296137 -0.061996736 0.0922165 -0.014073197 -0.016299065 0.06452802
0.076108575 -0.16010879 0.22263633 0.0865622 -0.09872453 -0.03147187 0.11927816 0.091654286
-0.009818874 0.07477715 -0.020220777 -0.019067483 -0.08662698 0.051487043 -0.13088824 0.18314064
0.03748167 0.06939216 0.059115335 0.03629724 -0.08988268 -0.009320454 -0.05047006 0.0798849
-0.11389462 0.018502077 0.023460705 -0.07901982 0.028160246 0.08329597 -0.004359816 0.06193788
-0.0024456144 -0.030060159 0.12336512 0.0865601 0.07035785 -0.17130113 -0.10665226 -0.050634157
-0.013763215 -0.010960598 0.023449104 0.00534792 -0.0048645544 -0.0913758 0.011675844 -0.08562299
-0.106973015 0.08888358 0.006381649 0.04903591 -0.19191147 -0.10465022 0.12817952 -0.09576645
0.10315565 0.15600458 -0.11147643 0.060174037 0.08195025 0.07105043 -0.040689938 -0.056606617
0.027412299 -0.121875115 0.0707226 0.0825768 0.003996575 -0.073658474 -0.1132546 0.058901984
-0.1552783 0.10644997 -0.06321067 0.14269799 0.020226523 -0.09962289 0.038075056 0.09185346
0.073010616 0.047169045 -0.044522263 -0.06996675 0.066486806 -0.0017312984 0.039998915 0.1736393
-0.050555844 -0.050336193 0.114190586 -0.051419247 0.049667876 0.07411304 -0.073641896 0.007366744
0.012433066 -0.033477712 0.044727463 0.056862332 -0.020358521 0.18152839 0.073359616 0.14227426
-0.018731339 0.028842408 -0.19490317 -0.044616837 0.19344807 -0.046055377 -0.015446852 0.16473441
0.021000631 -0.09935574 0.14698502 -0.25467843 0.14700556 -0.06877716 -0.033620544 0.029589487
0.15554944 0.028278029 -0.035816383 0.011964662 0.12158054 0.08844182 0.0049856757 0.117916845
-0.14502446 0.05612041 -0.0763542 -0.15248023 0.04963807 -0.08805605 -0.10423395 0.033824883
0.07062509 -0.11139978 -0.054061543 0.11406426 -0.076568045 -0.2271534 0.12619501 -0.08711958
0.044645857 -0.10133456 0.057043295 -0.112290636 -0.0027657885 -0.15804183 -0.024889858 -0.008466883
0.19166102 0.025520524 -0.11979545 -0.24405152 0.017346725 0.063314505 -0.071645096 -0.005809179
0.026065616 -0.1095432 0.10216206 0.07948922 0.05415773 -0.17952661 -0.09244363 0.031603333
-0.10956716 -0.023997 0.056150433 0.0049299425 -0.09713384 0.0033152406 0.09998596 -0.03926907
0.101635024 -0.06274235 -0.14900175 0.032594554 0.004001569 0.05018611 -0.013540921 0.064035796
0.083669886 -0.08446993 -0.048741393 -0.09061855 -0.01817069 -0.036799114 0.04403031 -0.013002952
-0.07080833 0.11613495 -0.10183535 -0.09617983 -0.1033869 0.06351441 0.10331485 -0.08191227
0.005674094 -0.036151398 0.11983056 -0.13535587 -0.096191555 0.03829575 -0.036363237 0.096302524
-0.10190896 0.118720256 0.08294045 0.15385638 0.047215465 -0.112629786 -0.006279435 0.05374739
-0.02182234 -0.13621429 0.12677048 -0.019343229 0.094781056 -0.079662025 -0.06306736 0.100133546
-0.094740435 -0.07271609 -0.12464583 -0.107756734 -0.007929378 -0.105039686 0.020267045 0.11946995
0.07027944 -0.03999193 -0.018777747 0.049510457 -0.12475208 -0.007485484 0.0026922633 0.020515079
0.032753788 -0.11727754 -0.033943526 -0.13378856 -0.08874806 -0.11538326 -0.089068264 0.026880844
00000000: 2477 ef3d efbb d43d c56c 953d 4af0 7dbd
00000010: 01dc bc3d 4493 66bc 9e85 85bc 4427 843d
00000020: d0de 9b3d 8ff3 23be c7fa 633e 8647 b13d
00000030: 1630 cabd a6e8 00bd 1c48 f43d 3eb5 bb3d
00000040: 58df 20bc c324 993d 0ba6 a5bc 6933 9cbc
00000050: 7c69 b1bd 14e4 523d 9107 06be 3889 3b3e
00000060: 6186 193d 7a1d 8e3d ec22 723d 6aac 143d
00000070: 6914 b8bd d1b4 18bc b2b9 4ebd b29a a33d
00000080: 9541 e9bd ab91 973c aa30 c03c 25d5 a1bd
00000090: 51b0 e63c 1497 aa3d cadc 8ebb 93b2 7d3d
000000a0: 9a46 20bb b940 f6bc daa6 fc3d 6c46 b13d
000000b0: c717 903d 9069 2fbe 806c dabd c365 4fbd
000000c0: 1c7f 61bc 1494 33bc 5618 c03c 9b3d af3b
000000d0: d766 9fbb 3c23 bbbd 0a4c 3f3c 1b5b afbd
000000e0: ab14 dbbd 9808 b63d 271d d13b e1d9 483d
000000f0: 7184 44be db52 d6bd 7e41 033e 3321 c4bd
00000100: 4543 d33d aabf 1f3e c14d e4bd 0d79 763d
00000110: 88d5 a73d e382 913d 7eaa 26bd 57dc 67bd
00000120: c28f e03c a999 f9bd 03d7 903d 061e a93d
00000130: b3f5 823b 41da 96bd 07f2 e7bd 3543 713d
00000140: 4601 1fbe 7102 da3d 9974 81bd 6c1f 123e
00000150: 18b2 a53c 1607 ccbd 97f4 1b3d ab1d bc3d
00000160: 9786 953d 5434 413d fa5c 36bd ba4a 8fbd
00000170: 3c2a 883d bcec e2ba e7d5 233d 80ce 313e
00000180: a513 4fbd 532d 4ebd c1dc e93d fd9c 52bd
00000190: 8b70 4b3d 94c8 973d 90d1 96bd ba64 f13b
000001a0: 0fb4 4b3c ed1f 09bd 2534 373d 7ae8 683d
000001b0: eac6 a6bc 94e2 393e 913d 963d 58b0 113e
000001c0: 7772 99bc ea46 ec3c b294 47be 25c0 36bd
000001d0: 4017 463e 90a4 3cbd cb14 7dbc 23b0 283e
000001e0: 8409 ac3c 067b cbbd 3e83 163e 3665 82be
000001f0: a088 163e 0adb 8cbd b2b5 09bd a765 f23c
00000200: 5a48 1f3e 53a7 e73c 33b4 12bd 6e07 443c
00000210: 38ff f83d fc20 b53d e15e a33b 637e f13d
00000220: 4b81 14be 84de 653d 975f 9cbd c723 1cbe
00000230: 4a51 4b3d bb56 b4bd 9c78 d5bd f68b 0a3d
00000240: e3a3 903d 9125 e4bd a36f 5dbd 869a e93d
00000250: b5cf 9cbd e79a 68be 4439 013e c06b b2bd
00000260: 93de 363d 7e88 cfbd 3ba6 693d a2f8 e5bd
00000270: 3b42 35bb b8d5 21be d1e5 cbbc aeb8 0abc
00000280: c942 443e 6b10 d13c 5157 f5bd a4e8 79be
00000290: b81a 8e3c 09ab 813d aaba 92bd ed5a bebb
000002a0: 8f87 d53c 2f58 e0bd 583a d13d 3fcb a23d
000002b0: 7fd4 5d3d d3d5 37be 1653 bdbd 7f72 013d
000002c0: bf64 e0bd 5b95 c4bc fffd 653d 5b8b a13b
000002d0: 1bee c6bd 8244 593b 70c5 cc3d 9bd8 20bd
000002e0: 0626 d03d 107f 80bd ea93 18be de81 053d
000002f0: 981f 833b f38f 4d3d bdda 5dbc 3325 833d
00000300: 1e5b ab3d 92fe acbd 0ea5 47bd 3896 b9bd
00000310: b3da 94bc abba 16bd 2059 343d 550a 55bc
00000320: f503 91bd 29d8 ed3d 0d8f d0bd eef9 c4bd
00000330: 83bc d3bd d813 823d bc96 d33d 9fc1 a7bd
00000340: c0ed b93b 7d13 14bd ba69 f53d bb9a 0abe
00000350: 1400 c5bd 01dc 1c3d 9ef1 14bd 423a c53d
00000360: a5b5 d0bd 9b23 f33d afdc a93d 878c 1d3e
00000370: 0165 413d 72aa e6bd b8c3 cdbb 3926 5c3d
00000380: c4c4 b2bc c27b 0bbe 1fd0 013e b175 9ebc
00000390: 921c c23d d825 a3bd 7629 81bd d112 cd3d
000003a0: 4607 c2bd 2cec 94bd 5046 ffbd 90af dcbd
000003b0: 39ea 01bc 0c1f d7bd 1307 a63c a9ac f43d
000003c0: abee 8f3d 94ce 23bd cad3 99bc 7acb 4a3d
000003d0: 057e ffbd ca48 f5bb af70 303b 3d0f a83c
000003e0: d628 063d 352f f0bd 5e08 0bbd deff 08be
000003f0: 8bc1 b5bd 0f4e ecbd 6c69 b6bd 3735 dc3c

actor.2.bias f4 [128]
-0.15867524 0.011601907 -0.1533113 -0.1050002 0.023824085 -0.08662213 0.015977142 -0.09490426
-0.028878145 0.03582796 -0.15277772 -0.09060856 -0.050580658 -0.030483041 -0.06720295 -0.1087446
-0.107007705 -0.032481983 -0.017944593 -0.09289357 -0.014210561 -0.03711894 -0.035878092 -0.11534907
-0.103610024 -0.17185976 -0.08035086 -0.08121299 -0.020521138 -0.20134887 -0.03125554 -0.005242878
0.0073820064 -0.107692264 0.005638363 -0.15377001 -0.046617035 -0.043695312 0.064175904 -0.053166606
-0.16563314 -0.003330297 -0.010042127 -0.08990439 -0.11073462 -0.036613226 -0.037220355 -0.20921355
-0.044296056 -0.053173594 -0.09833171 -0.16493972 -0.11748897 -0.041024197 -0.053949814 -0.1985775
-0.023908384 -0.1315804 -0.080441356 -0.03690171 0.05330954 -0.061449785 0.061869327 0.052768156
0.00047955374 -0.18339969 -0.014905744 -0.11198678 -0.13464706 0.0638595 -0.016134018 0.08395445
-0.068716 -0.029930603 -0.06239798 -0.042580273 0.118712045 -0.08064898 -0.026611084 -0.14873645
-0.040387884 0.047466584 -0.07285193 -0.11399185 0.020272994 -0.06456337 -0.082083724 -0.015750233
-0.018045647 -0.06964374 0.025478536 0.092000656 0.00246918 -0.0034502526 -0.064784914 -0.08271159
-0.09026097 -0.08132141 0.08210197 0.040061787 -0.16153504 -0.04710064 -0.048584815 0.02170143
-0.10002538 -0.07596871 -0.15149894 -0.011765207 -0.06383834 0.016212586 -0.15257281 -0.08314784
-0.059590593 0.0042151986 -0.020434229 -0.02788993 -0.0603809 -0.004569795 -0.0069961096 -0.21365888
-0.1137921 -0.0068680807 -0.13430725 -0.12027951 0.06862139 0.08837098 -0.16897303 -0.036905054
00000000: c37b 22be ed15 3e3c a3fd 1cbe 580a d7bd
00000010: ba2a c33c f166 b1bd 7fe2 823c 2a5d c2bd
00000020: dc91 ecbc 57c0 123d c371 1cbe fb90 b9bd
00000030: aa2d 4fbd 92b7 f9bc b3a1 89bd 7db5 debd
00000040: db26 dbbd d40b 05bd 8a00 93bc fc3e bebd
00000050: 6ad3 68bc 080a 18bd e8f4 12bd 223c ecbd
00000060: 7e31 d4bd 01fc 2fbe fe8e a4bd ff52 a6bd
00000070: f21b a8bc 662e 4ebe cf05 00bd 73cc abbb
00000080: c2e4 f13b c38d dcbd 04c2 b83b e375 1dbe
00000090: 81f1 3ebd dbf9 32bd a86e 833d 3ac5 59bd
000000a0: bc9b 29be 1d41 5abb bc87 24bc cb1f b8bd
000000b0: d5c8 e2bd c0f7 15bd 5f74 18bd 143c 56be
000000c0: c86f 35bd 8ecc 59bd 2362 c9bd f5e5 28be
000000d0: 0f9e f0bd fd08 28bd 7bfa 5cbd e657 4bbe
000000e0: 84db c3bc 03bd 06be 70be a4bd 3f26 17bd
000000f0: 1b5b 5a3d c5b2 7bbd b16a 7d3d 6c23 583d
00000100: 9d6c fb39 21cd 3bbe 3937 74bc 5359 e5bd
00000110: ebe0 09be c5c8 823d 7d2b 84bc 50f0 ab3d
00000120: f9ba 8cbd 0631 f5bc 0695 7fbd a768 2ebd
00000130: 4d1f f33d 4b2b a5bd 7dff d9bc 5e4e 18be
00000140: c46d 25bd 526c 423d 6533 95bd 8f74 e9bd
00000150: 8d13 a63c cd39 84bd 831b a8bd a206 81bc
00000160: 77d4 93bc 61a1 8ebd 5db8 d03c d76a bc3d
00000170: f7d1 213b a21d 62bb f4ad 84bd b264 a9bd
00000180: beda b8bd d78b a6bd 1425 a83d d417 243d
00000190: 7169 25be 9aec 40bd df00 47bd 33c7 b13c
000001a0: 1bda ccbd 7c95 9bbd 8a22 1bbe dbc2 40bc
000001b0: adbd 82bd 42d0 843c 0c3c 1cbe 6a49 aabd
000001c0: 4415 74bd a61f 8a3b af65 a7bc 6c79 e4bc
000001d0: f651 77bd 38be 95bb 9f3f e5bb 65c9 5abe
000001e0: d50b e9bd a30d e1bb d787 09be 1b55 f6bd
000001f0: 5f89 8c3d d8fb b43d 4407 2dbe c129 17bd

actor.4.weight f4 [128, 128]
-0.015217282 -0.03838354 -0.009853141 0.03828989 0.03394512 0.2772481 0.025697934 -0.19051726
-0.043327905 0.10950322 0.030557035 0.09863581 0.09708024 -0.11931942 -0.066070154 0.040098574
-0.041272417 0.028739247 0.087987624 -0.12582025 0.18160363 -0.30733424 -0.06498314 0.02861692
-0.020473123 -0.18961827 0.09329627 -0.034778766 -0.007493788 -0.04425917 0.08393738 -0.1109391
0.10376856 0.12863393 -0.19176239 0.05607486 0.18143053 -0.10653034 -0.042662352 0.05506
0.08933603 -0.3109623 -0.16830593 -0.18149719 -0.22938375 0.09166725 -0.074755274 -0.027263008
0.066110715 -0.04787857 0.0049890825 -0.12072823 -0.21594647 -0.048709966 -0.06219321 -0.07853256
-0.082184926 0.056630347 -0.09288528 -0.004230704 -0.04046156 -0.13231733 0.06277269 -0.021477485
0.086006925 -0.0029001052 -0.0067541907 0.015078939 0.26219544 0.15922125 0.1275706 -0.018522054
-0.15486017 -0.13335471 0.0060026497 0.09598103 0.024168262 0.029594464 -0.017585255 0.007123069
0.1256324 0.023568263 0.11503249 0.01798834 0.10611797 0.17990124 0.15964073 -0.03638889
0.10961967 -0.1045623 -0.036357377 -0.0469458 -0.034965526 -0.22717105 0.02384799 -0.039921287
0.038285993 0.027211243 -0.12524919 -5.3187814e-06 0.14790522 -0.1747701 -0.07608955 -0.020717122
0.014095027 0.03788071 0.03737167 0.020327289 -0.08690933 -0.059763625 -0.08179777 -0.07025461
-0.11376801 -0.07074889 -0.011243959 -0.0003402177 -0.15979014 0.00022686017 0.13664114 0.074352056
0.092091784 -0.02860982 -0.107771546 0.10730118 -0.12141618 -0.2483064 0.064198524 0.19735175
-0.034108777 -0.025011305 0.012850386 -0.072605036 -0.058519308 -0.31339645 -0.12392323 -0.038190804
0.020024132 0.078832455 -0.010980528 0.019856386 0.08489483 0.06960021 -0.007959641 0.07207791
0.08655677 0.021558594 0.046936985 -0.12877057 -0.05632457 -0.052466225 -0.04203581 -0.03381095
-0.023219226 0.08197934 -0.28849208 -0.056003943 -0.12484007 0.060829315 0.006625248 0.06487362
-0.039009806 -0.115751304 -0.06422961 0.20334432 -0.17170319 -0.07175493 -0.017355848 -0.05512324
0.03195437 -0.041773245 0.047063477 -0.01157321 -0.096991666 0.021034606 0.07202972 0.12915532
0.06460972 -0.014196155 0.01080597 0.08535932 -0.021677852 0.15300268 -0.097728536 0.0023849288
-0.042538267 0.10772 -0.038152136 0.047031254 -0.106942 -0.12308516 0.16827817 0.09312153
0.09311765 -0.007830866 -0.07270192 0.19026048 0.08283267 -0.15614401 0.025214823 0.10534563
0.088342465 -0.05415739 -0.059479374 -0.028522898 -0.09735373 -0.043697607 0.03718522 0.074976705
-0.11452619 -0.17755187 0.09914219 0.047259416 -0.057337925 -0.121166855 -0.009010382 -0.049215842
0.07647302 0.14389607 -0.08492525 0.007895601 0.030982299 0.115550235 -0.058550496 0.05703833
0.102974646 -0.017719282 -0.0528593 -0.037698913 -0.05669398 -0.10496458 -0.15832952 -0.09213119
-0.040742725 0.064144224 0.122955196 0.014530451 -0.11838182 -0.017569179 -0.060125668 -0.0006760158
0.062840864 -0.14211687 -0.11826804 0.12836288 -0.22785307 -0.07739208 -0.11665275 0.03892964
-0.10086445 -0.011289735 0.07032693 -0.030895548 -0.24862325 -0.0032459595 0.113384925 0.07691181
00000000: e851 79bc 0f38 1dbd 126f 21bc dcd5 1c3d
00000010: 0a0a 0b3d 77f3 8d3e 7984 d23c f516 43be
00000020: 9a78 31bd 3943 e03d bf52 fa3c 9201 ca3d
00000030: 01d2 c63d bd5d f4bd ca4f 87bd 673e 243d
00000040: 440d 29bd 926e eb3c db32 b43d 06d7 00be
00000050: 4df6 393e ea5a 9dbe e115 85bd 086e ea3c
00000060: 40b7 a7bc 4b2b 42be 1d12 bf3d 2e74 0ebd
00000070: 738e f5bb 1a49 35bd 5ce7 ab3d 0a34 e3bd
00000080: 9c84 d43d 9db8 033e 5c5d 44be c1ae 653d
00000090: edc8 393e 942c dabd b8be 2ebd 9886 613d
000000a0: cff5 b63d 7336 9fbe 6458 2cbe 66da 39be
000000b0: 93e3 6abe 0abc bb3d 4b19 99bd ac56 dfbc
000000c0: 0e65 873d 521c 44bd 757b a33b 5d40 f7bd
000000d0: 1221 5dbe 1a84 47bd 4fbe 7ebd aed5 a0bd
000000e0: 9250 a8bd 39f5 673d a33a bebd b8a1 8abb
000000f0: 05bb 25bd 327e 07be f88e 803d 8df1 afbc
00000100: 6624 b03d b10f 3ebb 4252 ddbb a70d 773c
00000110: 7b3e 863e e50a 233e dea1 023e 90bb 97bc
00000120: aa93 1ebe 238e 08be e0b1 c43b b491 c43d
00000130: 85fc c53c 1770 f23c f40e 90bc a268 e93b
00000140: c8a5 003e 3b12 c13c 2796 eb3d 495c 933c
00000150: 6154 d93d 0838 383e dc78 233e 840c 15bd
00000160: 4780 e03d c224 d6bd 79eb 14bd 3d4a 40bd
00000170: 0338 0fbd 879f 68be dc5c c33c 8184 23bd
00000180: c6d1 1c3d 1dea de3c 5341 00be fc77 b2b6
00000190: 7774 173e eff6 32be d7d4 9bbd f4b6 a9bc
000001a0: d4ee 663c ce28 1b3d 0913 193d 6a85 a63c
000001b0: 85fd b1bd b4ca 74bd 9785 a7bd a6e1 8fbd
000001c0: 34ff e8bd cbe4 90bd 9538 38bc 3f5f b2b9
000001d0: 07a0 23be 50e1 6d39 a8eb 0b3e e445 983d
000001e0: 9e9a bc3d 245f eabc 54b7 dcbd b9c0 db3d
000001f0: 0ca9 f8bd 0844 7ebe 847a 833d 9416 4a3e
00000200: a5b5 0bbd 82e4 ccbc 6d8a 523c f3b1 94bd
00000210: f1b1 6fbd 8075 a0be 76cb fdbd f66d 1cbd
00000220: a609 a43c e972 a13d ace7 33bc dca9 a23c
00000230: 57dd ad3d 8e8a 8e3d 2769 02bc 959d 933d
00000240: ad44 b13d a69b b03c ff40 403d 6fdc 03be
00000250: 98b4 66bd d3e6 56bd be2d 2cbd 5a7d 0abd
00000260: 3f36 bebc c9e4 a73d 3cb5 93be 6464 65bd
00000270: 27ac ffbd 2928 793d 9c18 d93b 76dc 843d
00000280: bfc8 1fbd 050f edbd d08a 83bd 7e39 503e
00000290: f6d2 2fbe 40f4 92bd da2d 8ebc e8c8 61bd
000002a0: 96e2 023d 6c1a 2bbd a2c5 403d 909d 3dbc
000002b0: 91a3 c6bd c450 ac3c 5184 933d 4b41 043e
000002c0: 1a52 843d fd96 68bc 860b 313c ded0 ae3d
000002d0: c095 b1bc bcac 1c3e e625 c8bd 774c 1c3b
000002e0: 9b3c 2ebd 4e9c dc3d 6a45 1cbd d8a3 403d
000002f0: 6804 dbbd 1314 fcbd 1d51 2c3e 80b6 be3d
00000300: 77b4 be3d 084d 00bc bfe4 94bd a5d3 423e
00000310: 2da4 a93d 37e4 1fbe 518f ce3c 73bf d73d
00000320: e5ec b43d 24d4 5dbd a5a0 73bd daa8 e9bc
00000330: 6461 c7bd 43fc 32bd 874f 183d 638d 993d
00000340: b58c eabd 28d0 35be 0f0b cb3d 1793 413d
00000350: 2cdb 6abd 5426 f8bd 48a0 13bc 8d96 49bd
00000360: e39d 9c3d 7e59 133e 4aed adbd 8d5c 013c
00000370: 97ce fd3c 9aa5 ec3d a5d2 6fbd 06a1 693d
00000380: 5fe4 d23d 0728 91bc fe82 58bd 2d6a 1abd
00000390: f237 68bd abf7 d6bd 2221 22be 47af bcbd
000003a0: d8e1 26bd 0c5e 833d efcf fb3d 2111 6e3c
000003b0: 2b72 f2bd 3ded 8fbc 5546 76bd a736 31ba
000003c0: b6b2 803d 1687 11be 8436 f2bd 8f71 033e
000003d0: 5152 69be bd7f 9ebd a3e7 eebd b074 1f3d
000003e0: 0592 cebd 95f8 38bc 9107 903d a918 fdbc
000003f0: 1897 7ebe 2aba 54bb 5b36 e83d f083 9d3d

actor.4.bias f4 [128]
-0.091638185 0.019493097 -0.1479076 -0.1690281 -0.04671169 -0.15415984 0.044775955 -0.1115814
-0.01373166 -0.19289829 -0.26449287 -0.18304223 -0.014969851 0.13046657 0.026355317 0.14977556
-0.04044633 0.13034414 0.15311144 -0.18020988 0.0427812 -0.030007241 -0.047926113 0.0584166
-0.0790803 -0.009861222 -0.07348038 -0.13724068 0.14373094 -0.007833574 0.076007694 -0.04529784
-0.10700317 0.0327292 0.011415099 -0.08167264 -0.1742875 -0.2270201 0.019593414 -0.11480745
0.054744408 0.052530542 -0.200412 -0.083506666 -0.18570152 -0.07556727 0.035929263 -0.046309933
0.08533279 -0.20887099 -0.049870025 0.019065244 0.06376149 -0.06761266 0.0015213008 0.12326137
0.017495343 0.104413934 -0.008654068 -0.10065377 -0.17714696 -0.047856025 -0.07023914 -0.047984134
0.030642338 -0.08693717 -0.046641897 -0.030247368 -0.01302205 0.049340054 0.011161579 -0.177623
-0.11461541 0.04802832 -0.07633778 -0.10390432 0.079105556 -0.023198614 -0.09347924 -0.02755367
-0.078056835 0.04293372 0.026207818 -0.00029666646 -0.050093204 -0.15129197 -0.01992296 0.07699722
0.055606455 -0.03582617 0.11270312 -0.0058133253 -0.17015705 -0.06457744 -0.23473029 -0.14811271
0.09076745 0.033741876 -0.022078905 0.10227112 -0.18724231 -0.06606801 -0.10409342 -0.09774244
-0.03426787 -0.07209006 -0.08739528 -0.0002557127 -0.10667813 0.015709933 -0.1907545 -0.05700898
0.17420678 -0.18210621 0.10405052 -0.113381155 -0.22965576 -0.13040276 -0.19521743 -0.14635725
-0.15693904 -0.20054546 0.12179846 0.011093389 -0.011545404 0.17784928 -0.20905441 -0.10482619
00000000: cdac bbbd fdaf 9f3c 1775 17be b415 2dbe
00000010: c254 3fbd 14dc 1dbe fe66 373d ca84 e4bd
00000020: c2fa 60bc 2187 45be 9c6b 87be 6c6f 3bbe
00000030: 1b44 75bc 0799 053e 1be7 d73c c45e 193e
00000040: 0dab 25bd ef78 053e 3fc9 1c3e f088 38be
00000050: 573b 2f3d bfd1 f5bc 2c4e 44bd 3f46 6f3d
00000060: daf4 a1bd f690 21bc e27c 96bd d288 0cbe
00000070: 342e 133e 6458 00bc eca9 9b3d 3a8a 39bd
00000080: 7a24 dbbd 0e0f 063d 6506 3b3c fc43 a7bd
00000090: 6c78 32be f577 68be 5e82 a03c 2b20 ebbd
000000a0: ac3b 603d 442a 573d ce38 4dbe 8b05 abbd
000000b0: 8a28 3ebe 03c3 9abd 902a 133d 7caf 3dbd
000000c0: f5c2 ae3d 47e2 55be 8344 4cbd b72e 9c3c
000000d0: 6295 823d 8278 8abd 6266 c73a 7570 fc3d
000000e0: 6552 8f3c f9d6 d53d cbc9 0dbc 9023 cebd
000000f0: 0366 35be ae04 44bd 8ad9 8fbd 038b 44bd
00000100: a405 fb3c 1d0c b2bd 930b 3fbd 54c9 f7bc
00000110: 705a 55bc cc18 4a3d 0edf 363c cee2 35be
00000120: 7cbb eabd 58b9 443d fb56 9cbd cacb d4bd
00000130: 1802 a23d 050b bebc 0b72 bfbd 3cb8 e1bc
00000140: 43dc 9fbd 45db 2f3d c7b1 d63c e689 9bb9
00000150: 882e 4dbd 48ec 1abe 7a35 a3bc b8b0 9d3d
00000160: 98c3 633d 76be 12bd e5d0 e63d b57d bebb
00000170: a63d 2ebe 2d41 84bd 235d 70be dcaa 17be
00000180: 49e4 b93d ec34 0a3d d2de b4bc 8573 d13d
00000190: 73bc 3fbe aa4e 87bd ee2e d5bd 302d c8bd
000001a0: 775c 0cbd f4a3 93bd 4cfc b2bd 2d11 86b9
000001b0: 107a dabd 1eb2 803c 2655 43be 4082 69bd
000001c0: 4363 323e 0d7a 3abe 7018 d53d 6134 e8bd
000001d0: e12a 6bbe 4d88 05be 14e7 47be adde 15be
000001e0: a1b4 20be ca5b 4dbe 7971 f93d 0cc1 353c
000001f0: ef28 3dbc 1f1e 363e 5c12 56be 1daf d6bd

actor.6.weight f4 [12, 128]
0.09631702 -0.065553874 0.053988375 -0.08499221 -0.023731498 0.004134158 -0.042504665 0.007286298
-0.04049682 0.118157245 0.008611366 0.00409003 -0.018954447 -0.09398728 -0.054701455 0.03555187
-0.010518132 -0.04757465 -0.034157284 0.016957713 -0.034501094 0.04851896 -0.01567238 -0.006930067
-0.028393565 -0.008720445 -0.023523357 0.04709861 0.033299167 0.018970957 -0.01737021 0.015312173
-0.0069694626 0.0034285681 -0.07603892 0.0051711244 -0.03713063 -0.0008228172 -0.06312437 -0.022561397
-0.0032827538 0.005148445 -0.23257723 -0.01888834 -0.051439904 -0.019124702 -0.020529566 0.019125002
-0.037701454 0.107320115 -0.0049277814 -0.00037688136 -0.03539798 0.011003251 -0.027521528 -0.012606622
-1.1938144e-05 -0.07619396 0.028644709 -0.027971592 0.019747913 0.039209194 0.009067532 -0.10490095
0.019642957 -0.023912722 0.043577727 -0.018099114 0.07042689 0.028569406 -0.0017618383 0.069703296
0.028699841 -0.049494915 -0.02465209 0.02362387 -0.014438051 0.055233747 0.07923717 -0.035895694
0.049638122 -0.017582519 -0.008334666 -0.047551263 -0.019541163 0.04309231 0.07816965 -0.034588095
0.0042074644 -0.022175573 -0.029995248 0.0022597753 0.012930612 0.01579277 0.09818692 0.0009432512
-0.047426756 -0.051052507 0.052593816 -0.08285954 -0.013055339 -0.09589633 -0.03647362 -0.041028537
0.007818719 0.05550197 -0.009866339 -0.03707546 0.13715808 0.043280173 -0.030789291 0.0074759396
-0.031152468 -0.02291593 -0.039145578 -0.0727648 0.10496713 0.022298919 0.038913876 -0.011066842
0.015434085 0.04370363 -0.04083795 -0.050282087 -0.047372658 -0.034705594 0.07677441 0.037112094
-0.02512125 0.014880221 0.011456659 0.037553478 0.071078576 0.034306772 0.044483315 0.09039095
0.025228137 0.058824994 0.10649961 0.035912894 0.011967963 -0.060137093 0.003496193 -0.08437647
-0.0006550767 0.0014734556 -0.05762789 -0.15878442 -0.030754672 -0.036716178 0.039007448 -0.038455136
0.03344136 -0.0074503035 0.013096568 -0.01961754 -0.06902732 -0.040475063 0.008548039 0.007479081
-0.0016944959 -0.0030454672 0.08148374 -0.010229933 0.026550861 0.08136045 -0.09384849 0.037617184
0.025599282 -0.018168524 0.06961362 0.0064252606 0.006699994 0.03050514 -0.00329875 -0.016234312
0.01556848 0.103616156 -0.057777133 -0.013204311 0.04415498 0.033602618 0.0014233803 -0.054185536
-0.04521274 -0.06419917 -0.0063944967 0.07910594 -0.025124058 -0.025286876 0.004730374 0.0558083
-0.03948567 -0.01041111 -0.057564285 0.0195025 -0.09155604 -0.015856799 0.009128716 0.07539323
-0.041052647 0.05109307 0.023735614 0.020313514 0.028080877 -0.015415251 -0.012944873 0.068727046
0.0069753258 0.013079534 -0.03688559 -0.0028069916 0.028457029 0.035407968 -0.020261038 0.016938033
0.013121989 -0.005105657 0.008163052 0.0028976942 0.054341663 -0.11065225 0.008444584 0.047577903
0.0010095603 0.008688527 0.022464257 0.009695821 0.056291424 0.0026159985 0.013381579 0.06229105
-0.02605188 -0.05703164 0.017526748 -0.012090156 -0.0068631493 -0.06437466 -0.00388989 -0.005753423
-0.049231865 -0.030033933 -0.04932888 -0.14146668 -0.036321465 0.050101817 0.11989755 -0.07443717
0.15156347 0.054094072 -0.011655966 0.02450017 0.08936781 -0.029704778 0.054479826 -0.07873304
00000000: dc41 c53d 1c41 86bd ea22 5d3d 6510 aebd
00000010: 8f68 c2bc d577 873b 5f19 2ebd e6c1 ee3b
00000020: fedf 25bd 6dfc f13d b016 0d3c a905 863b
00000030: 5b46 9bbc 677c c0bd a20e 60bd d69e 113d
00000040: 3e54 2cbc a3dd 42bd 82e8 0bbd e7ea 8a3c
00000050: 0551 0dbd d1bb 463d 5d63 80bc 9e15 e3bb
00000060: 9f99 e8bc 33e0 0ebc 0eb4 c0bc 79ea 403d
00000070: b564 083d fb68 9b3c f84b 8ebc e9df 7a3c
00000080: 1760 e4bb d4b1 603b 4bba 9bbd 8972 a93b
00000090: 4a16 18bd 54b2 57ba 5a47 81bd aed2 b8bc
000000a0: 7823 57bb 49b4 a83b ba28 6ebe b8bb 9abc
000000b0: a6b2 52bd 68ab 9cbc 9f2d a8bc 09ac 9c3c
000000c0: d76c 1abd a6ca db3d 3a79 a1bb 2998 c5b9
000000d0: 79fd 10bd fb46 343c d474 e1bc 018c 4ebc
000000e0: f049 48b7 940b 9cbd 4fa8 ea3c ae24 e5bc
000000f0: 60c6 a13c d299 203d fc8f 143c 4fd6 d6bd
00000100: 44ea a03c 9de4 c3bc 8f7e 323d 9844 94bc
00000110: f93b 903d 630a ea3c 7ced e6ba 9ac0 8e3d
00000120: ee1b eb3c 2ebb 4abd 2ef3 c9bc d986 c13c
00000130: 938d 6cbc c83c 623d 1947 a23d 5d07 13bd
00000140: 5851 4b3d 3709 90bc 1f8e 08bc 1dc5 42bd
00000150: ca14 a0bc 9081 303d 6917 a03d 3fac 0dbd
00000160: c5de 893b 8ca9 b5bc 98b8 f5bc bd18 143b
00000170: ebda 533c d75f 813c 3916 c93d 8444 773a
00000180: 8f42 42bd 6f1c 51bd 9d6c 573d 43b2 a9bd
00000190: 10e6 55bc 4c65 c4bd 5d65 15bd 8a0d 28bd
000001a0: 161a 003c 0956 633d 6da6 21bc 70dc 17bd
000001b0: 2b73 0c3e 8d46 313d d339 fcbc baf8 f43b
000001c0: 7633 ffbc 30ba bbbc 1d57 20bd b605 95bd
000001d0: 02f9 d63d 39ac b63c 2864 1f3d b351 35bc
000001e0: 3fdf 7c3c 9402 333d b245 27bd 97f4 4dbd
000001f0: d509 42bd 7427 0ebd e73b 9d3d da02 183d
00000200: 14cb cdbc 2ccc 733c b6b4 3b3c add1 193d
00000210: a591 913d 4285 0c3d 2334 363d e41e b93d
00000220: 3dab ce3c 7af2 703d 781c da3d 6619 133d
00000230: 4615 443c 5052 76bd 6320 653b 92cd acbd
00000240: 74b9 2bba f720 c13a 390b 6cbd 6298 22be
00000250: 39f1 fbbc b463 16bd 46c6 1f3d 2283 1dbd
00000260: cff9 083d ad21 f4bb fd92 563c f7b4 a0bc
00000270: 325e 8dbd 2ec9 25bd 130d 0c3c 1413 f53b
00000280: d919 deba 7696 47bb f2e0 a63d 739b 27bc
00000290: 3181 d93c 4fa0 a63d a333 c0bd 7a14 1a3d
000002a0: 96b5 d13c 28d6 94bc 9691 8e3d fe8a d23b
000002b0: a08b db3b eae5 f93c d72f 58bb d2fd 84bc
000002c0: f012 7f3c b534 d43d b7a7 6cbd e556 58bc
000002d0: dadb 343d e6a2 093d b890 ba3a a7f1 5dbd
000002e0: fe30 39bd db7a 83bd ed88 d1bb 4c02 a23d
000002f0: f8d0 cdbc 6c26 cfbc 4101 9b3b 3e97 643d
00000300: babb 21bd 5c93 2abc 87c8 6bbd b5c3 9f3c
00000310: bc81 bbbd 1ee6 81bc 9c90 153c c467 9a3d
00000320: d226 28bd f846 513d 3171 c23c 8768 a63c
00000330: de09 e63c 4090 7cbc bc16 54bc c4c0 8c3d
00000340: 4691 e43b 8b4b 563c 5815 17bd 81f5 37bb
00000350: b71e e93c f207 113d 7afa a5bc a1c1 8a3c
00000360: 9cfd 563c 5b4d a7bb 52be 053c 3ee7 3d3b
00000370: 5d95 5e3d a69d e2bd 275b 0a3c 0ce1 423d
00000380: 3953 843a 535a 0e3c f606 b83c 39db 1e3c
00000390: d691 663d 2c71 2b3b 693e 5b3c e624 7f3d
000003a0: c16a d5bc 029a 69bd 4194 8f3c ca15 46bc
000003b0: 45e4 e0bb ddd6 83bd 86ed 7ebb 3687 bcbb
000003c0: 5aa7 49bd b909 f6bc 140d 4abd a4dc 10be
000003d0: d1c5 14bd 9037 4d3d d98c f53d 8472 98bd
000003e0: 7433 1b3e bf91 5d3d aaf8 3ebc 95b4 c83c
000003f0: 7806 b73d 6f57 f3bc 3d26 5f3d ca3e a1bd

actor.6.bias f4 [12]
-0.101815596 -0.24903618 0.06442155 0.039409578 0.05850665 -0.04592155 0.015427278 -0.0006973463
0.04245879 -0.04123037 0.0811711 -0.12675662
00000000: b284 d0bd 5703 7fbe 72ef 833d f06b 213d
00000010: aba4 6f3d 3c18 3cbd b2c2 7c3c 1ece 36ba
00000020: 45e9 2d3d 2de1 28bd 093d a63d 7dcc 01be

critic.0.weight f4 [128, 48]
0.3499747 -0.017096655 -0.119535714 0.0072010783 0.01753421 -0.19729689 0.26798883 -0.20475344
0.08616652 -0.47414544 -0.7066729 -0.3350791 0.09834117 -0.01517676 0.15182565 -0.025838306
0.019765366 -0.048756264 0.18890706 0.039270513 0.0663174 -0.13949136 -0.059353687 0.03643832
0.07506782 -0.025913201 -0.06407823 0.009901067 0.041302245 0.012603679 0.0067618093 -0.02870565
-0.013696172 0.012413237 0.052043784 0.003697394 -0.048903517 -0.034044195 -0.017780803 -0.03195277
0.08863861 -0.023168046 0.021574277 0.04699158 -0.019783424 -0.07810677 0.00016065902 -0.022747181
-0.31103137 -0.14128612 -0.15630415 0.09775765 0.0960287 0.08387322 1.2903055 -1.0575563
-0.0064687133 0.2921765 0.13061841 -0.07152428 0.029638616 0.31800246 0.10943276 0.011306178
0.28645945 -0.038798854 0.39659137 0.108489364 0.12063091 0.21739869 0.5535282 -0.0026232437
0.090360254 -0.12428577 -0.01779265 0.07640084 0.06126104 0.00026680512 0.0963734 -0.06412604
0.01789573 -0.0036617755 0.022800585 -0.014074768 0.0119584 0.016848592 0.0029213827 0.13158311
0.01973037 -0.08668736 -0.01425719 0.04046444 -0.0024611072 0.04471968 -0.046820708 0.03005648
-0.103803374 0.119187266 -0.0061729853 -0.12196129 -0.15110898 0.2651257 -0.5008723 1.5773717
0.19570601 0.21067113 -0.095647275 -0.22058082 -0.109315455 -0.26235154 -0.15448302 -0.31521234
0.16700126 -0.26554984 0.14647365 0.07229647 0.17286877 -0.1703344 -0.24297544 0.07983264
-0.024036933 -0.05431881 0.03210213 -0.03664206 0.0035440582 -0.036632184 0.0032543282 0.015278926
-0.0017867743 -0.006098285 -0.028830204 0.01626636 0.052658647 0.01017911 0.03723704 0.07344576
0.09697571 0.025368065 -0.021174312 -0.06783464 0.0184602 -0.010079641 -0.018516663 -0.061999705
-0.13403969 -0.34401822 -0.02335556 -0.0002622595 0.0072318357 -0.14819996 -2.0477204 -0.4477173
-0.03435409 0.09677423 0.39329484 0.28865522 0.2877021 0.013790791 -0.054543942 -0.044503156
-0.07124777 -0.17678319 0.018989293 0.19060153 -0.34956998 -0.009529024 -0.29233682 -0.1183183
0.07360773 -0.031136444 -0.03332001 0.029555667 0.020459523 -0.05704149 0.027917504 0.03724522
-0.018143266 -0.031733148 0.016667537 0.0006179003 -0.072818615 0.07436681 0.12244089 0.061312962
-0.049150374 0.0031712248 0.12200387 0.053950574 0.13800609 -0.08314451 -0.14037192 -0.02530505
-0.33291784 -0.35013762 0.14514178 -0.16789678 0.070169546 -0.010514524 0.790553 -0.7755699
-0.07486024 0.0130115785 -0.28573725 -0.38480034 -0.02459472 0.16231951 0.11786109 0.10650439
0.16730264 -0.031748466 -0.009346471 -0.18732809 -0.051306672 -0.032071084 -0.03110613 -0.17210387
-0.09398204 0.051027037 -0.05339309 0.019242778 0.04906232 0.026407836 -0.10550593 -0.07928401
-0.03726675 0.006765199 -0.03104991 0.00848266 0.11337053 -0.04017232 -0.08751365 0.04453154
0.019196194 0.03779751 -0.060298987 -0.068629935 -0.01068724 0.0669784 -0.15573344 -0.095372245
-0.33759233 -0.08980594 0.09001796 0.04333017 -0.13576241 0.21437488 -0.73840743 -0.9139633
0.06564383 0.12508373 0.017952925 0.15630034 -0.08594052 0.082176365 0.12340068 0.22412051
00000000: e22f b33e 490e 8cbc 24cf f4bd 06f7 eb3b
00000010: e7a3 8f3c 3208 4abe d535 893e e3aa 51be
00000020: 1378 b03d 31c3 f2be 84e8 34bf 7d8f abbe
00000030: 1867 c93d f2a7 78bc 2f78 1b3e dbaa d3bc
00000040: faea a13c a6b4 47bd da70 413e 1eda 203d
00000050: 6bd1 873d d3d6 0ebe da1c 73bd 5940 153d
00000060: 28bd 993d ec47 d4bc 723b 83bd 1638 223c
00000070: 8b2c 293d a97f 4e3c 2b92 dd3b 1c28 ebbc
00000080: e965 60bc e460 4b3c dd2b 553d fa4f 723b
00000090: 0e4f 48bd ed71 0bbd 0ca9 91bc e8e0 02bd
000000a0: 2988 b53d eaca bdbc 8abc b03c 3e7a 403d
000000b0: d910 a2bc 71f6 9fbd 9476 2839 4c58 babc
000000c0: 813f 9fbe 4fad 10be 320e 20be 2a35 c83d
000000d0: b2aa c43d b9c5 ab3d bb28 a53f 015e 87bf
000000e0: 80f7 d3bb 2998 953e d5c0 053e 527b 92bd
000000f0: afcc f23c 38d1 a23e 481e e03d 8c3d 393c
00000100: d0aa 923e 8ceb 1ebd 060e cb3e ac2f de3d
00000110: 570d f73d c39d 5e3e 06b4 0d3f baea 2bbb
00000120: cc0e b93d 8a89 febd e4c1 91bc 0b78 9c3d
00000130: dbec 7a3d fae1 8b39 6b5f c53d 8354 83bd
00000140: 119a 923c 66fa 6fbb 4bc8 ba3c db99 66bc
00000150: 2aed 433c 0f06 8a3c ab74 3f3b b9bd 063e
00000160: 96a1 a13c 2589 b1bd fd96 69bc 0abe 253d
00000170: 874a 21bb fc2b 373d 12c7 3fbd 0239 f63c
00000180: dd96 d4bd 7418 f43d c146 cabb d7c6 f9bd
00000190: 50bc 1abe 8ebe 873e 2b39 00bf 51e7 c93f
000001a0: 2867 483e 2cba 573e b8e2 c3bd f0df 61be
000001b0: c8e0 dfbd f152 86be cc30 1ebe 8363 a1be
000001c0: 6102 2b3e 26f6 87be 30fd 153e 2c10 943d
000001d0: 8304 313e 246c 2ebe 8ece 78be 4c7f a33d
000001e0: 1ae9 c4bc 677d 5ebd 867d 033d fc15 16bd
000001f0: 6e43 683b a10b 16bd 9146 553b 7654 7a3c
00000200: 3232 eaba 1fd4 c7bb 522d ecbc 0841 853c
00000210: 98b0 573d 48c6 263c de85 183d bb6a 963d
00000220: 339b c63d b0d0 cf3c c075 adbc e3ec 8abd
00000230: d839 973c 1425 25bc 42b0 97bc 67f3 7dbd
00000240: b341 09be 2823 b0be 2954 bfbc e07f 89b9
00000250: 09f9 ec3b bbc1 17be da0d 03c0 343b e5be
00000260: e0b6 0cbd 9131 c63d f15d c93e 9eca 933e
00000270: b14d 933e c5f2 613c 7869 5fbd f148 36bd
00000280: 5aea 91bd a706 35be 6f8f 9b3c 0c2d 433e
00000290: d6fa b2be a01f 1cbc 2cad 95be dd50 f2bd
000002a0: a6bf 963d db11 ffbc 907a 08bd ba1e f23c
000002b0: bb9a a73c 56a4 69bd 40b3 e43c 728e 183d
000002c0: 30a1 94bc 9efa 01bd 5c8a 883c 96fa 213a
000002d0: ed21 95bd a04d 983d 4ac2 fa3d 4d23 7b3d
000002e0: e751 49bd 53d4 4f3b 2add f93d 47fb 5c3d
000002f0: 7851 0d3e ab47 aabd a8bd 0fbe 894c cfbc
00000300: 3574 aabe 3d45 b3be 0ca0 143e 22ed 2bbe
00000310: 0db5 8f3d 1c45 2cbc ae61 4a3f c08b 46bf
00000320: 5350 99bd 842e 553c 274c 92be 8d04 c5be
00000330: de7a c9bc 1637 263e 2861 f13d f91e da3d
00000340: 6251 2b3e ae0a 02bd f121 19bc efd2 3fbe
00000350: f226 52bd f85c 03bd 48d2 febc ff3b 30be
00000360: a879 c0bd ba01 513d b6b2 5abd 08a3 9d3c
00000370: 92f5 483d 3f55 d83c 7e13 d8bd a85f a2bd
00000380: 05a5 18bd 9aae dd3b 615c febc dbfa 0a3c
00000390: cf2e e83d bb8b 24bd 5b3a b3bd b466 363d
000003a0: 5641 9d3c 90d1 1a3d 12fc 76bd da8d 8cbd
000003b0: 8919 2fbc f92b 893d 9678 1fbe 8652 c3bd
000003c0: e7d8 acbe 2dec b7bd 565b b83d fa7a 313d
000003d0: 4d05 0bbe 1785 5b3e 4508 3dbf 80f9 69bf
000003e0: 4670 863d f315 003e 0312 933c 320d 203e
000003f0: 9501 b0bd 154c a83d 7fb9 fc3d d97f 653e

critic.0.bias f4 [128]
-0.03840049 0.22435454 -0.073444106 -0.14706855 0.084082186 0.09140947 -0.056869093 0.17387083
0.17543912 -0.045595426 0.10815293 -0.33755797 -0.15837346 -0.19371425 -0.001594043 -0.1429316
-0.17356671 0.04601441 -0.17077 -0.053872216 -0.14049271 -0.13144146 -0.103204094 -0.0808498
-0.14037666 0.08875477 -0.18535183 -0.11418402 0.18155316 0.0037243762 0.042106926 0.094810344
0.00011445872 -0.17635657 -0.22450553 -0.15877973 -0.20729132 0.0018729959 0.19747582 0.0069302334
-0.15757121 -0.018452602 -0.25596553 -0.0230383 -0.2968973 -0.19257976 -0.04619865 -0.0019480564
-0.1882284 0.028110154 0.062313408 0.0049163653 0.015609231 -0.018356238 -0.13907856 0.2073805
0.0064871404 -0.22397092 -0.13739364 0.06545292 -0.025945064 -0.08871584 0.044485405 -0.1003878
0.15294181 0.23152232 0.014610631 0.20425445 0.0627474 0.15162113 -0.07784585 -0.1304911
-0.15956762 -0.07281297 -0.0003563849 -0.02494614 -0.046036713 0.2318762 0.0861894 -0.15968938
0.16711634 -0.17159195 -0.01720365 0.0013691554 0.20618097 0.015348532 -0.14768447 0.17863218
0.011225037 -0.14740066 0.029549913 -0.11153035 -0.20724876 -0.08074089 -0.16967542 -0.13540012
0.14820077 0.083656386 0.15000035 0.05896672 -0.08056634 0.008787837 0.18709154 -0.14815369
0.052158 -0.08039254 0.041806515 -0.083412156 0.11072004 0.24127826 0.08213618 -0.09552708
-0.17364445 -0.02596516 -0.052196115 0.07978253 -0.1641863 -0.16884334 -0.10797062 -0.2736498
0.03897929 0.21834691 -0.027626617 0.06215672 0.099440515 0.06385899 -0.20297712 0.028235514
00000000: d549 1dbd 32bd 653e dd69 96bd 2399 16be
00000010: 4833 ac3d e334 bb3d 91ef 68bd 320b 323e
00000020: 50a6 333e 45c2 3abd 497f dd3d 66d4 acbe
00000030: a72c 22be 075d 46be 35ef d0ba a95c 12be
00000040: 79bb 31be 9b79 3c3d 55de 2ebe 1da9 5cbd
00000050: 52dd 0fbe 9798 06be ab5c d3bd 9494 a5bd
00000060: e6be 0fbe 10c5 b53d dfcc 3dbe 50d9 e9bd
00000070: 12e9 393e aa14 743b 5078 2c3d ed2b c23d
00000080: 8f09 f038 d196 34be c7e4 65be 2797 22be
00000090: 2d44 54be 507f f53a 1a37 4a3e 0317 e33b
000000a0: 595a 21be e929 97bc ea0d 83be d1ba bcbc
000000b0: ec02 98be a133 45be cc3a 3dbd ed55 ffba
000000c0: f2be 40be 4447 e63c 583c 7f3d 7619 a13b
000000d0: dcbd 7f3c d25f 96bc 9c6a 0ebe 8e5b 543e
000000e0: 1492 d43b a258 65be ebb0 0cbe 2e0c 863d
000000f0: be8a d4bc a6b0 b5bd 5436 363d 1e98 cdbd
00000100: c79c 1c3e 3014 6d3e 6e61 6f3c 1428 513e
00000110: b581 803d 9242 1b3e a56d 9fbd 759f 05be
00000120: b265 23be f71e 95bd 2cd9 bab9 d95b ccbc
00000130: fe90 3cbd f470 6d3e 1184 b03d 9d85 23be
00000140: 8c20 2b3e cdb5 2fbe abee 8cbc 3b75 b33a
00000150: 1b21 533e 6978 7b3c 993a 17be 5beb 363e
00000160: 38e9 373c 33f0 16be a912 f23c 066a e4bd
00000170: 0539 54be 7b5b a5bd 65bf 2dbe 54a6 0abe
00000180: f1c1 173e 0a54 ab3d b199 193e 1687 713d
00000190: f7ff a4bd dcfa 0f3c ed94 3f3e 9ab5 17be
000001a0: a1a3 553d d8a4 a4bd 4f3d 2b3d fed3 aabd
000001b0: 30c1 e23d a611 773e 0337 a83d b4a3 c3bd
000001c0: dacf 31be e3b4 d4bc 98cb 55bd 0665 a33d
000001d0: 7420 28be 45e5 2cbe b31f ddbd d41b 8cbe
000001e0: bfa8 1f3d 5596 5f3e 3751 e2bc 0b98 7e3d
000001f0: 78a7 cb3d 81c8 823d 3cd9 4fbe 2a4e e73c
